model/audio_classifier_model.pt (torch, 26130 bytes, 13 tensors)

conv.0.weight f4 [16, 1, 3, 3]
000000 f1 3d 2c bd e6 a0 3f 3e b3 6f af bd 6c 51 b8 3e
       -0.04205126 0.18713722 -0.08566227 0.3599962
000010 d3 a8 63 be fc b1 c1 bd 0d 18 58 3e 80 00 5a 3d
       -0.2223237 -0.09457776 0.21102925 0.053223133
000020 c1 40 1f 3e 11 a0 b8 be eb 97 ec bd e2 77 4e be
       0.15552045 -0.3605962 -0.115524136 -0.20162919
000030 c0 86 ed 3d 43 99 88 be a2 9b 08 3e 5e 30 75 3e
       0.11597967 -0.2667943 0.13340619 0.23944232
000040 98 78 ad 3d 00 b7 58 be 39 25 81 3e 52 cd d8 be
       0.08470267 -0.21163559 0.2522371 -0.42344147
000050 a3 41 70 3e 5d ef a7 3e 21 42 bb bd ed be ec bd
       0.23462538 0.32799807 -0.091434725 -0.11559854
000060 c0 fc 6c bd 91 d9 3a be 52 66 97 3e bd 6e 86 be
       -0.05785823 -0.18247057 0.29570252 -0.26256362
000070 7f a0 f6 bb be a5 8b 3e 04 a3 51 be 3f 11 83 3c
       -0.007526457 0.2727489 -0.20472342 0.015999435
000080 2f 9c 3f 3e ab 9b fb bd eb 81 0c 3c 60 85 f2 3d
       0.18711923 -0.12285551 0.008575897 0.118418455
000090 65 9b be bd 3c fb 5d 3e df cc fc bd a3 d5 bf 3d
       -0.09306983 0.2167787 -0.123437636 0.0936692
0000a0 eb d4 cc 3d de c6 96 be 8c ba 5a 3e 03 5a a4 be
       0.100015484 -0.294486 0.21360224 -0.32099923
0000b0 49 36 82 3e fb 0d 37 3e 48 e8 a9 3e 67 f7 28 3e
       0.2543204 0.17876427 0.3318503 0.16500627
0000c0 22 b1 40 be ca a6 a3 3e 1e 4a c2 bd 81 37 b4 bd
       -0.18817571 0.31963187 -0.09486793 -0.08799649
0000d0 21 a6 3f be b5 e6 99 3e bf ad 9e bc 67 b6 4a be
       -0.18715717 0.30058828 -0.019369958 -0.19796143
0000e0 ed 41 f2 bd fb 0e c8 3d b6 57 7f bd 91 66 0f 3e
       -0.118289806 0.09768482 -0.062339507 0.1400397
0000f0 80 8f 9f be b8 83 0f bd c7 db d2 bc d2 d2 9b 3e
       -0.3116417 -0.035037726 -0.025739564 0.3043428
000100 af b6 13 be c5 bc 2b be 1a 2f c3 3e 6a 5d 80 be
       -0.14425157 -0.16771229 0.38121873 -0.2507127
000110 32 20 04 be 07 a7 c6 3d 73 2d 98 3e f1 e8 bd be
       -0.12902907 0.09699827 0.29722175 -0.37091783
000120 a2 e3 b7 bd 8f 9f 33 bd 0a 92 74 3d 7d 2b 38 3e
       -0.089789644 -0.04385334 0.059709586 0.1798534
000130 c9 db 16 be d2 9f 7c 3d b3 98 b4 3e 11 ce 3d 3e
       -0.14732279 0.061675854 0.3527275 0.1853564
000140 99 db 9f be 0b 03 46 3e 9c 52 c2 3d 17 0d 92 be
       -0.31222227 0.19337098 0.09488413 -0.28525612
000150 56 36 86 3e 56 a4 0c bd 2a c7 6d be 5e 98 a3 be
       0.2621333 -0.03433641 -0.23220506 -0.31952184
000160 89 4f 79 3d f6 90 81 3e b4 e2 4c be e5 83 30 be
       0.060866866 0.2530591 -0.20008355 -0.17237814
000170 94 8b 95 3e 3a 41 0b 3d fe 88 3a be 70 b4 89 3e
       0.29208052 0.03399775 -0.18216321 0.26895475
000180 85 af 3e 3e 36 00 8a be cc e5 91 3d 80 79 ac 3e
       0.18621643 -0.26953286 0.071239084 0.33686447
000190 a8 43 8c be ee 11 54 be 08 ee 19 be 14 4f 81 bd
       -0.27395368 -0.20709965 -0.15032208 -0.06313911
0001a0 f3 62 45 bd 09 c1 4a 3e c8 2f 9c be 0f 3d 26 bd
       -0.04819007 0.198002 -0.30505204 -0.040585574
0001b0 16 16 20 bd 4f 0d 0e be 98 a1 1a be 4e f5 e1 3d
       -0.039083563 -0.13872264 -0.15100706 0.11033116
0001c0 f0 72 3a be 1f aa 0d 3d ec b3 60 be f1 ad 06 3e
       -0.18207908 0.03458607 -0.21943635 0.13152291
0001d0 20 13 9a 3e de 9c 1e 3e 12 00 98 be 7d 30 e1 3d
       0.30092716 0.15489528 -0.29687554 0.109955765
0001e0 9a f6 14 bd 4e 84 30 bc 56 04 bf 3c 20 fb 9a bd
       -0.03636799 -0.010773731 0.023317497 -0.075674295
0001f0 3b 06 05 be d7 a0 3b 3e c6 12 01 3e 8b 12 89 3e
       -0.12990658 0.18323074 0.12604818 0.2677196
000200 0c 3e f4 3c 8e 9a 1a 3e 1a eb 40 3d 80 56 32 be
       0.029814743 0.1509802 0.04709921 -0.1741581
000210 03 b1 9b 3e 7b 2e 34 bd b0 74 68 be 1b 1a 1c 3e
       0.30408487 -0.04398964 -0.22700763 0.15244333
000220 a1 a2 ac be ef 9a 43 3e fc 93 92 3e c1 39 b4 be
       -0.33717826 0.19102071 0.28628528 -0.35200313
000230 92 3e 96 3e 51 2b 73 3d a7 91 71 be e1 72 4a 3d
       0.29344612 0.05936748 -0.23590718 0.049425963

conv.0.bias f4 [16]
000000 64 ec f8 3d d3 a2 57 3d 6e 8d 5e 3e fe be 13 3d
       0.12154463 0.052645516 0.21733639 0.036070816
000010 89 e8 b4 be 01 f5 a3 3e 68 d8 a8 3e d1 eb 01 be
       -0.3533366 0.3202286 0.32977605 -0.12687613
000020 39 2e 87 3e 0f 27 57 3e 35 79 a4 be 6b 59 7d 3e
       0.26402453 0.21010993 -0.32123724 0.24741141
000030 7b 01 d5 be 6b dc 87 3e 41 54 09 be ae 09 18 3e
       -0.41602692 0.26535353 -0.13411047 0.14847443

conv.2.weight f4 [16]
000000 19 89 5c 3f f7 aa 6e 3f 2a b7 8f 3f 24 a6 92 3f
       0.86146694 0.9322962 1.1227772 1.1456952
000010 9e e5 6a 3f 1c a0 80 3f 16 18 53 3f f1 1b 61 3f
       0.9175662 1.0048862 0.8245863 0.8793326
000020 88 69 7d 3f 6f a4 9c 3f e2 77 78 3f ad bd 7c 3f
       0.9898915 1.2237681 0.97057927 0.9872692
000030 3d b4 7b 3f 58 4c 7d 3f b6 40 5f 3f 3f 36 91 3f
       0.98321897 0.98944616 0.87208116 1.134468

conv.2.bias f4 [16]
000000 b0 22 51 bd 91 ba d4 bc 83 c0 ce bd be e8 03 be
       -0.05105847 -0.025967868 -0.100953124 -0.12881753
000010 02 aa 49 bd 3f fb 1f 3e 7b c7 c8 bc 7b c6 c3 bd
       -0.049234398 0.15623187 -0.024509182 -0.095593415
000020 55 7d c3 bc 43 37 15 be 3e c9 53 bd 9b 5d 19 bc
       -0.023863474 -0.14571862 -0.05170559 -0.009360696
000030 d5 01 a9 bd ad 65 81 bd b2 b9 2e bd 43 36 19 bc
       -0.082523026 -0.06318221 -0.04265756 -0.009351316

conv.2.running_mean f4 [16]
000000 8e e1 37 3e d0 73 9d 3e 45 64 53 3e b6 79 31 3d
       0.17957136 0.3075242 0.20643719 0.043328963
000010 3b 2d fd 3b d2 3e c9 3e 88 96 f2 3e d5 19 ba 3b
       0.007726339 0.3930574 0.4738047 0.005679349
000020 ac ca 86 3e 9e 43 5b 3e 33 40 8b 3b 37 db d0 3e
       0.263265 0.21412513 0.0042495965 0.40792248
000030 ee ee 51 3d a8 f3 8d 3e e5 82 9b 3d b8 3d 35 3e
       0.05125325 0.27724957 0.075933255 0.17699325

conv.2.running_var f4 [16]
000000 b4 07 fd 3d bc 88 c7 3e 6c 7c ea 3c 6d fe 99 3a
       0.12354985 0.38971508 0.028623782 0.0011748798
000010 86 6b a7 3b fe 5e a4 3e 8e 8c 82 3e 5a 11 13 3b
       0.0051092533 0.32103723 0.2549786 0.0022440762
000020 6e 19 8c 3d 08 76 22 3b c3 8e 2a 3b 06 f7 5e 3e
       0.06840788 0.002478959 0.0026025034 0.2177392
000030 ae c7 64 3d 3f 32 a6 3b b9 99 b4 3d 66 6d 49 3d
       0.055854492 0.005071908 0.08818383 0.049176596

conv.5.weight f4 [32, 16, 3, 3]
000000 78 e8 63 3d d6 ee 98 bb 8f 7b 59 3d 8b d8 3a bd
       0.05564162 -0.0046671433 0.05309635 -0.045616668
000010 e3 36 cc bd ac 2e c5 3d 3c d7 6c 3d ad e0 99 bd
       -0.09971406 0.096280426 0.05782245 -0.07513557
000020 51 85 9a 3d 00 0a 76 bd 9a c0 88 3d d9 80 c7 bd
       0.07544959 -0.06006813 0.06677361 -0.097413726
000030 e6 eb 28 bd e8 db 20 3c 61 d2 b1 bd da 27 95 3d
       -0.041240595 0.009818055 -0.08682705 0.07282992
000040 1d f7 f9 bc ce 49 9a 3d 63 8a dc 3c 34 a2 e7 bd
       -0.03051334 0.075336084 0.026921457 -0.11310235
000050 7e 0a e9 bc fa 17 01 bd ed 64 ac 3d a0 da eb bb
       -0.028447386 -0.031517006 0.084176876 -0.007197693
000060 b2 03 00 be e7 6a aa bd 99 a2 95 bd 8b 24 5b 3d
       -0.1250141 -0.08321171 -0.07306404 0.053501647
000070 02 d3 50 bd ff d9 8c bc d0 e0 ca 3d 8f c0 c7 3c
       -0.050982483 -0.017193792 0.09906161 0.024383811
000080 5d 68 56 3d f6 e7 da bd 3d b0 00 3e cb 20 0d 3c
       0.052345622 -0.10688774 0.1256723 0.0086137755
000090 c4 7f e5 3c fb af e4 ba 86 47 de 3c c5 9b 46 bd
       0.028015025 -0.0017447466 0.027133714 -0.048488397
0000a0 0d e1 9b bc d6 61 12 3c aa b9 f9 bc d3 ed c3 bc
       -0.019028211 0.008934459 -0.03048404 -0.023917114
0000b0 7c c6 46 bd f1 d9 c3 3d c7 e8 83 3d 87 3c ce bc
       -0.048529133 0.095630534 0.06440883 -0.025175346
0000c0 24 8f b7 3d eb d8 98 bd 3d 7a 90 bd 28 9f 42 3d
       0.08962849 -0.07463249 -0.07054565 0.047515064
0000d0 c6 04 55 3d e6 57 fc 3d 28 a6 9f 3c c2 e9 f8 3c
       0.052006505 0.12321453 0.01948841 0.030384902
0000e0 aa 91 ae 3d 95 55 90 bd 7f bf 1c bd 1d b0 ec bc
       0.08523877 -0.070475735 -0.038268562 -0.028892571
0000f0 1a 53 d9 bc 56 90 2a bc 3b 45 93 3a fd 03 8f bd
       -0.026528884 -0.010410389 0.0011235842 -0.069831826
000100 5c 69 8e 3d 81 20 38 bd 2c 15 2a bd 08 d5 2c 3d
       0.069536895 -0.044952873 -0.041524097 0.04219535
000110 39 a4 a9 3d 4c 2e d2 bc 47 de 86 3d d1 a3 6c bc
       0.08283276 -0.025656842 0.06585365 -0.014443354
000120 db 81 a5 3d 24 df bd bb 83 d4 77 3c 8c 00 85 3d
       0.080814086 -0.0057944227 0.01512635 0.06494245
000130 f5 77 4e 3a 4d 52 88 bd 8d 35 79 bd f5 41 93 3c
       0.00078761514 -0.06656323 -0.060842086 0.017975787
000140 87 43 a6 bc a0 61 f1 3c b7 e0 25 3d 1f 88 af bd
       -0.020295871 0.029465497 0.040497508 -0.08570885
000150 72 24 82 bd e8 88 5d 3d 9e 75 bd 3d 38 f0 c4 bd
       -0.06354608 0.054085642 0.09250949 -0.096161306
000160 fe e9 e4 bc a6 58 fa bc ea 23 63 bd 0f 22 de bc
       -0.027943607 -0.030559849 -0.055454172 -0.02711585
000170 25 c0 17 bd 6f 89 82 bd 68 28 ae ba 4a 8e c4 bd
       -0.037048478 -0.0637387 -0.0013287188 -0.09597452
000180 5a 02 5a 3d 67 87 f9 ba 8e dc 5d bb c8 8b 8f bd
       0.0532249 -0.0019037545 -0.0033853385 -0.07009083
000190 a3 97 7e bd 35 98 07 3e 34 30 09 bc d3 73 14 bd
       -0.06215633 0.13241656 -0.008373309 -0.03624327
0001a0 65 b6 b1 bd dd 3e cf 3d 27 6a 36 3c 54 33 dc 3c
       -0.08677367 0.10119412 0.011133707 0.026879944
0001b0 02 34 2f bd 94 f9 22 3a 92 d0 0d bd ca 3b 0f bd
       -0.042774208 0.00062169996 -0.034622736 -0.03496913
0001c0 6b d5 3e 3d 04 8d 07 bd 43 1b ce bb c0 cd f1 bc
       0.04659025 -0.033093467 -0.006289871 -0.029517055
0001d0 41 a2 33 bb 1b 11 9c bc ba a7 e8 3b e4 c8 e5 bb
       -0.0027409943 -0.019051125 0.0071000727 -0.0070124734
0001e0 4a 10 a0 bd bc 54 b3 3c 17 0c a7 bd 98 c5 ad bc
       -0.07815607 0.02189099 -0.08156603 -0.021212384
0001f0 28 f8 99 3d ba 07 7e bd 05 1a b2 bd 4f 45 3f 3d
       0.07518035 -0.062019087 -0.08696369 0.046696957
000200 15 3f 94 bc 4e 36 11 3d e1 79 01 3b 94 32 94 3c
       -0.018096486 0.03545218 0.0019756483 0.018090524
000210 e9 e1 2a 3d 90 d5 bb bd 89 69 1c bd d2 12 0b be
       0.04171935 -0.09171593 -0.038186584 -0.13581398
000220 ef 64 14 be 71 bb 0b 3d 11 e4 96 3d c5 5b 21 bd
       -0.14491628 0.034114305 0.07367719 -0.03939416
000230 b3 12 a5 bd 95 7c ff bd bb 73 54 bd 91 d5 7b 3d
       -0.08060207 -0.12474934 -0.05186818 0.06148297
000240 93 97 bb 3d 0e ab 05 3d d3 87 ac 3d cc 33 a2 3d
       0.0915977 0.032633834 0.08424344 0.07920036
000250 4b f4 85 3d a0 19 38 3b a6 c1 17 3c f4 a2 32 bc
       0.06540736 0.0028091446 0.009262478 -0.010903109
000260 a5 5f 64 3d d6 2d 21 3c 3d 82 c9 bc d2 9e 95 3c
       0.055755276 0.009837588 -0.024598235 0.018264208
000270 41 08 45 3b 3b 24 a5 ba f7 c2 73 bd 20 5a 3f 3d
       0.0030064734 -0.0012599298 -0.059512105 0.04671681
000280 46 a4 22 bd b9 da d7 3c 2e dd 21 bd 83 36 82 bc
       -0.039707445 0.026349412 -0.039517574 -0.015895134
000290 5e 0c 6f 3c b9 fc c3 bc 29 8d d2 3d 7d e2 b7 3d
       0.014590351 -0.023924218 0.102808304 0.08978746
0002a0 a4 25 10 bd 7c 33 82 3d 61 87 d2 3d 01 7b dd 3c
       -0.035192147 0.06357476 0.10279728 0.027036192
0002b0 e9 23 7b 3d 02 ba ae bc a8 52 f7 bc b7 57 72 3d
       0.061313543 -0.02132893 -0.03019078 0.059165683
0002c0 0d 49 98 3d 48 89 29 3d 9d 01 81 3d 97 1c a1 ba
       0.07435808 0.041390687 0.06299136 -0.0012291846
0002d0 70 53 0a 3d 35 e8 b4 3d 20 6d 38 bd 58 16 fa bc
       0.03377098 0.088333525 -0.045025945 -0.030528232
0002e0 74 22 5e 3d d5 b3 8b 3d c2 6d 22 3d 2c 9c 12 bc
       0.054232076 0.068214096 0.039655454 -0.008948367
0002f0 2f 1b 1c bd d4 80 88 3d 19 63 68 3d 1d 94 fc 3c
       -0.03811186 0.06665197 0.056735132 0.030832345
000300 41 35 30 bd 25 85 92 bb 4c 7a 8a 3d 09 10 69 bc
       -0.043019537 -0.0044714385 0.067616075 -0.0142250145
000310 33 f6 82 3c 21 26 96 3d 65 bc 5d 3c 14 be 38 3c
       0.015986538 0.07331491 0.013533686 0.011275787
000320 e6 25 44 3d fb 20 f7 bb e1 52 d1 3c a9 d6 0a bd
       0.047887705 -0.0075417734 0.025552215 -0.033896122
000330 c6 5c 21 bd ee 5d a4 bb 25 59 94 bc 15 e3 36 bd
       -0.039395116 -0.00501608 -0.018108914 -0.044650156
000340 7d 91 31 bd 43 83 20 3c 3c 15 5e bc f0 16 87 bc
       -0.04335164 0.00979692 -0.013554867 -0.01649043
000350 66 af dd b9 27 73 41 bd 15 81 40 3d 83 d5 79 3c
       -0.00042283087 -0.04722896 0.046998102 0.015248659
000360 d4 9c a0 bc ce 39 9f bc 5a ea 35 bc e8 86 14 bd
       -0.019606031 -0.019436743 -0.011103237 -0.03626147
000370 70 64 33 3d b1 0b 00 3c ae 87 64 bc 4e db 70 3d
       0.043796957 0.007815287 -0.013948364 0.058802895
000380 b1 3e 83 3d 79 95 e7 3c 09 25 7f 3d 53 37 5d 3c
       0.06408442 0.028269516 0.06229118 0.01350196
000390 33 0d ad 3d 7a 8f cf 3d 0f 9d 04 3d b0 e4 b3 bc
       0.08449783 0.10134788 0.032376345 -0.021959633
0003a0 48 31 9a 3d 85 cd 62 3d 17 c0 25 3d c6 f4 10 3d
       0.07528931 0.05537178 0.040466394 0.035389684
0003b0 5d 12 55 3c c0 3a c9 3c 09 73 af 3d 09 af 2d bd
       0.013004866 0.024564147 0.08566863 -0.042403255
0003c0 36 14 db 3b 2c 00 30 3d 6c 95 23 bd 14 b0 0e 3b
       0.006685759 0.042968914 -0.03993742 0.0021772431
0003d0 06 25 05 bd 6d 98 b3 bd be a9 62 bc 73 71 2f bd
       -0.03250601 -0.08769307 -0.013834415 -0.042832803
0003e0 01 4a 19 bd f4 68 4e 3d 35 2b 89 bd 93 3b d9 bc
       -0.03742409 0.05039306 -0.06697694 -0.026517665
0003f0 0c fc 9d 3d 50 32 ea bb 96 e6 1a bb 08 92 fc 3c
       0.0771409 -0.007147111 -0.0023635975 0.030831352

conv.5.bias f4 [32]
000000 ea 33 11 3d 98 fa 1e bd c3 b6 6f 3d b5 f8 df 3d
       0.0354499 -0.038813204 0.058523905 0.10936109
000010 4a 0f d6 3d b1 95 00 3e 6e 1c 67 3d d3 e8 b4 bc
       0.10452135 0.12557103 0.056423597 -0.022083675
000020 f5 76 bf 3d 66 00 51 bd 2c 4e 89 3d c6 8d 8b bd
       0.09348861 -0.05102577 0.06704363 -0.068141505
000030 69 e7 b1 bb 17 86 c3 bd 80 10 35 3d 86 40 cf bd
       -0.0054291976 -0.0954706 0.04420519 -0.10119729
000040 6d 6b 91 3d 8b e0 36 bd 98 65 00 3e 1b d0 9e 3d
       0.07100568 -0.044647735 0.12538755 0.07754537
000050 8d a1 e2 3d 76 f8 bc bc a1 78 8c bc 9c a7 ad 3d
       0.110659696 -0.023067694 -0.017147364 0.084792346
000060 75 31 da bc 55 22 fc bb 59 81 7f 3d 24 94 e0 bb
       -0.026634911 -0.0076945224 0.062379215 -0.0068535972
000070 3b 81 b5 bd b5 52 69 bc b1 b2 fc 3d f5 66 2d 3d
       -0.088625394 -0.01424091 0.1233877 0.042334516

conv.7.weight f4 [32]
000000 a4 a7 a0 3f 21 99 71 3f 60 ed ae 3f ba 2d a0 3f
       1.255116 0.9437428 1.3666191 1.2513955
000010 93 f9 bb 3f af 5e b5 3f 52 8b 74 3f 23 a5 70 3f
       1.4685539 1.416952 0.95525086 0.9400198
000020 85 4e af 3f 2a 5e 67 3f f3 73 bc 3f 70 a0 9f 3f
       1.3695837 0.9037806 1.4722885 1.2470837
000030 a0 78 aa 3f 5d 02 69 3f 98 f0 ab 3f da fb 99 3f
       1.3318062 0.9101923 1.3432798 1.2029984
000040 c7 4d a5 3f ec 08 76 3f da 76 a8 3f 6b ee a5 3f
       1.2914361 0.96107364 1.3161271 1.2963384
000050 fc dc c7 3f f6 34 6d 3f fb 21 6a 3f 15 9f b4 3f
       1.5614314 0.92658937 0.914581 1.4111048
000060 e9 26 9e 3f f1 ef a7 3f ad ab b8 3f e9 0c 9b 3f
       1.2355624 1.3120099 1.4427391 1.2113315
000070 e0 e3 a5 3f a5 f8 69 3f 88 90 b0 3f 9d fa 8e 3f
       1.2960167 0.91395026 1.3794107 1.1170231

conv.7.bias f4 [32]
000000 1e fc 72 3e c9 cd a2 bd 67 bb 9f 3e c9 b4 73 3e
       0.23728988 -0.07949407 0.31197664 0.23799433
000010 4a 94 9d 3e f6 62 a7 3e 61 ec 6b bd d4 4b cf bd
       0.30777198 0.3269269 -0.057598475 -0.10121885
000020 0a 65 9d 3e 7c 28 0a be d0 72 b4 3e 00 61 72 3e
       0.3074115 -0.13492006 0.35243845 0.23669815
000030 21 c2 b6 3e 20 18 13 be c3 22 87 3e 6c 6f fa 3d
       0.35694984 -0.14364672 0.2639371 0.12228283
000040 87 fa 7b 3e 56 da 4e bd 36 7e 8f 3e f4 4e 7c 3e
       0.24607287 -0.05050119 0.2802598 0.24639493
000050 1c c7 92 3e 3f c1 09 be 5f c0 0a be 87 ea ba 3e
       0.28667533 -0.13452624 -0.13549946 0.36507055
000060 a0 1a 76 3e 52 b9 a9 3e 04 82 c3 3e 1c 50 11 3e
       0.24033594 0.331492 0.38185132 0.14190716
000070 ed e1 35 3e 6b 45 06 be 79 1e 99 3e fa ca a3 3d
       0.17761965 -0.13112418 0.2990606 0.07997699

conv.7.running_mean f4 [32]
000000 84 1d 54 3e 1a 1f 0a 3f 6f b4 ae 3e ec f7 ac 3e
       0.20714384 0.5395371 0.34122035 0.337829
000010 7b 31 cc 3e 53 d2 a4 3e 04 c4 68 3f c6 a1 36 3f
       0.398815 0.32191715 0.90924096 0.71340597
000020 fe 5f be 3e 79 3d ac 3e 0d ef b6 3e 17 94 d2 3d
       0.3718261 0.3364065 0.35729256 0.10282152
000030 02 ad 36 3e 27 f1 cb 3e cb fe 85 3e 3e 4a d7 3e
       0.17839435 0.39832422 0.26170954 0.4204883
000040 2c d5 82 3e 44 a5 13 3f 00 4c a8 3e 9b e5 91 3e
       0.25553262 0.5767405 0.32870483 0.28495488
000050 c5 5b 0e 3f 44 b2 20 3f f6 4a ef 3e 7a 67 bc 3e
       0.5560878 0.6277201 0.46736878 0.36797696
000060 5e 0e dc 3d 4a c6 60 3e 8e 8c 96 3e 42 d7 98 3e
       0.10744928 0.21950641 0.2940411 0.2985173
000070 a3 51 b3 3e fc b4 20 3f 79 ed a5 3e d5 21 8e 3e
       0.3502322 0.6277616 0.3240774 0.27760187

conv.7.running_var f4 [32]
000000 f0 6f 13 3e 67 2f b8 3f 27 96 9f 3e 0b da 9b 3e
       0.1439817 1.4389466 0.31169245 0.3043979
000010 5b d2 2b 3f 86 bf 8e 3e 45 e3 4c 40 74 e1 18 40
       0.6711785 0.27880496 3.2013714 2.3887606
000020 76 e6 9e 3e e6 e5 ca 3f 3d cd b2 3e b6 9e 9f 3d
       0.31035203 1.585141 0.3492221 0.077939436
000030 67 69 ea 3d 2a 79 77 3f 12 86 79 3e 74 d7 67 3f
       0.11445885 0.96669257 0.2436755 0.9056313
000040 d6 ed 6a 3e 74 b1 ff 3f f8 57 8f 3e 38 3d 82 3e
       0.2294229 1.9976029 0.27996802 0.2543733
000050 88 a7 60 3f f7 0e 00 40 a5 4d a5 3f b2 81 b7 3e
       0.8775563 2.0009134 1.291432 0.35841137
000060 0b 72 b6 3d 05 ff 56 3e 46 eb 74 3e 6e d3 05 3f
       0.08908471 0.2099572 0.23917875 0.5227574
000070 bc 7c 2e 3f 26 1d 21 40 6d 30 a3 3e 65 88 db 3e
       0.6815908 2.517404 0.31872883 0.42877498

fc.0.weight f4 [1, 32]
000000 78 a2 a3 3e 01 f2 54 3c f2 f3 86 3e 51 76 94 3e
       0.3195989 0.012997151 0.2635799 0.28996518
000010 50 15 72 3e 57 5f 7d 3e 77 da a7 3c 65 cd 25 bc
       0.23640943 0.247434 0.020489914 -0.010119771
000020 4c 6c 80 3e 5e 8c c9 bd b5 8e 87 3e 11 a7 9d 3e
       0.25082624 -0.09841226 0.26476064 0.30791524
000030 c4 db 51 3e ae 47 dd bd ba a3 9c 3e 77 ea 23 3e
       0.2049399 -0.108046874 0.30593663 0.1600741
000040 af d5 93 3e 6a 41 bb 3c 3b e3 88 3e d0 5a 9d 3e
       0.28873965 0.02285834 0.26735863 0.30733347
000050 2c 3c 91 3e ee 63 8d bd a9 16 8b bd 9d 8c 60 3e
       0.2836622 -0.06903826 -0.067914315 0.2192864
000060 8f 72 8e 3e ca 72 5a 3e 8e e4 85 3e ab 57 0f 3e
       0.27821776 0.21332851 0.26150936 0.13998286
000070 d3 5d 57 3e a1 62 95 bd 7f eb 88 3e 80 36 e3 3d
       0.21031885 -0.072942026 0.2674217 0.110943794
