model/audio_classifier_model.pt (torch, 167350 bytes, 49 tensors)

conv1.weight f4 [32, 1, 3, 3]
00000000: 04ff 273f 6c55 24bf a476 0fbf 8e02 a5be
00000010: cc4c d23e fa84 aebd a60f 07bf f411 ab3e
00000020: 71da 553e 5b71 f63e 53c6 f7be 1f9f 89bf
00000030: 53a4 353f 9bd1 cebd 4fe5 babe a5e7 dd3d
00000040: f650 bb3d fa61 75bf 4e5d 803c 5d96 6c3e
00000050: d817 68bf e0b8 46bf a3c2 813c 3523 753d
00000060: 8c80 2bbf ee36 903e cf7d 153f 4253 d0bb
00000070: 798b 2dbe e527 21be cc63 adbe bf07 c9bd
00000080: b673 91be 4675 153d 75f4 f43d 7311 993f
00000090: 9210 36bf cf93 e23e ce46 34bd e785 373d
000000a0: e594 4d3e e7d2 54bf db46 44be 85b3 c33e
000000b0: 352b 103f 495a f13e 3170 bfbe 0ff3 963e
000000c0: 10e9 55be 7f35 9b3c 51d8 8f3e 1be6 1fbc
000000d0: 9cde 8fbf 67b2 383e 26dc 42bf 77d9 a5be
000000e0: 6c87 82be 8924 5fbe 8e94 02bf 4a4a 263f
000000f0: 9de9 983d 706c 06bf 35a5 ce3e b99b 513b
00000100: c29f 833f 4438 66bd d5eb 303f a62a 4e3f
00000110: 900b f4be 7ff8 603f e855 8fbe c42f 93be
00000120: 47a4 783c 735d 2b3e 03cf f8bd 05cc 4ebf
00000130: 0ebf 27bf 7ebd 3abd ecdc 59bf 9d91 95bd
00000140: f599 d83d 509b 93bc 7ab9 5d3e 97f8 b63e
00000150: 0dae 9bbe 9ba3 3b3f 50ae f8be b9d5 a5be
00000160: 93bb 58bf 59b1 c43e f66f 613f 4483 c5bd
00000170: dce1 a73f 256d b53f 7cff 8c3f 1861 253f
00000180: b010 013f e058 3a3f c190 94bd 6f31 7fbd
00000190: e33c 2a3e bd88 cfbd c5c8 f33b 489b f3be
000001a0: de5f f13e 414f 94be 7ad8 4c3f d145 02bf
000001b0: 0d6e 143f 4753 873e d3d7 98bd 273f 26be
000001c0: fe2a 15bd 0540 84be 399b a13e dcbd ac3e
000001d0: 84ba 853e da8c 4c3f 4f87 aa3e 868f 68bf
000001e0: 5727 603d ab13 8b3d 0caa 5a3f 910c 0a3e
000001f0: 5d9d 893e febd c5be b01c bb3e c8bb 49be
00000200: 3aee 0bbb b7d5 14bf 6189 6fbe a569 90be
00000210: 0d05 4a3f e419 3b3d 387e 65bf 5dc0 eebe
00000220: 33b0 59be dada 603d 4287 3a3f 6ad0 13bf
00000230: 91d0 04bf 5338 06be 44d2 473f 4a24 e5bd
00000240: 2529 7f3d 5b5f 2bbe 30af 59bf ebb9 68be
00000250: 05e7 06bf 7d22 1ebf 7b3f 063f f8cd e3bd
00000260: 9fe1 0b3e 7c19 943f bb7e 303e d830 653f
00000270: 625f b93e cc7c 2fbe bb22 1ebf 702a df3e
00000280: 0381 3fbe 68cf 8a3f 7329 d93e b2a0 2bbe
00000290: 2da7 5b3e 7b8a 453f e5c4 55be fd2e 94be
000002a0: 4101 e3be 1629 a63d b76e 543f cc12 633e
000002b0: 6aaa 113e 3183 c7bd 1c2c a73e 9a47 0cbf
000002c0: b180 85bf 34c8 5a3c 990e b7bd 4ee6 c7be
000002d0: 2163 ec3d 4f22 b3be a3f5 323f 06f1 25be
000002e0: b246 c53e d3c3 eebd 75bd 0d3f 98d7 80be
000002f0: 8ffd ffbe 60f3 213f d16a 9f3e cf09 a33e
00000300: 97df cfbe 2e3a 413d ec7b 8e3e b8d4 c5be
00000310: b689 9fbe 5966 de3e 5015 2bbf 99b1 693e
00000320: 8dc5 043f 27af 2ebf f2ca 83be 438b 55bf
00000330: c897 8f3d f5ba d53e 7d7e 0fbf 6ba1 80bd
00000340: 2fc8 223d 8be0 cfbe 2bee a5be bf38 c83e
00000350: dc8d 85be 7d9d b33e 28b7 4e3e 7214 863e
00000360: 1c44 203e 5953 573f a910 a83e ac3c 0fbf
00000370: 6b70 8f3e 1deb 8abe 4f2a 363f 07a3 bd3e
00000380: 86b5 81bc 3c03 5e3e 3803 cc3e 526d 65bf
00000390: 7488 193f 4be2 8abe 316d eb3b efde 243e
000003a0: b06f 8f3c a5a7 133b a92b 7d3e fed0 b03d
000003b0: 75fa b2be 4754 8ebe c530 c33d fa83 ec3d
000003c0: cb53 60be e160 283f beea 40bf d0f0 e7be
000003d0: 8ce0 093e eac5 df3e d85e d9be e9a2 84bc
000003e0: cf89 a43e b43a 033f 7554 0a3d 194d 203f
000003f0: e854 c83d 9978 903d d872 053e 2986 6dbe
0.656235 -0.64192843 -0.56040406 -0.32228512 0.41074216 -0.08521457 -0.5275825 0.33412135
0.2088411 0.48133358 -0.48393497 -1.0751685 0.70953864 -0.10098573 -0.36503074 0.10835198
0.091463014 -0.95852625 0.015669491 0.23104234 -0.9066138 -0.77625847 0.01583988 0.05984803
-0.6699302 0.28166908 0.58395094 -0.0063575814 -0.16947736 -0.15737875 -0.338652 -0.098159306
-0.28408593 0.036488794 0.11960689 1.195845 -0.71119034 0.44253394 -0.044012837 0.044805434
0.2007633 -0.8313431 -0.19167654 0.382229 0.5631593 0.47139195 -0.37390283 0.29482314
-0.20889688 0.018946407 0.28094724 -0.009759451 -1.123981 0.18036805 -0.7611717 -0.32392475
-0.25493944 -0.21791281 -0.51007926 0.64957106 0.07466433 -0.5250921 0.40360418 0.0031983687
1.0283129 -0.056206003 0.6910985 0.80533826 -0.4766507 0.87879175 -0.2799523 -0.2874738
0.0151758855 0.16734867 -0.12148859 -0.8078006 -0.655259 -0.04559087 -0.85102725 -0.07303164
0.1057624 -0.018018395 0.21652785 0.35736534 -0.30406228 0.7329652 -0.4857049 -0.3238962
-0.84661216 0.38416556 0.88061464 -0.096441776 1.3115802 1.4173933 1.1015468 0.6460128
0.5041609 0.7279186 -0.07254172 -0.062303003 0.16624789 -0.10133503 0.007439705 -0.47579408
0.47143453 -0.28966716 0.8001782 -0.5088778 0.57980424 0.26430723 -0.0746304 -0.16235028
-0.036417954 -0.25830093 0.31563738 0.337386 0.26118863 0.7990242 0.33306357 -0.90844
0.054725017 0.06790861 0.8541572 0.13481356 0.2687787 -0.38621515 0.36545324 -0.19700539
-0.002135171 -0.581386 -0.2339225 -0.282056 0.78913957 0.045678988 -0.8964572 -0.46631137
-0.21258621 0.054896213 0.7286264 -0.5773989 -0.5188075 -0.13107423 0.78055215 -0.11188562
0.062295098 -0.16735594 -0.8503294 -0.22727172 -0.5269626 -0.61771375 0.52440614 -0.1112327
0.13660286 1.1570277 0.17235844 0.89527655 0.36205584 -0.1713745 -0.61771744 0.43587065
-0.18701558 1.0844545 0.42414436 -0.16760519 0.21450491 0.7716443 -0.2087589 -0.289421
-0.44336894 0.08113305 0.8298144 0.22175139 0.14225164 -0.0974182 0.3265084 -0.54796755
-1.0429899 0.013353396 -0.08938331 -0.39042896 0.11542345 -0.34987113 0.6990606 -0.16205224
0.385305 -0.11658444 0.55367213 -0.25164485 -0.49998137 0.63261986 0.31136182 0.3184342
-0.40600273 0.047174625 0.2782892 -0.38638854 -0.31159753 0.4343746 -0.66829395 0.22821654
0.5186394 -0.6823601 -0.25740772 -0.8341562 0.07011372 0.417442 -0.5605238 -0.06280788
0.03974169 -0.40601 -0.3240827 0.39105794 -0.26084793 0.35081092 0.20187056 0.26187474
0.15650982 0.84111553 0.3282521 -0.5595195 0.28015456 -0.27132502 0.7115831 0.37038442
-0.015833627 0.21680921 0.39846206 -0.89619935 0.59973836 -0.27125773 0.0071846475 0.16100667
0.017509311 0.0022530344 0.24723686 0.08633612 -0.3495671 -0.27798674 0.095307864 0.1154861
-0.21906964 0.65772825 -0.7535819 -0.45300913 0.13464564 0.43705684 -0.42455173 -0.016190963
0.3213639 0.5126145 0.03377195 0.6261764 0.097818196 0.07054252 0.1303209 -0.2319571

conv1.bias f4 [32]
00000000: 6c1c ed3b 77dc 9a3a 5dc5 81bb 64d5 aeb9
00000010: 2573 0abc 47e5 8ab8 3088 033b e6d2 a5bb
00000020: d282 04bb fdb9 a8b9 c644 91ba 0fd6 af3d
00000030: b7f5 463b 220a 8abb d702 c8ba a914 9b3b
00000040: 279b eb3b 158d 093b b589 39bb c62a 5d3a
00000050: e46a 483b 193a 69bb 90a4 21ba 04c5 9ebb
00000060: 6146 3eba 7389 efbb e3f6 df3b 2500 ebbb
00000070: 1e74 363c e50d feba 93b2 413a a0e4 beba
0.007236054 0.0011814971 -0.003960295 -0.00033346855 -0.008450304 -6.623059e-05 0.0020070188 -0.0050605414
-0.0020219577 -0.0003218203 -0.0011083118 0.0858575 0.003035886 -0.0042126337 -0.0015259635 0.0047326875
0.0071901265 0.0020988632 -0.002831084 0.00084368547 0.003058129 -0.0035587607 -0.00061661843 -0.0048452634
-0.0007258412 -0.0073100864 0.006834851 -0.007171648 0.011136083 -0.0019382803 0.00073889754 -0.0014563985

bn1.weight f4 [32]
00000000: bc49 743f bf28 753f 80eb 793f 5077 833f
00000010: 774b 733f 8a70 813f 2b51 713f 6b61 693f
00000020: 5a1c 743f 3b94 763f a926 703f 39f5 973f
00000030: 4748 703f 1ede 713f 52d1 783f b6de 833f
00000040: 855c 833f 6bfd 7c3f 1929 733f e9a7 793f
00000050: 2444 7d3f 7e62 7f3f cd12 803f 7838 7d3f
00000060: 9401 6c3f 733e 7a3f 50fb 7b3f fe6c 783f
00000070: 9035 833f 0a7a 8a3f c97c 7e3f 08c9 6b3f
0.9542501 0.957653 0.9762497 1.0270786 0.95037025 1.0112469 0.9426448 0.91164273
0.9535576 0.9631993 0.9380899 1.1871711 0.93860286 0.9447955 0.971944 1.0302341
1.026261 0.98824185 0.94984585 0.97521836 0.989321 0.9975966 1.0005738 0.9891429
0.9218991 0.9775154 0.9843035 0.9704131 1.0250721 1.0818493 0.9940916 0.92103624

bn1.bias f4 [32]
00000000: 9f24 a2bd aeb5 febd f51a 2dbc bfac 103e
00000010: a991 5e3d 06fd 1cbd 7bfa 93bd 6b36 8b3c
00000020: fba9 c6bc 63ae d6bd 893e c53b 3d21 193e
00000030: a4ad d53d 0361 b83d 15c9 1e3e 51a5 2cbd
00000040: 6441 2abd 8768 b3bc 2350 533d aea8 a7bd
00000050: 9002 cc3d 0d75 f43b c209 f13d d817 ee3d
00000060: fa4b 0fbd 48d3 c43d f271 a43d 8803 d33d
00000070: f388 803d e50a df3c f8a2 78bd e776 9abc
-0.07917141 -0.124369964 -0.010565509 0.14128397 0.05433813 -0.03832724 -0.0722551 0.016993722
-0.024250975 -0.104824804 0.0060194177 0.14954086 0.1043351 0.090028785 0.15506394 -0.042149846
-0.041566268 -0.021900428 0.051590096 -0.0818647 0.09961426 0.0074602426 0.11769439 0.116256416
-0.034984566 0.09610611 0.08029546 0.10303408 0.06276121 0.027226875 -0.060702294 -0.018855525

bn1.running_mean f4 [32]
00000000: 3f94 393d 2e5d ec3d 513e a33d 2647 abbc
00000010: e3f4 1b3b 802a 0b3d b436 db3d 7db3 2ebe
00000020: 1a51 243e 690a ad3c ed93 edbe 1199 aa3d
00000030: b270 afbd 7076 bcbd 58d8 8f3d dce1 173d
00000040: e0c0 093e ce98 64be da1a b8bd d818 da3d
00000050: 44a7 babc 3c59 90bd 6398 033e 1113 93bc
00000060: 1233 07be 8312 babc b660 133d b50c bcbd
00000070: 5c79 ac3b c3a2 1a3c 2199 043e 915b 08be
0.045307394 0.1154121 0.0797087 -0.02090795 0.0023797087 0.033976078 0.10703793 -0.17060657
0.16046563 0.021123128 -0.4640192 0.08329976 -0.08566417 -0.09202278 0.07023686 0.03708063
0.13452482 -0.22323915 -0.089894965 0.1064927 -0.022784837 -0.0704827 0.128511 -0.017953428
-0.13203076 -0.022713905 0.035980903 -0.09182111 0.0052634906 0.0094382195 0.12949039 -0.1331618

bn1.running_var f4 [32]
00000000: 46f9 533f 6dd4 7240 4ba8 4a40 c899 ba40
00000010: ae39 1f40 2848 4240 96fc a040 8681 ed40
00000020: 41e4 1a41 5a25 3240 60d9 6142 a844 ff3a
00000030: 1c8b 3b40 b6a6 4440 443f 4c40 a760 1c40
00000040: f1de 1741 b250 6e41 f512 d43f 73fc b140
00000050: 5972 4e3f 0da4 9340 3a2f 0a41 2a50 1e40
00000060: 6256 be40 dcd9 173f 2e18 a03e 124e 6240
00000070: 8484 e73f dba7 6540 ff9f c840 ae05 9840
0.82802236 3.7942154 3.1665218 5.831272 2.4878955 3.035654 5.0308332 7.422061
9.680726 2.7835298 56.46228 0.0019475417 2.9303656 3.0726752 3.1913614 2.4433992
9.491929 14.894701 1.6568285 5.5620666 0.8064323 4.6137757 8.63653 2.4736428
5.948045 0.593168 0.31268448 3.536015 1.8087316 3.58837 6.269531 4.7506933

conv2.weight f4 [32, 32, 3, 3]
00000000: 0ed9 453e 89b1 333d 936e fc3c eb62 243b
00000010: 1f14 af3d d4c2 08bd 2415 d03d 5b55 0b3d
00000020: 964b dfbc 281d 923d 12a5 043e a664 043d
00000030: fb83 10bd 28d5 073e 91b1 6c3d cd72 04bd
00000040: 75df b0bc f46b a3bd 04d8 cb3d dd3a 863c
00000050: 23ee e23c bd99 c93c 61af 3abd 60d6 6fbe
00000060: ca18 2bbb 0615 05be a76a 2e3e 412c c43d
00000070: 7d61 8dbd d4ee a23d 74aa d1bd c935 03be
00000080: fa2b 88bd 2696 56bd 74fd 20be f4d1 46be
00000090: ab58 133e 8d66 363d 8397 4b3d 86fc bdbd
000000a0: 41c7 2f3d b8cf c4bd 07d9 99bc 2d90 783d
000000b0: 0e28 9b3d 0a3c 603c 2a3d 45bd a1e0 bbbd
000000c0: 9cb8 00be 684a 16be 0e26 8abd e2c9 d9bd
000000d0: 2973 38bd 31b7 2fbd 0b35 003c e14a 1f3c
000000e0: fbc6 19bd ce70 193d d376 923d a217 8d3d
000000f0: 76cf d7bd 866a c1bd 2761 003e e93f 033e
00000100: b644 adbd a1c4 dabd 8ab9 5dbe 4d16 8abc
00000110: 15fc 963d 34ec 38bc 6b29 103e 268c f1bc
00000120: 54a3 edbb a8af 013d 864e 0b3e cfa7 2d3d
00000130: 4b83 f73c b62b ad3c 41e9 583d 4180 9d3d
00000140: fcaa e43c 5ecc 15bd 4b4e b6bc 1146 51bd
00000150: 966c 3e3d dba7 60bc d248 8fbd d3c3 333d
00000160: b207 373d c33b 093e c754 37be 5e22 5bbe
00000170: 5dc1 3d3d 4ae9 893d 3735 7a3d b57e 8b3d
00000180: 4fe9 6b3d 874e 0bbd 2412 383d 53fa 48be
00000190: d0d0 2cbd 8e4c 3fbe 24b6 333e 6aec 95bd
000001a0: 43b5 4ebd 51e4 0dbe 8586 a5bd 5de0 86bd
000001b0: 80fa 15bd 4a7a 20bd 29c7 b3bc 7265 d13d
000001c0: a28e 8b3d 1e55 8cbb aaea f2bd 3d74 8abd
000001d0: e7d2 80bd a724 c6bd f453 53bd aa21 0fbe
000001e0: f2b9 76bd 4772 f0bd f9e8 6f3d a101 0ebe
000001f0: 7e9e 2fbe 60d2 c0bc 7529 27be 32f0 e13c
00000200: d16f 813d de54 92bd 9041 bbbd 7ee4 bfbd
00000210: d945 d1bc 7de5 6cbd 7f14 55be d78a 9cbd
00000220: abfa eb3c 54c6 d53d 9144 0f3b f1d0 08bd
00000230: 7c62 14be 7140 fabb 5608 6abd 7f7b 2b3d
00000240: 002e 7a3d f7d1 523c d732 c0bc 8c52 063e
00000250: d3d8 36be 58b9 b6bd edfb f1bd 09e0 16be
00000260: e11e d2bc d86f eebd b70f 21be 1d07 c53c
00000270: 1b33 ae3d db27 523e 8c4b 913e 85aa 80bd
00000280: 22b6 5ebd 6d26 8c3d b062 543d b322 30be
00000290: f252 22be da0b 693c dd37 5a3d e63a 013e
000002a0: e2b4 0abe 50e1 d63d d4b0 adbc 1e18 02be
000002b0: 2540 36be a652 e0bc d1ef bbbd a38d 9abd
000002c0: f9c2 203e fc26 ff3d 6173 9bbd 326d 9f3d
000002d0: 6407 82be 70fc edbd ec44 31be f31c 94bd
000002e0: c023 a6bd d32f 143d 9cb0 d5bd 6cc2 123e
000002f0: 74d9 d8bd ce3a e0bd 655a 33be 1ae8 c63d
00000300: 0918 a3b9 a4ce 2fbe d45d 29bd 222f de3c
00000310: 935e f93c 3782 283e 9e5e 0c3d c7e4 ffbc
00000320: f749 21be 54c4 c0bc daf6 bbbd 1f09 c03b
00000330: 6cce 573d fdec ddbc b4c5 d1bd 0ede 253d
00000340: 375c 443d c11c 9d3d 19cb e0bd 7dec 05be
00000350: f9f1 19bd d574 233c 33d5 5eb9 f770 0c3d
00000360: 9f0b e9bc f59f 8bbe 7e72 0dbe d56a c63c
00000370: 172a 07bd 9de5 f0bd b706 44bd 5333 9bbd
00000380: b5e5 1bbc ec9e d0bd 21a6 01bd 01f8 2fbc
00000390: 3e88 603d dbfa 383c b4fc fc3d 3033 943c
000003a0: 43e8 113d 5db5 86bd 5249 f73c 2193 a83d
000003b0: eebc 853e 4f2a 8fbd 5440 763d ccd5 7b3e
000003c0: 6366 9bbd a390 873c 0bf1 a1bd 0600 743b
000003d0: 188b a43a 3a08 a23c 60d7 033d 4d26 593e
000003e0: 1ac7 3fbd d02d 643d b875 04ba f7b3 35bd
000003f0: 54e9 b2bd 8569 6dbd ea4c 8fbd a96c 463c
0.19321081 0.043870483 0.030814445 0.0025083374 0.0854876 -0.033388928 0.10160282 0.03401695
-0.027257722 0.07134467 0.12953594 0.03232255 -0.035282116 0.13264906 0.057786528 -0.032336045
-0.021590928 -0.07979575 0.09953311 0.01638549 0.027701443 0.024609441 -0.04557741 -0.23421621
-0.0026107305 -0.12996301 0.17032872 0.09578753 -0.0690336 0.07955709 -0.102375895 -0.12813486
-0.06649013 -0.052389286 -0.15721685 -0.19416028 0.14389293 0.044531394 0.04970504 -0.09276681
0.042914633 -0.09609932 -0.018780245 0.06068437 0.07575999 0.013686189 -0.048154034 -0.09173704
-0.12570423 -0.14676821 -0.067455396 -0.10634209 -0.0450317 -0.042899314 0.007825146 0.009722442
-0.03754328 0.037461095 0.0715157 0.06889273 -0.10537617 -0.09444146 0.1253706 0.12817349
-0.08460371 -0.10682035 -0.21652809 -0.016856337 0.073722996 -0.011286784 0.140783 -0.029485773
-0.0072521362 0.03166166 0.13604173 0.042396363 0.030213973 0.021139007 0.052956823 0.07690478
0.027913563 -0.036571853 -0.02225413 -0.05109221 0.046490274 -0.013711895 -0.06996311 0.043887924
0.044685073 0.13401704 -0.17903434 -0.21399829 0.046326984 0.067339495 0.061085906 0.06811277
0.057595547 -0.034010436 0.044939175 -0.19626741 -0.042191327 -0.18681547 0.1754995 -0.07320483
-0.050465833 -0.13856627 -0.08082298 -0.06585763 -0.03661585 -0.039179124 -0.021945553 0.10224427
0.068143144 -0.0042826077 -0.11861165 -0.06760452 -0.062902264 -0.0967496 -0.051593736 -0.13977686
-0.060235925 -0.11740547 0.05857179 -0.13867809 -0.17150304 -0.023537815 -0.16324408 0.027580354
0.063201554 -0.071450934 -0.091433644 -0.09369753 -0.025546001 -0.057836045 -0.208086 -0.07643669
0.028806051 0.10438219 0.0021860937 -0.033402387 -0.14490694 -0.0076370765 -0.057136856 0.041865822
0.061079025 0.012867442 -0.023461742 0.13117427 -0.1785615 -0.0892207 -0.11815629 -0.147339
-0.02564949 -0.11642426 -0.15728651 0.024051243 0.08505841 0.20523016 0.2837795 -0.06282524
-0.054372914 0.06843267 0.05185193 -0.17200737 -0.15851954 0.014224017 0.05327593 0.12620124
-0.13545564 0.10492194 -0.021202482 -0.12704512 -0.17797907 -0.02738316 -0.09176601 -0.07546546
0.15699376 0.124586076 -0.07590366 0.07784499 -0.25396264 -0.11620414 -0.17311448 -0.07232084
-0.081122875 0.03617842 -0.10434076 0.14331979 -0.10588351 -0.10948716 -0.17514952 0.097122386
-0.0003110769 -0.17168671 -0.041349247 0.027122084 0.030440604 0.16455923 0.03426992 -0.03123702
-0.15750872 -0.023531117 -0.091779426 0.0058604623 0.052687094 -0.027090544 -0.10242787 0.04049497
0.047939505 0.076715 -0.10976238 -0.13078494 -0.03758428 0.009976585 -0.00021250993 0.03428742
-0.028447924 -0.27270475 -0.13813207 0.024220863 -0.032999124 -0.11762545 -0.047857966 -0.07578149
-0.009515216 -0.10186562 -0.031652573 -0.010740281 0.05481743 0.011290277 0.12352887 0.018090814
0.035621893 -0.06577561 0.030186329 0.082311876 0.26120704 -0.069904916 0.06011994 0.24593276
-0.07587888 0.01654846 -0.079073034 0.003723146 0.001255366 0.019779313 0.03218782 0.21206017
-0.046820737 0.055707753 -0.0005052942 -0.04436108 -0.0873591 -0.05796196 -0.06997092 0.012110868

conv2.bias f4 [32]
00000000: f710 183a ca1e bdba 0826 083b 54ce 2cb9
00000010: 3c39 71bc 9b6e fb3a 8786 1bb9 d03d c139
00000020: 6ec2 bdba 9239 3f3b ab74 85bb cca5 f13b
00000030: 0f8c 253a 4407 3b3b 0783 ca3a 46a7 8f3b
00000040: deae ddb9 c7e2 f639 cc25 7cba 5ed1 86ba
00000050: 5130 583c 9068 c3ba 25ff dcbb e563 913b
00000060: 938c 97ba 25ac 1e39 29a2 a639 334f 703a
00000070: 02a0 50ba 809f 7eb9 07d6 a9ba 967a 05bc
0.0005800868 -0.0014428732 0.0020774622 -0.00016480061 -0.014723118 0.0019182743 -0.00014832067 0.00036857883
-0.00144775 0.0029178602 -0.004072746 0.007374501 0.0006315121 0.0028538266 0.0015450426 0.004383954
-0.0004228269 0.0004708974 -0.0009618669 -0.0010285785 0.013195113 -0.0014908481 -0.006744283 0.004436957
-0.001156228 0.00015132183 0.00031782806 0.0009167075 -0.00079584133 -0.00024282746 -0.0012957462 -0.008146903

bn2.weight f4 [32]
00000000: 8813 823f 445c 783f f017 803f 025f 723f
00000010: 0f9e 903f bbf9 7c3f ae3f 7a3f edaf 7b3f
00000020: e6e7 823f f926 7a3f 841e 8a3f 984c 7b3f
00000030: e2e7 633f 5f89 6c3f 25bb 753f 4fc7 8c3f
00000040: d8e0 883f 497d 773f 034a 7a3f bf6c 6e3f
00000050: 9851 903f 34bd 893f 51f3 763f b5ee 753f
00000060: 13b1 793f 2545 6f3f efaf 843f 5110 8c3f
00000070: d6bd 833f fcf2 803f a4c4 713f 779e 853f
1.016221 0.97015786 1.0007305 0.9467622 1.1298236 0.9881856 0.9775342 0.98315316
1.022702 0.9771572 1.0790563 0.9816375 0.890257 0.9239711 0.95988685 1.0998324
1.0693617 0.96675545 0.9776918 0.93134683 1.12749 1.0760865 0.9646502 0.96067363
0.9753582 0.9346488 1.0366191 1.0942479 1.0292308 1.0074153 0.94440675 1.0438985

bn2.bias f4 [32]
00000000: 4a24 a8bd 9cf3 8abc 436f 9b3d e8a0 a5bd
00000010: c4f8 563b 3d38 e7bd 44d4 20bd 7253 72bc
00000020: daef 81bc 5ddc 3e3d ae96 c7bc 6264 183c
00000030: afc1 2bbd 520c 97bc 232f 43bd f5bf eebc
00000040: 076e 4c3d 5261 99bc 0ae0 28bc 28f4 1abd
00000050: 3cdc cfbc 40b0 a2bd 9950 16bd c091 33bd
00000060: e874 5dbd a047 4dbd dcc0 1cba 35c1 27bb
00000070: 1d35 f2bc 94cb 4c3d 7d3f 80bb d43b 7ebd
-0.082100466 -0.016961865 0.07589581 -0.08087331 0.0032802084 -0.112900235 -0.039264932 -0.014790403
-0.01586144 0.046596874 -0.024363842 0.009301277 -0.041932758 -0.018438492 -0.047652375 -0.029144267
0.049909618 -0.018723164 -0.010307321 -0.0378305 -0.02537357 -0.07943773 -0.036697958 -0.04384017
-0.05406657 -0.050117135 -0.0005979666 -0.0025597338 -0.029566342 0.049998835 -0.0039138184 -0.062068775

bn2.running_mean f4 [32]
00000000: 9a31 0bc0 5326 98be 7ca2 66bf 989d e5be
00000010: fbed b8bf 5f0c 25be 28ad 533e 7b40 26bf
00000020: 18fa 97bf 8073 60be 05f5 c5bf c92b b4be
00000030: a886 293f d6cf 1cbd 0126 0fbf 2d31 e7bf
00000040: c36a 3cbf 56fe cdbe 0e23 6fbf 3082 dcbe
00000050: 50ed 1cbe a229 19c0 3466 2bbf e944 d6bd
00000060: 9f3a d9bf adfd 233e 51ad dfbe 211d d1bf
00000070: d700 0ebf 4469 bcbe c782 6d3e 269f 79bf
-2.1749024 -0.2971674 -0.9009168 -0.44846797 -1.4447626 -0.16118 0.20671523 -0.6494214
-1.1873198 -0.2191906 -1.5465399 -0.35189655 0.66221094 -0.038284145 -0.55917364 -1.8061882
-0.73600405 -0.40233105 -0.93412864 -0.43068075 -0.15324903 -2.393166 -0.66952825 -0.10462362
-1.6971015 0.16014738 -0.43686917 -1.6337014 -0.5547003 -0.3679906 0.23194419 -0.97508466

bn2.running_var f4 [32]
00000000: bbd8 f440 9ef1 8d40 fe6c 3040 cd1a 7640
00000010: ff77 7e40 84dd b140 c4c9 2b40 ed43 5340
00000020: 2c50 8340 a23f 1c40 b74e 5540 0812 3b40
00000030: fbda fa40 2ee4 4740 c24b f13f 5361 a040
00000040: e568 1440 dcaa 8340 c0c5 1b40 4771 ba40
00000050: fd55 d63f fcb9 bf40 ed34 4640 722f 6640
00000060: 58a3 1741 36b6 ba3f 2d90 6840 529f 8f40
00000070: 0572 2141 5d38 d63f cc59 6a40 0949 b040
7.6514564 4.4357443 2.7566524 3.8453858 3.976074 5.5582905 2.6841898 3.3010209
4.1035366 2.4413838 3.3329294 2.9229755 7.839231 3.123302 1.8851244 5.0118804
2.3189023 4.114607 2.4339447 5.826328 1.6744992 5.991453 3.0969803 3.5966458
9.477379 1.4586856 3.6337998 4.4881983 10.090337 1.6735951 3.6617308 5.5089154

conv3.weight f4 [32, 32, 3, 3]
00000000: dc8e b5bd 2429 07be 99a9 87bd e986 a73d
00000010: 0560 163e e908 ca3d 8ed5 78bd 6a4c 24bd
00000020: e8a3 f5bd dc7d 123e 5f6c f5bc 985e 18be
00000030: 406a 0fbe 525a 88bd 57f7 873c f1a4 03be
00000040: 37af cebd 922d 7a3c 6b00 24bd 7390 ae3d
00000050: 97e4 ad3b d194 24bd 7a04 dcbc 9876 17be
00000060: bcf6 c13d c0e0 79bc 7161 01be a400 00bd
00000070: b674 02bd 4514 cfbd e203 1b3e 9fac 83bd
00000080: 5c1d ab3d f000 0fbd cc20 81bc 1127 7fbd
00000090: 2bb3 a23d e920 f73d 8731 4abe ce1e 0f3d
000000a0: 011b b33d 1a18 8d3d 46de 07be 57bd bcbd
000000b0: eaa5 3239 e5e9 cc3d 6bda 0ebd 4c07 663d
000000c0: faea 903d 429b 33be 199a 50bd 407e c5bd
000000d0: 194e 623e 7cae 8e3d 120e 9fbd c3f1 0c3d
000000e0: 65ab 5ebc e631 98bc 0c5c 5abd 6d13 053e
000000f0: 6996 9dbd 4647 ddbb f0b5 18be 8bd4 fb3d
00000100: 8fd6 e23d 55bf e6bd ee20 bf3d b475 2a3e
00000110: 084d 6fbb 5006 87bd 1c91 c0bd 1f97 e43c
00000120: d52e fbbc 7d62 f4bd aee8 303d f610 5f3d
00000130: bf3c 8fbd 89bf 873d 3675 65bd 928a 9b3d
00000140: 4f73 a1bc 2ef1 0abe 3829 d93c 4f24 a53c
00000150: 0922 f2bd fe7d e63c 21ed 263d a968 c8bd
00000160: c747 03be c135 2dbe 499f cfbd 3029 ecbd
00000170: 8d2f 803c 21ca 323d b2e1 823d 1cae e33d
00000180: 9c54 203d 4088 67bd 899b 953d 394f e63d
00000190: 75f9 d03d f945 42bd 6bf8 953c a6a8 40bd
000001a0: b578 f9bd 07ca 563c dded 23be 3155 36be
000001b0: add1 2d3e 3e8f 333c dd09 d93d 4038 3ebe
000001c0: 3d03 92bd e22d f63d 4b8d bcbd a2ae abbd
000001d0: db8c 31bd 3bf9 c7bd 3527 ae3d 63a8 8f3c
000001e0: ec10 3dbe e193 8ebd 30c6 d83c f8b1 e4bd
000001f0: bb9d ecbc 8117 bcbd 76b7 cdbb 5e70 953d
00000200: 7f98 6b3d 8d78 f33c e6c4 ce3c adb5 e5bc
00000210: 8b74 15be ba4c 06bc 1911 5abc ddcc 653b
00000220: 4b3c 94bd a303 463d f4f8 f5bd 3b97 283e
00000230: 6f5d e5bd 609b 54be 60d8 6dbe 9112 24be
00000240: dd14 933d 36a7 5a3e 6d90 1f3e 0bbc 71bb
00000250: 0c68 51bd 8a7e 113a c151 89bc 383d 983d
00000260: 3a16 b7bd 03db 9c3d acba a2bc a640 81bd
00000270: 7c78 0abe f205 59bd d094 9c3d 2736 933d
00000280: f0ce fe3c ab53 873c 9caa 813d 0d79 60bd
00000290: 2687 39bc e9ff 45bd 098e 55bd 0cc5 d2bd
000002a0: 9626 95bd 1953 f3bd 8a75 9ebe 6f16 cbbd
000002b0: f451 543d 8472 23bd 52d2 9b3a 8acd 56bc
000002c0: b0e0 d13d 8bff 173d b292 98bd 5406 6d3c
000002d0: ee9d e8bc 7e31 91bd 7a42 0cbd 937c c13d
000002e0: 784d 283b fd0a 02bc db60 80bc a4b3 0bbd
000002f0: 4322 1cbd 1aaa 433d c1d2 a93d f743 7bbd
00000300: 1f14 aa3c 0947 78bd a67f d1bd e1f2 18be
00000310: 32a9 92bd 9b60 b13c a826 033b 6a1c d1bd
00000320: 02d5 35be 3958 0bbc 814a cc3d 9dbd b5bd
00000330: 2520 8c3d 1ad3 a33d 451c 56be 39e3 dc3c
00000340: ee7a 07bd 989b f83d 8e4f c6bd a516 8dbd
00000350: dc12 b7bc 5140 30be 0deb b6bd 9510 bcbd
00000360: 45bf 973d 6fc2 cd3d 3624 d0bb 2363 d9bc
00000370: 5479 2abc 5646 153d 9f00 e33d 724c 133d
00000380: 2744 043e 920a 4c3d 3ffa dbbc 43fd c63b
00000390: cd8d 7dbd 625f 18bc b2ca 47be 098c 71bd
000003a0: 4aea e7bd 847c 183d 62da 59bd fbc4 7d3d
000003b0: 4379 a53d daae 8b3d c21f 98bd 2248 84bc
000003c0: ebb6 703d ce65 a93d 96de 74bc 236c 903d
000003d0: 33c0 4a3d 22fd 8dbc c0fb 513c 847e 0dbd
000003e0: 31f4 3c3d 5cad d33c 7fa8 763d 268c a0bd
000003f0: 3025 e9bd 65b1 4c3d f375 fcbc d595 e03d
-0.08865139 -0.13199288 -0.06624145 0.08180029 0.14685066 0.09864981 -0.060750537 -0.040111937
-0.11994153 0.14305824 -0.029958902 -0.14879835 -0.14005375 -0.06657852 0.016597433 -0.12855889
-0.10092013 0.015269654 -0.04003946 0.08523645 0.005306791 -0.040180985 -0.026857603 -0.14791334
0.09470889 -0.0152513385 -0.12634827 -0.03125061 -0.031849585 -0.10111288 0.151382 -0.06429409
0.08355209 -0.034913003 -0.01576271 -0.062293116 0.0794433 0.12066824 -0.19745456 0.034941487
0.08745385 0.06889363 -0.13268384 -0.09215801 0.0001703721 0.10005549 -0.03487627 0.056159303
0.07076068 -0.17539695 -0.05092821 -0.09643221 0.22100104 0.06966874 -0.077663556 0.03441025
-0.013590668 -0.01857848 -0.05331044 0.12995692 -0.07694704 -0.006752881 -0.14913154 0.12296399
0.1107608 -0.112669624 0.09332453 0.16646463 -0.003651442 -0.06593001 -0.094026774 0.027904091
-0.03066198 -0.11932848 0.04319065 0.054459535 -0.06994008 0.06628329 -0.056019984 0.075947896
-0.019708304 -0.13568565 0.026508912 0.020158915 -0.11822898 0.02813625 0.040753487 -0.09785587
-0.1282035 -0.16915037 -0.10137803 -0.115312934 0.015647674 0.043649796 0.06390704 0.11117193
0.03914319 -0.056526423 0.073050566 0.11245579 0.1020383 -0.047430012 0.018306931 -0.047035836
-0.12181226 0.0131096905 -0.16008706 -0.17805935 0.16974516 0.010959445 0.105975844 -0.18576145
-0.07129524 0.1202047 -0.09206637 -0.08382918 -0.04334722 -0.09764334 0.08503572 0.017536348
-0.18463486 -0.069617994 0.02646169 -0.11166757 -0.028883805 -0.091841705 -0.0062779738 0.07296823
0.05751848 0.029720569 0.025240373 -0.028040731 -0.14595239 -0.008197004 -0.01330974 0.0035064735
-0.072380625 0.048343312 -0.12010375 0.1646394 -0.11199462 -0.20762396 -0.23227072 -0.16022708
0.07181714 0.21352848 0.15582438 -0.0036885764 -0.051124617 0.0005550167 -0.016762616 0.074335515
-0.08939786 0.07658961 -0.019864403 -0.06311159 -0.13522524 -0.052984186 0.07645571 0.07188063
0.031104535 0.016519388 0.06331369 -0.054802943 -0.011323726 -0.048339758 -0.05213741 -0.1029149
-0.0728275 -0.11881084 -0.3094905 -0.09916388 0.05183597 -0.039904132 0.0011888242 -0.013110528
0.10247934 0.03710894 -0.07449855 0.014466841 -0.02839562 -0.07089518 -0.034243084 0.09447589
0.002568094 -0.00793719 -0.015671184 -0.034106866 -0.038118612 0.047769643 0.08292151 -0.061344113
0.020761548 -0.06061462 -0.10229425 -0.14936401 -0.07161178 0.02165251 0.0020012055 -0.10210498
-0.17757037 -0.008504921 0.09975148 -0.088740565 0.068420686 0.07999249 -0.20909221 0.026963817
-0.03307622 0.12139052 -0.096831426 -0.06889085 -0.02234786 -0.17212035 -0.08931551 -0.0918285
0.07409529 0.10046851 -0.006351973 -0.02653653 -0.010404903 0.03644403 0.11084103 0.035961576
0.12916623 0.049814768 -0.026852725 0.0060726716 -0.06190281 -0.009300085 -0.19510916 -0.05897144
-0.11323984 0.037228122 -0.05318678 0.061955433 0.080797695 0.0682046 -0.07427932 -0.016147677
0.058768194 0.08271371 -0.014945647 0.070518754 0.0494997 -0.017332617 0.0128163695 -0.034544483
0.046131317 0.0258395 0.060219284 -0.07839231 -0.11384046 0.049973864 -0.030817961 0.10966078

conv3.bias f4 [32]
00000000: ae63 543a caf4 8bbb 6afc 103b dae5 553a
00000010: a050 9f3a c2b9 43ba 9ea6 7fba 392a 483a
00000020: b2e9 43bb 7589 623b 7efb 733a 8db5 b7bb
00000030: da45 14bb f175 ddb9 4d18 183c 815a 303b
00000040: 8163 603a 9a54 17ba e6ec 93bb 1246 103a
00000050: 1350 d9bb a4ee 9839 a5f1 3abb 0f05 8b3a
00000060: 6f07 143a 19df 0dbb 1343 023b 6907 96ba
00000070: fff6 283b f316 24bb 285e e03a f196 833b
0.00081020116 -0.0042711245 0.0022123107 0.0008159556 0.0012154765 -0.000746634 -0.0009752306 0.0007635686
-0.0029893932 0.0034566794 0.00093071896 -0.0056063593 -0.0022624643 -0.00042240278 0.0092831375 0.0026909413
0.0008559749 -0.00057727995 -0.0045143245 0.00055036054 -0.00663186 0.000291695 -0.002852538 0.0010606366
0.00056468596 -0.002164787 0.0019876405 -0.00114463 0.0025781987 -0.0025038093 0.0017117904 0.0040157964

bn3.weight f4 [32]
00000000: 39a0 873f 78ee 8e3f 1cab 8b3f 2cd2 733f
00000010: 57e1 7c3f 81ad 5d3f fdb5 723f 09db 843f
00000020: 8dd1 723f 4e1e 7c3f 8a21 883f 8ac9 893f
00000030: 1a88 783f 1bfb 813f 7de7 853f a7ec 6e3f
00000040: 5d6e 7e3f a823 6e3f bbbc 7d3f c544 593f
00000050: 1949 873f 579f 743f 49ec 743f a1bd 763f
00000060: 4fd6 813f c4be 833f 81e4 843f 194a 853f
00000070: 99de 873f 23f6 763f 46d2 833f 3245 6f3f
1.0595771 1.1166525 1.0911593 0.9524257 0.9878134 0.8659287 0.9480894 1.0379344
0.94851 0.9848374 1.0635235 1.076463 0.97082675 1.0154756 1.046127 0.9332985
0.9938715 0.9302316 0.99116105 0.8487056 1.0569183 0.95555633 0.9567304 0.963831
1.0143527 1.0292592 1.0382234 1.0413238 1.0614806 0.96469325 1.0298545 0.9346496

bn3.bias f4 [32]
00000000: bbb1 a53a 0df5 7d3c 25ae 44bd d495 9cbd
00000010: 481c 4cbd 1e75 d8bd a779 a8bc fcb3 42bd
00000020: 0e10 acbd 74b7 ffbd a6da 9ebd e183 f1bc
00000030: 41e6 83bc 7258 c1bd 81c2 75bd 6f3f 02be
00000040: d6a5 f5bd e986 aabc dd25 debd 8601 0fbe
00000050: 0328 81bd 361b 9bbd a89d ffbd bd9c bbbd
00000060: e4ff 9dbc 8533 0ebd 1e1e 0dbd 0496 cfbc
00000070: 7469 5b3b 2ad7 d7bd a57f a3bd 0764 d3bd
0.0012641469 0.015500319 -0.04801764 -0.07645765 -0.04983166 -0.10569213 -0.02056582 -0.047534928
-0.084015 -0.12486163 -0.07756548 -0.02948183 -0.016101005 -0.09440698 -0.059999947 -0.1271951
-0.11994521 -0.020816283 -0.108470656 -0.13965425 -0.0630646 -0.075735494 -0.124812424 -0.09160755
-0.019287057 -0.0347171 -0.03445255 -0.025340088 0.0033479603 -0.10539086 -0.07983331 -0.10321813

bn3.running_mean f4 [32]
00000000: ac67 bcbf 6311 0ac0 fc84 e3be 9c13 933e
00000010: e3b9 82bd c73f 47bf bcd8 543f 5693 87bf
00000020: c2d3 ddbe efb2 26bf 3fbd cbbf cd88 91bf
00000030: 89f4 97bc 593f 7bbf 1143 dcbf 60d1 91bf
00000040: 1737 8dbf ea20 9abe 8e7e 663f 3082 79bf
00000050: f870 cf3c 38aa b3bf 26e2 c1bd 4adc 1fc0
00000060: 445c 13bf e26d 09c0 74ef 84bf dbb9 50bf
00000070: fc8c edbf 800d adbf 3bc3 2abf 8e80 463f
-1.4719138 -2.1573112 -0.44437397 0.28725898 -0.06383111 -0.7783169 0.8314321 -1.0591838
-0.4332562 -0.6511678 -1.5917128 -1.1369873 -0.01854922 -0.98143536 -1.7207967 -1.1392021
-1.1032437 -0.30103236 0.9003686 -0.97464275 0.025322422 -1.4036322 -0.094669625 -2.4978204
-0.5756266 -2.1473317 -1.0385575 -0.8153359 -1.855865 -1.3519745 -0.6670415 0.7753991

bn3.running_var f4 [32]
00000000: 7f2f 8340 2b73 5640 083a 1240 1bf5 a93f
00000010: 4f6a db3f 4e12 a43f a3bb 1040 4b78 e53f
00000020: 9650 b83f 7e93 ba3f 8139 a33f 4301 4b40
00000030: b802 9b3f 2ea9 cc3f dfd2 6040 048e 1040
00000040: e13b 9f3f 14bd 903f b02f 693f 686b ff3f
00000050: 2d3c ea3f 3c27 4540 8937 813f eb81 8640
00000060: b2ef 9c3f 31a3 1540 f136 5e40 f0fb 0740
00000070: be51 2740 847c 0840 abf0 3740 cc35 9e3f
4.099548 3.3507793 2.284792 1.3277925 1.7141818 1.2818086 2.2614524 1.7927336
1.4399593 1.4576261 1.2751924 3.171952 1.2110205 1.598913 3.5128706 2.258668
1.2440149 1.1307702 0.9108839 1.9954653 1.8299614 3.0805197 1.0095073 4.203359
1.2260649 2.3380854 3.4721034 2.124752 2.6143641 2.1325998 2.8740642 1.2360168

conv4.weight f4 [64, 32, 3, 3]
00000000: 929c b4bd bde0 3bbe 1c62 88bd f1a5 273c
00000010: 78db d3bd 9495 57bd 7b18 55bc 290f 3f3d
00000020: 9e4d f33d 71f9 ac3d c7f8 0abd a91c 763e
00000030: c74e bfbd fd64 6b3d 888b f13c 07e9 a5bd
00000040: b9f8 1e3d 1c42 37be ddfb c9bb 7880 12be
00000050: e461 863d 4c66 393d 1134 923d b213 383d
00000060: 43e5 ba3d 6bfd 8e3a 60ee 2a3d 1467 43bd
00000070: 0d94 39ba 10cd 29bd cd75 8cbb 53c6 493a
00000080: 19d2 91bd d333 8c3c 4288 0a3d d2d9 203e
00000090: 52c0 abbd aecd 02bd 4b60 3bbd 0e49 913b
000000a0: eba4 d0bd 653a 9ebd 04d5 ad3d 77a0 833c
000000b0: e8cd f93d c6fa e73d 1075 e8bd 3ba7 cf3d
000000c0: 89d7 e23d 0104 983d 4081 94bc 0e29 04be
000000d0: c5b1 e3bc 98dc 32bd e15d ebbc 7319 47be
000000e0: cd13 adbd 6768 d6bd 7e27 4e3d 4585 093e
000000f0: 804e 93bd d9db 78bc d4e1 bbbd 0d0c c13d
00000100: 8ba7 283d fa8e 0fbe 2c29 5dbd 95ae 70bd
00000110: 9fc6 65bd 80d3 c8bd 654f 6f3d da10 3c3d
00000120: 1258 403d 9f34 eebd a21b 32bd 63e9 a13d
00000130: b0b6 613e 46e3 7e3d e3be a0bd 83c0 273e
00000140: 95c2 d33c 03b2 4f3d 0d76 923d 5ec4 fe3d
00000150: 6def 45ba 131d 9a3d 5490 333d 3f8e cbbc
00000160: 9477 ab3d 5faa b2bc 2661 4139 43d5 53bd
00000170: 50fe bb3c 2915 c3bd 2f43 cfba cca2 1ebd
00000180: 99cf cfbd 1698 46be 9931 c9bc 5aac 43bc
00000190: b483 e9bb 4e93 56bd 65d9 b73c 3425 e5bc
000001a0: 17ce fb3c 75c4 443e 0163 043e ceea 3d3d
000001b0: ff45 6dbb 1889 aa3d fec3 95bd 35a1 08be
000001c0: 6be0 5bbd 27f1 223d 062f 493d 8fb3 bb3c
000001d0: fbbd b8bd 9028 623c 14f6 933d 1c45 d4bc
000001e0: 24b1 ec3d 6762 a8bd 4242 d03c 476a 8e3b
000001f0: 2060 f4bc 6fde 95bc 3599 903d ff7f 4b3d
00000200: d9e7 2c3e 4aa5 b6bd cf0d 803d 4c0a 133d
00000210: 046d 7dbd 5300 723d e641 793c c065 6cb9
00000220: a18e e4bd 4aa1 e63d 5048 c5bd e753 bf3c
00000230: b78f 603d 4bc0 2ebe cce2 133d b477 df3d
00000240: ed45 82bd 51f1 cdbc b840 c3ba 4628 80bd
00000250: 19bb 8cbc f07f debd 96b8 febd 85a5 c63d
00000260: 2c1a a8bd 9b70 65be 83a1 523c a700 d73c
00000270: b3be 09bd dcd6 103d 68cc 29bc 836a f8bc
00000280: a0b3 0bbe 0d59 013e 6dc8 ad3c 04f7 0a3e
00000290: a29b fb3d f576 dc3d 8ef2 863c d48d 1c3e
000002a0: ce4b ae3d 5113 d93d bdf8 d13d ade8 4f3d
000002b0: 021e 02bc 441e 02be 9e21 15bc 97ae e8bc
000002c0: 36f3 86ba 2f31 823d 2300 023e 8eba 9fbd
000002d0: 073e 033e 4b44 e93d ec57 c73d 10b6 d73d
000002e0: 3613 12bd 973c 0abc a378 203e 45f7 063e
000002f0: 8f25 39bd 69dc 2b3d 6247 9ebd a948 2fbe
00000300: e175 d93c aaef 60bd 2b38 5e3d 345d 95bd
00000310: b500 9c3c 5646 f33d 2546 073d de09 323d
00000320: b2ef 323d e7e4 c63c fc68 973c e0b1 17be
00000330: cade f2bd b621 523d 67a0 283d e450 573d
00000340: 2481 d83b 9b32 e5bc 556c 86bc a025 af3d
00000350: ff0d cb3d 588b 403c 3eb0 8bbd f40f b3bd
00000360: c73f 60bd 78ad ffbc ec4d 75ba 4739 8fbc
00000370: 8aa3 5ebd b148 293e 340b 19be 5187 8ebd
00000380: 0092 ce3d dfb3 20bc 57e0 35bd 7347 603d
00000390: d301 60bd f0e6 8dbd 4c74 ae3c 0ac9 0c3c
000003a0: 63d5 53bd 0fbb d63d 500c bbbd 9c09 973d
000003b0: b281 893d e63f f7bd 4b2b 593c 9133 1cbd
000003c0: 6358 333e 1945 ba3d 6dc9 c13d d186 f73d
000003d0: 0a0a e3bc 0fde f4bc 9137 ed3d 7ebf 0e3e
000003e0: a0c9 1b3d bed1 cd3d 732c 0c3e 4dd2 043e
000003f0: 7023 6bbd 6153 183d 1fdb 413e 66de d9bc
-0.08818926 -0.1834745 -0.06659338 0.010232435 -0.10344595 -0.052632883 -0.013006325 0.046645317
0.11880039 0.08446015 -0.03392866 0.2403437 -0.093411975 0.057469357 0.029485479 -0.08101087
0.03881142 -0.17896312 -0.0061640576 -0.1430682 0.0656164 0.045263574 0.07138837 0.044940658
0.091257595 0.0010909265 0.04173124 -0.047705725 -0.0007079251 -0.04145533 -0.004286504 0.0007697094
-0.07120151 0.017114555 0.03382135 0.15708092 -0.083862916 -0.031934433 -0.04574613 0.0044337576
-0.101877056 -0.077259816 0.08487895 0.016067727 0.121974766 0.11327128 -0.11350453 0.101393186
0.11076266 0.07422639 -0.018128037 -0.12906286 -0.027794728 -0.043667406 -0.028731288 -0.19443302
-0.08451042 -0.10469132 0.05033063 0.13429745 -0.07192707 -0.0151891345 -0.09173933 0.09426127
0.041175406 -0.14019385 -0.053994343 -0.058760244 -0.056097623 -0.098059654 0.058425326 0.04591451
0.04695899 -0.116311304 -0.043483384 0.07905843 0.22042346 0.062228464 -0.07848909 0.16382031
0.02584962 0.050706875 0.07151423 0.12439798 -0.0007550631 0.07525077 0.043838814 -0.024848102
0.08372417 -0.021809755 0.00018442105 -0.051717054 0.022948414 -0.0952552 -0.0015812869 -0.038729474
-0.10147018 -0.19393954 -0.024559783 -0.011942947 -0.007126296 -0.052386574 0.022442529 -0.027971841
0.03073792 0.19215567 0.12928392 0.046366505 -0.003620505 0.0832693 -0.07312773 -0.13342746
-0.05368082 0.039780762 0.04911711 0.022912769 -0.09020611 0.013803616 0.0722467 -0.02591186
0.115572244 -0.08221894 0.02542222 0.0043461653 -0.029830992 -0.018294541 0.07060472 0.049682613
0.16885318 -0.08918245 0.06252634 0.03589849 -0.061871544 0.05908234 0.015213465 -0.00022544619
-0.11160017 0.11261232 -0.09632933 0.023355437 0.054824557 -0.17065541 0.036104962 0.109115034
-0.063609935 -0.025139483 -0.0014896607 -0.062576815 -0.017179059 -0.10864246 -0.12437551 0.09699539
-0.08208117 -0.22406237 0.01285589 0.026245428 -0.03362913 0.035361156 -0.010363676 -0.030324226
-0.1364274 0.12631626 0.021213735 0.13570791 0.12285544 0.10764877 0.016473081 0.15288478
0.08510552 0.105993874 0.10252521 0.050759006 -0.007941725 -0.12706858 -0.009102253 -0.028403563
-0.0010295871 0.06357037 0.12695365 -0.07799254 0.1281663 0.11389979 0.09733567 0.105327725
-0.035662852 -0.008437297 0.1567102 0.13180263 -0.045201834 0.041958246 -0.07728459 -0.17117561
0.026545467 -0.05491606 0.054252785 -0.07293168 0.019043306 0.1187865 0.03302588 0.04346644
0.043685623 0.024279071 0.018482678 -0.14813948 -0.118589 0.05130168 0.041168597 0.052567378
0.0066071916 -0.027978232 -0.016409079 0.08552098 0.09914779 0.011751972 -0.06820725 -0.08743277
-0.054748323 -0.031210646 -0.00093576196 -0.017483367 -0.05435518 0.16531636 -0.1494568 -0.06959403
0.10086441 -0.00980851 -0.0444034 0.05475564 -0.05468924 -0.069288135 0.021295689 0.008592853
-0.051717173 0.10484897 -0.09133208 0.0737488 0.067141905 -0.120727345 0.013254951 -0.038135115
0.17514186 0.090952106 0.09462247 0.12086261 -0.027714748 -0.029891042 0.11582864 0.13940236
0.03803408 0.10049771 0.13688831 0.12970848 -0.057406843 0.03718889 0.18931244 -0.026595306

conv4.bias f4 [64]
00000000: 43d2 5a3b 2362 183a 0fa9 caba c859 463a
00000010: 3953 313b 3533 dbba 35e5 cebb 8dd0 5cbb
00000020: bf75 6b3a 6b1e 01bb 4a7b fa3a 9bd2 b3ba
00000030: ac29 7c3b 84ef 9abb 3bf2 363b 30da 863a
00000040: d67b 19bc 524d f0b9 d884 00bc 308e a0bb
00000050: 5098 da3b b342 453b cfce a73a 1045 45bb
00000060: 024a bbbb f5c8 373b 91cf 93bb 2f13 95bb
00000070: 0d94 19ba 2b81 f73a 96ec 87ba 7051 173b
00000080: c84c fcbb 5dbf ed3a 18e6 b43b 8a5d c33a
00000090: 238a afbb 8cde b8ba b3ff 2cbb 5dc9 a2ba
000000a0: afe6 013b ba0d 1ebb f2e5 6339 c1a2 fcbb
000000b0: 908d 87ba 5b65 583b ad7f 3db9 2a75 c33b
000000c0: 2b3f 0bbb acba ba3b c834 1bbc 6d86 e7ba
000000d0: 7c9d ceba 720f 1ebb 7f6b 39bb 9a89 05bb
000000e0: 17b7 e7bb 195b 46bc 0821 173b 183f 25bc
000000f0: dfe5 033b d90f e6bb 0808 6338 4c49 3b3a
0.0033389486 0.00058129634 -0.001546176 0.0007566479 0.0027057661 -0.0016723635 -0.0063139447 -0.0033693642
0.0008982084 -0.0019701968 0.0019110229 -0.0013719382 0.0038476987 -0.0047282595 0.0027915377 0.0010288414
-0.009367904 -0.00045833975 -0.007844172 -0.0048997626 0.006670989 0.003009957 0.0012802723 -0.003010098
-0.0057156095 0.0028043364 -0.004510828 -0.004549406 -0.0005858548 0.00188831 -0.0010370191 0.0023089312
-0.0076995827 0.0018138696 0.0055205934 0.0014905196 -0.0053570434 -0.001410441 -0.0026397526 -0.001241963
0.0019821336 -0.0024117068 0.00021734068 -0.0077098315 -0.0010341872 0.0033019397 -0.00018072008 0.005964895
-0.0021247368 0.0056985226 -0.009473033 -0.0017663963 -0.0015763487 -0.0024118093 -0.0028292832 -0.0020376206
-0.0070713866 -0.01210668 0.002306046 -0.0100858435 0.0020126028 -0.007020932 5.4128497e-05 0.0007144406

bn4.weight f4 [64]
00000000: 56f7 8f3f ede3 913f 83f2 903f eb09 8d3f
00000010: 4328 923f 8ccf 893f 0c55 8b3f 241b 953f
00000020: 77a7 8a3f 8a3a 943f 05c6 963f 5dc3 963f
00000030: ff5b 903f 5d50 8a3f f914 8a3f ca67 933f
00000040: 3251 8f3f a537 913f 6b3c 943f 3d2c 933f
00000050: fa54 963f c300 923f d18d 923f 544e 8d3f
00000060: 05dc 913f 093c 923f 6747 923f ed89 8c3f
00000070: 59fd 923f f0d2 923f 42cf 923f e593 983f
00000080: cfdc 923f 2cf0 8e3f a5a3 913f 4711 903f
00000090: fbde 943f cae1 913f e931 903f 285b 923f
000000a0: 738c 8f3f b779 903f 5645 8c3f 1021 8b3f
000000b0: 6607 973f 5b8f 943f 325c 863f 65a2 8d3f
000000c0: a883 973f 57da 923f c8d5 983f 3017 993f
000000d0: 2363 993f a925 923f 428a 923f bd94 8d3f
000000e0: c2d6 8f3f 477c 913f 0ea8 913f 3fb7 8c3f
000000f0: 026e 903f 7eb4 983f 8daa 933f 2b75 923f
1.1247356 1.1397682 1.1324009 1.1018652 1.1418537 1.0766463 1.0885329 1.1648908
1.0832356 1.1580365 1.1779181 1.177837 1.1278075 1.0805775 1.078765 1.1516049
1.1196654 1.1345106 1.1580938 1.1497875 1.1744683 1.1406482 1.1449529 1.1039529
1.139527 1.1424571 1.142804 1.0979592 1.1483566 1.1470623 1.14695 1.1920134
1.1473635 1.1167045 1.1378065 1.1255273 1.1630548 1.139703 1.1265231 1.1434069
1.1214737 1.1287144 1.095866 1.0869465 1.1799133 1.1606249 1.0496886 1.1065184
1.1837053 1.1472882 1.1940241 1.1960201 1.1983379 1.1417743 1.1448443 1.1061016
1.1237414 1.1366051 1.1379411 1.0993422 1.1283572 1.1930082 1.1536423 1.1442007

bn4.bias f4 [64]
00000000: 303f 873d ad1c aa3d 507a 983d e1f4 e43c
00000010: 75f0 383d 3362 513d 390c 213d b79b a33d
00000020: b8f3 fc3c 57e0 a83d d72d a53d d777 c43d
00000030: 557d 113d 4631 363d a4bd 103b b2dc 4f3d
00000040: 90a8 9d3d 19e4 4e3d 4f5c 913d b95d db3d
00000050: fe83 cc3d 4d21 9a3d 9317 9c3d cf8b 243d
00000060: 1154 663d 3896 803d d47d 4b3d 2f48 203d
00000070: 4d1a c03d 4b51 573d c93c 6f3d d66a b13d
00000080: bdc5 9a3d 0c90 403d 8a81 713d 36a7 893d
00000090: 2e45 b53d 1d63 853d 0eeb 4e3d 4630 aa3d
000000a0: f9d5 933d f957 7c3d b7a1 ad3d 689f 2ebc
000000b0: 0875 9a3d 748e b83d 86f8 04bd 0959 373d
000000c0: 2811 f03d c2fa a93d 77ca aa3d 3567 a03d
000000d0: e493 c83d 6822 273d b6a2 443d cba2 f13c
000000e0: 4094 083d f1cf a93d 5ad6 943d 8966 623d
000000f0: 5c79 443d af89 c43d a394 883d 95cc 7c3d
0.06603849 0.08306251 0.07445204 0.027948799 0.045151193 0.05111904 0.039318297 0.079886846
0.030877933 0.082459144 0.08065384 0.0959317 0.035519917 0.044480585 0.002208569 0.05074758
0.07698166 0.0505105 0.070976846 0.107112356 0.09986113 0.07525883 0.07621684 0.040172394
0.056232516 0.06278652 0.049680546 0.03913134 0.093800165 0.05256776 0.05840758 0.086629555
0.07557247 0.047012374 0.05896143 0.06721346 0.088510856 0.06513045 0.050517134 0.08309989
0.072185464 0.061607335 0.0847811 -0.010658123 0.07541853 0.09011546 -0.032463573 0.044762645
0.11722022 0.082997814 0.08339398 0.07832185 0.09793833 0.040804297 0.048006736 0.029496571
0.033344507 0.08291615 0.07267447 0.055273566 0.0479673 0.095965736 0.06668975 0.061718542

bn4.running_mean f4 [64]
00000000: 673a bb3e e1df 3b3e 4ff2 9d3c cfba c2be
00000010: de67 c8bb abb5 85be fabd b23e dbc9 133b
00000020: f5cf c6be ea7f a63e 013c d73d e45e 86be
00000030: 0610 babe a8c2 043f a478 1b3e b5c1 bcbc
00000040: 4136 a53e 8594 873e 87b5 89be 6345 92be
00000050: eacf 603e 126d 793e 61bc 913e c324 1b3e
00000060: af68 c53c e9b1 0bbd c5bd df3d a931 373e
00000070: 1750 6abe 8dd4 cebe 798d e3be d0c0 43be
00000080: 8909 873e efe4 89bc 2061 8ebe 71bc bc3e
00000090: e84c 933e ee11 ac3e f9bd 1fbf b82f 1d3f
000000a0: 4b1b 1a3f 3bc8 c43d 913f 04bf cb6e 2abb
000000b0: e75d ef3e 23d8 ec3e 21c4 efba 4b14 f0bd
000000c0: c8a6 1c3f 36f9 603e 2280 7fbd 2770 8d3e
000000d0: ea82 753d 799e 6f3e 0f8b 72be 03b9 933d
000000e0: 4848 87be 07d1 2cbd 885b a03d 0376 c8be
000000f0: a6f4 d9bd f5d1 99be c1a4 9e3e f02d 073d
0.36567995 0.18347122 0.01928058 -0.3803315 -0.0061158976 -0.26115164 0.34910566 0.0022550735
-0.38830534 0.32519466 0.10509492 -0.2624427 -0.3634035 0.5185952 0.1518274 -0.023041585
0.32267955 0.264805 -0.26896307 -0.28568563 0.21954313 0.24358013 0.28464034 0.15150742
0.024097769 -0.034105215 0.109248675 0.17890038 -0.22882114 -0.40396538 -0.44443873 -0.19116521
0.26374462 -0.016832797 -0.27808475 0.3686252 0.28769612 0.3360743 -0.6239925 0.6140094
0.60197896 0.096085034 -0.51659495 -0.002600598 0.4675133 0.4625865 -0.0018292704 -0.117226206
0.6119199 0.21970066 -0.062378056 0.27624628 0.059939303 0.23400296 -0.23685859 0.072130226
-0.26422334 -0.04219153 0.07829958 -0.39152536 -0.10642366 -0.30042997 0.30985072 0.033002794

bn4.running_var f4 [64]
00000000: 61c2 753f 6ab5 bb3f a74d d03f a8c1 943f
00000010: 235a 863f e9ee 533f 140a 4a3f 99c1 9f3f
00000020: 4b41 8a3f 1974 c73f c409 b03f 9208 b63f
00000030: 4978 4e3f fe4f 993f 1eda 823f 4801 903f
00000040: 0e09 873f bca6 a13f 7d44 b23f af8e 9b3f
00000050: f3e3 c13f e75c a03f 0675 d43f fec7 533f
00000060: 1bf6 923f ea6d 813f 8177 7a3f 81e7 873f
00000070: aee1 913f bf58 763f 680d 6f3f cb2d f43f
00000080: 4f22 433f 40a6 993f 2e8d 8a3f 897a 883f
00000090: 15c5 923f 303d 433f 0bce 973f 5d33 0540
000000a0: 4bd1 a73f 0d7f 8d3f f5d6 583f 1a3b 863f
000000b0: cb97 8d3f 628b ca3f 37d5 d33f faae 4f3f
000000c0: 37a6 c43f 2e52 a43f e90e 973f 0077 f43f
000000d0: 2c75 9d3f c815 7e3f 574b 843f c8de 883f
000000e0: 3600 5f3f e9d3 de3f 7ff0 c03f bef4 353f
000000f0: aeea 703f 725a c23f 9dfc c63f 545f 763f
0.95999724 1.4664738 1.6273698 1.1621599 1.0496258 0.8278642 0.7892163 1.2480956
1.0801176 1.5582305 1.375298 1.4221365 0.8065229 1.1977537 1.0222814 1.1250391
1.0549638 1.2629008 1.3927151 1.2152919 1.514769 1.2528352 1.6598213 0.8272704
1.1481355 1.0111668 0.978386 1.0617524 1.1396997 0.96229166 0.9337983 1.9076475
0.76224226 1.200386 1.0824335 1.0662395 1.1466395 0.7626524 1.1859754 2.08126
1.3110746 1.1054398 0.84703 1.0486786 1.1061949 1.5823786 1.6549443 0.8112637
1.5363225 1.2837579 1.1801425 1.9098816 1.2301383 0.99251986 1.0335492 1.0692987
0.87109697 1.740842 1.5073394 0.7107657 0.9410809 1.5183852 1.5545841 0.9623921

lin.weight f4 [1, 64]
00000000: 805a 3c3e 6f05 21be 1e6b 703e 4367 98bd
00000010: c0e9 5dbe d6c2 fcbd 9481 473e 2027 5f3e
00000020: 68a3 2cbe 6727 5d3e b083 893e ad96 19be
00000030: d6be 1fbe 1872 0f3e 7353 46be 861e 7fbe
00000040: 521e 4e3e fc28 d53d a9fc 823e 4ca0 f5bd
00000050: 2199 4c3e e220 1c3e 3274 1a3e d480 0e3e
00000060: d639 0ebe ce53 12be 0e3a 393e 9a57 423e
00000070: c6a9 fdbd 4621 d4bd e09b 78be b898 e53d
00000080: 7dd1 7d3e 4b10 dcbd 1e71 67be 6d71 693e
00000090: 371d 563e 3868 7a3e e08d 53be 71fd 073e
000000a0: 29cc bd3d aefe 4abe 72dd 25be 7bd9 39be
000000b0: a757 503e 8f82 423e 9aaf 2cbd bc1f 14be
000000c0: 4db6 1a3e 0902 3f3e 91f9 89be 31ec d93d
000000d0: 2eb5 343e a4fc 22be 4421 4bbe 8b1e 31be
000000e0: 57aa 45be 79c8 6f3e f593 493e 9d3b 4ebe
000000f0: e0d9 623e b798 23be 9982 ee3d 890d 3bbe
0.18393898 -0.15724729 0.23478362 -0.074415706 -0.216712 -0.123418495 0.19483024 0.21792269
-0.1685921 0.21597062 0.26858282 -0.14998884 -0.15600142 0.14008367 -0.19367771 -0.24913988
0.20128754 0.10408208 0.2558339 -0.11993465 0.19980289 0.15246919 0.15083387 0.13916332
-0.1388925 -0.14289781 0.18088552 0.1897873 -0.12385897 -0.10357909 -0.24278212 0.112107694
0.24786945 -0.10745295 -0.22601745 0.22797175 0.20909582 0.24453819 -0.2065959 0.13280274
0.09267456 -0.19823715 -0.16197756 -0.18149368 0.20345937 0.18995117 -0.042159654 -0.1446523
0.15108605 0.1865312 -0.26948217 0.10640753 0.1764724 -0.15916687 -0.19836909 -0.17296807
-0.1930326 0.23416318 0.19685347 -0.20139928 0.22153425 -0.15976225 0.11646003 -0.18266882
