model/crnn_model.pt (torch, 34210 bytes, 11 tensors)

conv.0.weight f4 [8, 1, 3, 3]
0	0xbdea58bf	-0.11442708
1	0xbde9c61f	-0.11414742
2	0xbe95a3e0	-0.2922659
3	0xbc9bed7a	-0.019034136
4	0x3e90bc57	0.28268692
5	0x3eabbd22	0.33542734
6	0x3e7bc302	0.24586108
7	0x3c960d27	0.018316818
8	0x3e8b47ae	0.27203125
9	0x3e7b053f	0.2451372
10	0x3e1fb578	0.15596569
11	0x3ea90745	0.3301336
12	0x3e199728	0.14999068
13	0xbe0cd207	-0.13751994
14	0xbe180930	-0.14847255
15	0x3df9ed53	0.12203469
16	0xbd8cec31	-0.068809874
17	0x3d62ea04	0.055398956
18	0x3de33e2a	0.11095841
19	0xbe593c3b	-0.21214382
20	0xbe4a1323	-0.19733863
21	0xbe3ddc18	-0.1854099
22	0x3e2d1985	0.16904266
23	0xbe5dc281	-0.21656229
24	0xbeb18b45	-0.34676567
25	0xbe1fec9c	-0.15617603
26	0x3e4fee33	0.2030571
27	0xbe1f78da	-0.15573445
28	0xbe67ed02	-0.22649005
29	0xbe484548	-0.19557679
30	0xbe74f4a3	-0.23921447
31	0x3dafb814	0.08580032
32	0x3c90f772	0.017696116
33	0x3c913160	0.01772374
34	0x3a9aa2dc	0.0011797803
35	0xbe8307f2	-0.25592
36	0x3e9f11c6	0.31068248
37	0x3d992caf	0.07479226
38	0x3e08f6a8	0.13375342
39	0x3c18063c	0.00927883
40	0xbe912fba	-0.28356725
41	0x3ea214ad	0.316564
42	0x3dc6e661	0.0971191
43	0x3e6a8482	0.2290211
44	0x3d2c39be	0.042047255
45	0x3d41a292	0.04727418
46	0xbd9396ad	-0.072064735
47	0xbe61f73f	-0.22066973
48	0x3e63c750	0.22244
49	0xbe96311b	-0.2933434
50	0x3e80b947	0.25141355
51	0xbe888df6	-0.26670808
52	0xbe712ce4	-0.2355228
53	0xbe2a8bbc	-0.16654867
54	0xbe657a8c	-0.22410029
55	0x3dc2ef18	0.0951826
56	0x3e54ee52	0.20794037
57	0x3de3db63	0.11125829
58	0x3e46d75b	0.19418089
59	0x3da8849b	0.082284175
60	0x3e4af6a9	0.19820656
61	0x3de41eb2	0.11138667
62	0x3e627075	0.22113211
63	0x3e8b6d6d	0.27231923
64	0xbdbc8499	-0.092049785
65	0xbe854f24	-0.26036942
66	0xbd8d3344	-0.06894544
67	0x3d4ea32e	0.05044859
68	0x3db6bf97	0.089232616
69	0x3ddb2f03	0.10702326
70	0x3e803d25	0.2504665
71	0xbe52e75b	-0.20596068

conv.0.bias f4 [8]
0	0xbeaad313	-0.33364162
1	0x3d9e89f7	0.077411585
2	0x3e43a025	0.19104059
3	0xbe2d64dc	-0.16933006
4	0xbcb2bb92	-0.021817956
5	0xbe06f4e6	-0.13179359
6	0xbead0499	-0.3379257
7	0x3e5806aa	0.21096292

conv.2.weight f4 [8]
0	0x3f80ba97	1.0056943
1	0x3f7ffb2c	0.9999263
2	0x3f893b2f	1.0721186
3	0x3f827682	1.0192416
4	0x3f78c8dd	0.97181493
5	0x3f82090a	1.0159009
6	0x3f82e3ab	1.0225729
7	0x3f89577a	1.0729821

conv.2.bias f4 [8]
0	0xbd470b80	-0.04859495
1	0xbd4c008d	-0.049805213
2	0x3ac7a5a9	0.0015231866
3	0xbc91e291	-0.01780823
4	0xbdb8b5b5	-0.09019033
5	0xbda344a1	-0.07972074
6	0xbdc46e38	-0.09591335
7	0x3d0e32de	0.03471648

conv.2.running_mean f4 [8]
0	0x3e4b24f7	0.1983832
1	0x3e70ba15	0.23508485
2	0x3ed54439	0.41653612
3	0x3e7ed134	0.24884492
4	0x3e24be66	0.16088256
5	0x3e8d119b	0.27552494
6	0x3e0600bb	0.13086216
7	0x3e5f3fe8	0.21801722

conv.2.running_var f4 [8]
0	0x3ef44192	0.47706276
1	0x3eb2d117	0.34925148
2	0x3ed601cb	0.41798243
3	0x3ede70c9	0.43445423
4	0x3e6db78b	0.23214547
5	0x3ef8d8b9	0.48602846
6	0x3e894f4d	0.26818314
7	0x3d2b8605	0.041875858

lstm.weight_ih_l0 f4 [128, 24]
0	0x3dd7ba0d	0.10533533
1	0x3e524f34	0.20538026
2	0x3ddfe0fc	0.10931584
3	0x3b5312db	0.0032207284
4	0xbe15d117	-0.14630543
5	0xbc3caacc	-0.0115153305
6	0x3df237e1	0.11827064
7	0xbdb101c2	-0.086429134
8	0x3da57935	0.08079759
9	0x3d726429	0.05917755
10	0x3dd0b5f5	0.101909555
11	0xbe2d7089	-0.1693746
12	0xbc062bdc	-0.008189168
13	0x3e0aa551	0.13539626
14	0x3cf448f9	0.029819952
15	0x3e0a9534	0.13533479
16	0xbd9a6fd1	-0.075408585
17	0xbdefeec0	-0.1171546
18	0x3dc53609	0.09629447
19	0xbd37866e	-0.044805937
20	0x3deaab48	0.114584506
21	0xbd6c3db1	-0.05767602
22	0x3e4eeb6c	0.20206994
23	0xbd8f330e	-0.0699216
24	0xbd5946d4	-0.053046063
25	0x3db0070e	0.085950956
26	0x3de4ce57	0.11172169
27	0x3dc5a187	0.096499495
28	0x3d270754	0.040778473
29	0x3d97ea57	0.07417744
30	0x3d22dd8d	0.03976207
31	0xbe270ae3	-0.16312747
32	0x3c05d640	0.008168757
33	0x3e3f504a	0.18682972
34	0x3e08194e	0.13290903
35	0x3dbd3141	0.0923791
36	0x3d98b837	0.07457011
37	0xbd6d0084	-0.05786182
38	0x3e3995ef	0.18123601
39	0xbde752dc	-0.11295101
40	0x3dca0229	0.09863693
41	0x3d00f609	0.031484637
42	0xbe35b154	-0.17743427
43	0x3d8dc29f	0.06921887
44	0xbd25fe45	-0.040525693
45	0xbd47b34e	-0.048754983
46	0x3d14afc9	0.036300454
47	0x3d2acc7d	0.04169892
48	0x3db9a67c	0.090649575
49	0xbd49729b	-0.049181562
50	0x3de88231	0.11352957
51	0x3dee9157	0.11648815
52	0x3c3c4ef8	0.011493437
53	0xbbcf7432	-0.00633099
54	0xbce5c4ef	-0.028048007
55	0x3dfc68ed	0.123247005
56	0xbe04ed2b	-0.12981097
57	0xbe320693	-0.1738532
58	0xbd542eee	-0.05180257
59	0xbda311b1	-0.07962359
60	0x3c6bbdb7	0.014388493
61	0xbe1ccfe8	-0.15313685
62	0x3d850356	0.06494777
63	0xbdc1691e	-0.09443878
64	0x3dc0b8af	0.094102256
65	0xbdbf063d	-0.09327362
66	0x3dfd1849	0.12358148
67	0x3cdc920c	0.02692511
68	0x3d0a76d4	0.03380473
69	0x3e0a8945	0.13528927
70	0xbd105f97	-0.03524741
71	0xbd090f28	-0.03346172
72	0xbd9ecf28	-0.07754356
73	0x3d17895c	0.03699623
74	0xbd96e6fe	-0.07368277
75	0x3d44e6d5	0.0480717
76	0x3d599bce	0.053127103
77	0x3df49e61	0.11944271
78	0xbddd40b7	-0.10803359
79	0x3cfb409a	0.030670453
80	0xbd458406	-0.04822161
81	0x3db982c9	0.090581484
82	0xbc707e6a	-0.014678577
83	0xbc6ad436	-0.014332822
84	0x3dfc89db	0.12330981
85	0x3d2876bb	0.041128855
86	0xbdd2f654	-0.103008896
87	0x3d847ae3	0.06468751
88	0xbd96863e	-0.073498234
89	0xbdb93dbe	-0.090449795
90	0x3db28d7f	0.087183945
91	0xbd9f2dbb	-0.07772394
92	0xbd2a930d	-0.041644145
93	0x3dd0fc4e	0.10204373
94	0xbd8aac78	-0.06771177
95	0x3c743ce8	0.014907099
96	0x3d46af6a	0.04850713
97	0x3e4f0be6	0.20219383
98	0xbd9021bd	-0.07037685
99	0xbd9eb4b2	-0.07749309
100	0x3e0cbd7c	0.13744158
101	0x3d3de82a	0.046363987
102	0xbe2b151a	-0.16707268
103	0xbdce7c8e	-0.10082351
104	0x3e5e4dc4	0.21709353
105	0xbe2dab43	-0.16959862
106	0xbe15fa57	-0.14646278
107	0xbd998f2d	-0.07498012
108	0x3be4b7f8	0.0069799386
109	0x3d8cc386	0.06873231
110	0x3cdbcf35	0.026832202
111	0x3e2f74ec	0.17134446
112	0xbd2c2a8f	-0.042032775
113	0x3c8a179e	0.016856965
114	0x3d23ac96	0.039959513
115	0xbe2210d3	-0.1582673
116	0xbdd0a83d	-0.10188339
117	0x3d935658	0.07194203
118	0xbd8b9180	-0.06814861
119	0x3cbf1c32	0.023328874
120	0x3b089703	0.0020841963
121	0xbc00be89	-0.007857927
122	0xbd7a05de	-0.06104075
123	0xbba458fd	-0.005015491
124	0xbdbe4d96	-0.09292142
125	0xbdc5ae07	-0.09652334
126	0xbe092fa6	-0.13397083
127	0x3dc40eda	0.09573145
128	0xbdcbe825	-0.099563874
129	0x3d3edd06	0.046597503
130	0x3e136f15	0.14397843
131	0xbd3d7d8f	-0.04626232
132	0xbd795034	-0.060867503
133	0xbd9e96be	-0.077435955
134	0x3e072ed2	0.13201454
135	0x3dca24e4	0.098703176
136	0x3c786524	0.015160833
137	0xb9679189	-0.00022084093
138	0xbd3ffbca	-0.046870984
139	0xbe0d2392	-0.137831
140	0xbd8c5fec	-0.06854233
141	0x3c51e26d	0.012810332
142	0x3deb5bf5	0.11492149
143	0xbdd5b967	-0.10435753
144	0x3d3be07a	0.045868374
145	0xbdc4a2aa	-0.09601338
146	0xbe1da6b6	-0.15395626
147	0x3bc4ac0b	0.0060019544
148	0x3cc0cd56	0.023535412
149	0xbdb02bf0	-0.086021304
150	0x3ddee580	0.108836174
151	0xbc1eccb3	-0.009692359
152	0xbdbb067e	-0.09132098
153	0x3dae94ce	0.08524476
154	0xbd756e37	-0.059919562
155	0x3cf39e90	0.029738694
156	0x3d77d869	0.06050912
157	0xbe648f37	-0.22320257
158	0xbcbfa9dc	-0.023396425
159	0xbdfe9e4c	-0.124325365
160	0xbde25075	-0.11050502
161	0x3cfc8b5a	0.030828167
162	0x3ba3b1e1	0.00499557
163	0xbdc831a7	-0.097750954
164	0xbdf6410d	-0.12024126
165	0x3d23282e	0.03983324
166	0x3d37da34	0.04488583
167	0xbdf04001	-0.11730958
168	0x3dc6a547	0.09699493
169	0xbc8552e6	-0.01627488
170	0xbe394d2c	-0.18095845
171	0x3df5e017	0.12005632
172	0xbd5a1432	-0.053241916
173	0xbe43089f	-0.19046257
174	0x3d8eedba	0.069789365
175	0x3d19b81e	0.037529103
176	0x3da3a0b2	0.079896346
177	0x3c2bcfb5	0.010486533
178	0x3e12cfc2	0.14337066
179	0xbda9e1b3	-0.08295002
180	0x3def752e	0.11692272
181	0xbdba8d2d	-0.091089584
182	0x3d2296ce	0.0396946
183	0xbe111131	-0.14166714
184	0xbdb46aec	-0.08809456
185	0xbdd83458	-0.10556859
186	0xbe2e5e52	-0.17028168
187	0xbe38390b	-0.1799051
188	0x3df4d960	0.119555235
189	0x3e0986dd	0.13430353
190	0xbe42a7d7	-0.19009338
191	0xbe5414de	-0.20711085
192	0x3d2ea2df	0.042635795
193	0x3e3f5942	0.18686393
194	0x3e1a7221	0.15082599
195	0x3d884d46	0.06655364
196	0xbdfefec2	-0.12450935
197	0xbd7ef380	-0.06224394
198	0xbe024d50	-0.12724805
199	0xbdfd3b0c	-0.12364778
200	0x3db79798	0.08964461
201	0xbdb84f69	-0.08999521
202	0x3db3862f	0.08765828
203	0x3daed631	0.085369475
204	0xbdfaaa12	-0.122394696
205	0xbdaff14a	-0.08590944
206	0x3d8daeb5	0.06918088
207	0x3e021fec	0.1270749
208	0xbadc7f3a	-0.0016822584
209	0xbc6408f3	-0.013918149
210	0xbcfc0b42	-0.030767087
211	0xbd0e4423	-0.03473295
212	0xbd90e4a2	-0.07074858
213	0x3cb12f52	0.02162901
214	0xbe080220	-0.1328206
215	0x3dbb1e0f	0.091365926
216	0xbe1effac	-0.15527219
217	0xbda9caf1	-0.08290661
218	0x3df19040	0.11795092
219	0x3d1d41ae	0.038392715
220	0x3bc8cc8e	0.0061279004
221	0xbdb60cc8	-0.088891566
222	0xbd873d4b	-0.066034876
223	0xbd6551c9	-0.0559862
224	0x3d95c618	0.07313174
225	0x3de347b6	0.11097662
226	0xbe365c02	-0.17808536
227	0x3d8f54c3	0.06998589
228	0xbd693212	-0.056932516
229	0xbadee561	-0.0017005616
230	0xbd8ef7bb	-0.069808446
231	0x3c2be2d0	0.010491088
232	0xbdcdbfaf	-0.10046326
233	0x3d93d06f	0.0721749
234	0xba85b9f1	-0.001020251
235	0xbd72baa8	-0.05926004
236	0x3d5e56db	0.05428205
237	0x3dd0e9e1	0.10200859
238	0xbc266e31	-0.010158108
239	0x3bb5ed49	0.0055519682
240	0xbdc0fbbb	-0.09423014
241	0x3d90bc3e	0.07067154
242	0x3d89e722	0.06733538
243	0xbe192754	-0.14956409
244	0x3cba0084	0.022705324
245	0xbe1512a7	-0.14557897
246	0xbcb8ad2a	-0.022543509
247	0xbe012414	-0.12611419
248	0x3e042107	0.12903224
249	0xbd6e0a3b	-0.058115225
250	0x3dfe33f9	0.12412257
251	0x3de8dcc3	0.11370232
252	0x3d5d0ab3	0.05396528
253	0x3dcaf0aa	0.09909184
254	0xbbceff9f	-0.0063170935
255	0x3da50098	0.08056754

lstm.weight_hh_l0 f4 [128, 32]
0	0xbd93704e	-0.07199155
1	0xbe4e4316	-0.20142779
2	0x3e783628	0.24239409
3	0x3db724f6	0.089425966
4	0xbe3f4330	-0.18677974
5	0xbdcc0155	-0.099611916
6	0xbc9cb4e1	-0.019129219
7	0x3db1c91d	0.086809374
8	0x3df3d516	0.11905877
9	0x3c371982	0.011175515
10	0xbe772715	-0.24136002
11	0xbd9e94a2	-0.07743193
12	0xbd6db474	-0.05803342
13	0x3e20d234	0.15705186
14	0x3e1b0b56	0.15141043
15	0x3d4eba18	0.05047044
16	0x3e0aa1f2	0.1353834
17	0xbd48ba66	-0.04900589
18	0x3cbda0d5	0.02314798
19	0x3cf8a461	0.03035182
20	0xbdc6ca4e	-0.09706555
21	0x3e33aa30	0.1754539
22	0x3db91228	0.09036666
23	0x3e434f48	0.19073212
24	0x3d72e070	0.05929607
25	0x3de5285e	0.1118934
26	0x3e4c16c3	0.19930558
27	0x3d0ff532	0.035145946
28	0xbccf2065	-0.025284002
29	0x3bb8c614	0.005638847
30	0xbd829093	-0.063752316
31	0x3e1c17de	0.1524348
32	0xbdc8c947	-0.098040156
33	0xbcfda869	-0.030964093
34	0xbd9301ae	-0.07178055
35	0xbc1c2f2b	-0.00953273
36	0xbdd4c377	-0.103888445
37	0xbdf61a41	-0.12016726
38	0x3d49fe69	0.04931489
39	0xbe18d794	-0.14925987
40	0xbd9e49de	-0.07728933
41	0x3e8871ec	0.26649415
42	0xbdc2c093	-0.09509387
43	0xbd46d379	-0.04854152
44	0x3d2068e1	0.03916252
45	0x3c80129d	0.015633876
46	0xbdfba0aa	-0.122865036
47	0xbd34e5da	-0.044164516
48	0xbdbc60a3	-0.091981195
49	0xbd96a092	-0.07354845
50	0xbd9e39ee	-0.07725893
51	0x3da70851	0.08155883
52	0xbd85d994	-0.0653564
53	0x3cb97d46	0.022642743
54	0x3dd3bddc	0.10338947
55	0x3e008d52	0.1255391
56	0x3e5a6d04	0.21330649
57	0xbe4b5034	-0.19854814
58	0x3e269504	0.16267782
59	0xbe559470	-0.20857406
60	0xbe502f5c	-0.20330566
61	0xbd95cc7c	-0.07314393
62	0x3e60bb7d	0.21946521
63	0xbd115cd5	-0.035488922
64	0xbe2da7e3	-0.16958575
65	0x3d2aaebb	0.041670542
66	0x3e4d5cce	0.20054933
67	0x3e07f06a	0.13275304
68	0xbdabf293	-0.08395877
69	0xbd6bae73	-0.057539415
70	0xbd707991	-0.058709685
71	0x3dc66112	0.096864834
72	0xbd3facec	-0.04679577
73	0xbd48b47d	-0.049000252
74	0xbce70ca2	-0.028204266
75	0xbd3b4601	-0.045721058
76	0x3e5d3c67	0.21605073
77	0x3d8693a4	0.06571129
78	0x3e67acd9	0.2262453
79	0x3d73ef72	0.059554525
80	0xbd090f31	-0.033461753
81	0x3e1ee7cc	0.15518111
82	0x3e40a143	0.18811516
83	0xbcb55444	-0.022134908
84	0x3e09cf88	0.13458073
85	0x3d814f8b	0.06314
86	0x3bfda4be	0.007740586
87	0x3e171e05	0.14757545
88	0x3df5b8c0	0.11998129
89	0x3d83d2ee	0.06436716
90	0x3c3fdbf5	0.011710157
91	0xbdfd28f7	-0.12361329
92	0xbe3aec6d	-0.18254252
93	0x3dbf5361	0.09342075
94	0x3e49bb3c	0.1970033
95	0x3e13afc8	0.14422524
96	0xbcba61e9	-0.022751765
97	0xbdd15b3d	-0.102224804
98	0xbd938c27	-0.07204466
99	0x3e81bd30	0.2533965
100	0xbd916e8a	-0.07101162
101	0xbd8382bc	-0.0642142
102	0xbda02abe	-0.078206524
103	0xbe1b7f1c	-0.15185207
104	0xbc0b025f	-0.008484452
105	0xbd419dfe	-0.047269814
106	0xbe1cf0e0	-0.15326262
107	0xbd4bceed	-0.049757887
108	0xbd82ed9f	-0.06392979
109	0x3e341820	0.17587328
110	0x3e3dadf5	0.1852339
111	0xbd2f7c9c	-0.042843446
112	0xbccf77d7	-0.025325699
113	0x3e51c7b6	0.2048634
114	0x3de48a3f	0.11159181
115	0xbd73566e	-0.059408598
116	0x3e339684	0.17537886
117	0x3e04c7df	0.1296687
118	0xbc179a80	-0.009253144
119	0x3d5101bc	0.051027045
120	0xbc8342a2	-0.016022984
121	0xbdd669fe	-0.10469435
122	0x3e747052	0.23870972
123	0xbe315e60	-0.17321157
124	0xbe4b25ea	-0.19838682
125	0x3e252d68	0.16130602
126	0x3dbce323	0.092230104
127	0x3db12670	0.086499095
128	0xbe1f700c	-0.15570086
129	0xbe43c824	-0.19119316
130	0xbbb67d78	-0.0055691563
131	0x3e1918fe	0.1495094
132	0x3d0e5730	0.034751117
133	0xbc737815	-0.014860173
134	0xbc01dfcb	-0.007926892
135	0x3d599992	0.05312497
136	0xbe2bdfe9	-0.16784634
137	0x3c827c37	0.01592837
138	0x3b354ae1	0.002766304
139	0xbbbdc601	-0.005791426
140	0xbdc54b55	-0.09633509
141	0x3c91471d	0.017734105
142	0x3e87a348	0.2649176
143	0x3d2d6337	0.042330947
144	0x3e217382	0.15766719
145	0xbd386792	-0.045020647
146	0xbd7541af	-0.059877094
147	0xbe48bf10	-0.19604135
148	0x3dd32e27	0.10311537
149	0x3d21ac09	0.039470706
150	0xbd6cf173	-0.05784745
151	0x3e27d573	0.16390018
152	0xbcaddda2	-0.021223847
153	0xbbaaa4e3	-0.0052076443
154	0x3d6d0b37	0.057872023
155	0xbd6ade35	-0.05734082
156	0x3daa74bb	0.08323046
157	0xbdc13648	-0.094341815
158	0x3d9fe8f0	0.07808101
159	0xbdfc0068	-0.12304765
160	0xbe0e0be0	-0.13871717
161	0xbe0ae4f8	-0.13563907
162	0x3e775673	0.24154072
163	0xbd0399a3	-0.03212894
164	0x3d244b4e	0.04011088
165	0xbdda51c5	-0.106601276
166	0x3e57e5dd	0.2108378
167	0xbdd854d2	-0.10563053
168	0xbe46948b	-0.19392602
169	0xbccf4c4d	-0.025304938
170	0xbe8f1f7b	-0.27953705
171	0xbdc31013	-0.0952455
172	0x3d3bd29f	0.04585516
173	0x3e405a80	0.18784523
174	0x3e1c6f2a	0.1527678
175	0x3e0f1e86	0.13976488
176	0x3e4bc692	0.19899967
177	0xbddcc9c5	-0.10780672
178	0xbd2dc0e2	-0.042420276
179	0xbd80eef8	-0.0629558
180	0x3e67e669	0.22646488
181	0x3d5825d4	0.05277045
182	0x3e050497	0.12990032
183	0x3e379dee	0.17931339
184	0x3e83bd89	0.2573054
185	0xbda8fc3d	-0.08251236
186	0xbd218f06	-0.03944304
187	0xbe86a565	-0.2629806
188	0x3d07b945	0.03313567
189	0xbde7185a	-0.112839416
190	0xbdadf540	-0.08494043
191	0x3e21a22a	0.15784517
192	0x3d1975dd	0.03746592
193	0x3d9098d4	0.070604
194	0x3cec2376	0.028825503
195	0x3d67e2fd	0.056612957
196	0xbe236379	-0.15955915
197	0xbe56aca9	-0.20964302
198	0xbcd9b1bf	-0.026574014
199	0x3d01f85b	0.03173099
200	0xbe2215c7	-0.1582862
201	0x3dc5c2fc	0.09656331
202	0xbd2e3df8	-0.042539567
203	0x3d027440	0.031849146
204	0x3e0a2524	0.1349073
205	0x3dfd16c1	0.123578556
206	0x3c8f62a7	0.017503096
207	0x3e2478bc	0.16061682
208	0xbd3e549a	-0.0464674
209	0xbc3ec75b	-0.01164421
210	0x3d1b1c32	0.037868686
211	0x3dab9d10	0.08379567
212	0x3b89d67e	0.0042064777
213	0x3dca1ca8	0.09868747
214	0x3e6b8bef	0.23002599
215	0x3e334e6c	0.17510384
216	0x3e881dea	0.26585323
217	0xbd463b9f	-0.048396703
218	0x3d9520b4	0.07281628
219	0xbd82436f	-0.06360518
220	0xbe5e5429	-0.21711792
221	0x3d80ba7a	0.062855676
222	0x3e720ed0	0.23638463
223	0x3dbe0084	0.09277442
224	0xbe4c5095	-0.19952615
225	0x3ca5a37d	0.020219559
226	0x3dd9ed71	0.106409915
227	0xbe36eed5	-0.17864545
228	0xbd13e48c	-0.03610663
229	0x3cf68f52	0.030097637
230	0xbd96a215	-0.073551334
231	0xbdac239b	-0.08405229
232	0x3dc77970	0.09739959
233	0x3d6685f2	0.056280084
234	0x3dddedfe	0.10836409
235	0x3a138047	0.000562672
236	0x3cf545c3	0.029940492
237	0x3dfc0f1d	0.1230757
238	0x3e0bcbb1	0.13651921
239	0xbe40228e	-0.18763182
240	0x3c4833bc	0.012219366
241	0x3e306ac1	0.17228223
242	0x3df25163	0.118319295
243	0xbd27afbf	-0.04093909
244	0xbde8c08d	-0.11364851
245	0x3dfe2614	0.124096066
246	0x3d870b6c	0.065939754
247	0x3e6e4795	0.23269494
248	0x3df555fe	0.11979292
249	0xbda7785d	-0.08177254
250	0x3e2132cb	0.15742032
251	0xbcad8291	-0.021180423
252	0xbe4cea8a	-0.20011345
253	0x3e2c7daf	0.1684482
254	0x3e656a9c	0.2240395
255	0xbbfedec4	-0.0077780206

lstm.bias_ih_l0 f4 [128]
0	0xbdd5e08b	-0.10443219
1	0x3dc0113f	0.093782894
2	0x3d0995b5	0.033590037
3	0x3ccb928d	0.024850154
4	0xbd2c77cf	-0.042106446
5	0x3d5db76a	0.054129995
6	0x3d15355e	0.036427848
7	0x3e5559ee	0.20835087
8	0x3e1c06de	0.15236995
9	0x3d0f7d3f	0.035031553
10	0xbd939048	-0.07205254
11	0x3e523031	0.20526196
12	0x3e40c713	0.18825941
13	0x3d07d7a6	0.033164643
14	0xbc340b73	-0.010989058
15	0x3dd24219	0.102665134
16	0x3d917d58	0.071039855
17	0xbdda6670	-0.1066407
18	0x3dbcb4ef	0.09214198
19	0xbde2624f	-0.11053907
20	0x3e3cbf7c	0.1843242
21	0x3e1a208d	0.1505148
22	0x3dbbe8d8	0.09175271
23	0x3e3b9232	0.18317488
24	0x3e2c2cbb	0.16813938
25	0xbc9fc5bf	-0.019503472
26	0xbdd34e6f	-0.103176944
27	0x3ae736d8	0.0017640246
28	0x3e119d9e	0.14220282
29	0xbe5c0742	-0.21487144
30	0x3ddfe81a	0.10932942
31	0x3da2b02c	0.07943758
32	0xbdbe4006	-0.09289555
33	0xbcd14f02	-0.02555037
34	0x3e6eb0c0	0.23309612
35	0x3df17bba	0.11791177
36	0x3cf35091	0.029701503
37	0x3df6616d	0.12030301
38	0x3e6e72a9	0.23285927
39	0x3ddacafa	0.10683246
40	0xbd87b7ca	-0.06626852
41	0xbd95822d	-0.0730022
42	0xbd4f5c30	-0.050625026
43	0x3d9d7541	0.0768838
44	0x3e01a1f9	0.12659444
45	0x3e405374	0.18781835
46	0xbd84c7c5	-0.064834155
47	0xbc9a4bff	-0.018835066
48	0xbd3e344f	-0.046436604
49	0x3e134c77	0.14384638
50	0x3e5cdffe	0.21569821
51	0xbcd27bc0	-0.025693774
52	0x3d4f3388	0.050586253
53	0xbc9898df	-0.018627582
54	0xbd490941	-0.04908109
55	0x3dce1bbb	0.10063883
56	0x3d92b69a	0.07163735
57	0x3e138af6	0.14408478
58	0xbd82c98b	-0.063860975
59	0x3d7173b1	0.058948223
60	0x3d7e0bf0	0.062023103
61	0x3c579b50	0.013159588
62	0x3e7d904d	0.24762078
63	0x3dd99e31	0.10625876
64	0xbd43c490	-0.04779488
65	0xbdf8e330	-0.121527076
66	0x3c8bc227	0.017060352
67	0x3da83652	0.08213486
68	0xbdf05a37	-0.11735957
69	0xbe6ddc4c	-0.23228568
70	0x3d393051	0.045212094
71	0x3d8c23e0	0.0684278
72	0xbe0a4f29	-0.1350676
73	0x3dcc3d7c	0.09972665
74	0x3cb5c71f	0.022189675
75	0xbd50ad0f	-0.05094629
76	0xbdad7bb1	-0.08470858
77	0x3e3a8a32	0.1821678
78	0x3d6c6bdf	0.05772006
79	0xbc874c55	-0.01651589
80	0xbc7dd120	-0.015491754
81	0xbe01e179	-0.12683667
82	0x3e4f5bc9	0.20249857
83	0xbc08cbce	-0.008349372
84	0x3e042826	0.1290594
85	0xbdf3ea65	-0.119099416
86	0x3dd87da3	0.10570838
87	0xbda51365	-0.0806034
88	0x3d05d707	0.03267577
89	0x3d7462fd	0.059664715
90	0xbcbf533b	-0.023355117
91	0xbe5cfc04	-0.21580511
92	0xbdc8ee34	-0.09811059
93	0xbc5af6d0	-0.013364509
94	0x3e4e0ff6	0.20123276
95	0xbcac179b	-0.02100735
96	0xbcf78526	-0.030214857
97	0xbced7b11	-0.028989347
98	0xbccadec0	-0.024764419
99	0x3db752f9	0.08951373
100	0x3e5ed362	0.21760324
101	0x3e29e2cf	0.16590427
102	0x3dbf4b46	0.09340529
103	0x3d9fd367	0.07803994
104	0xbdb35f13	-0.08758368
105	0x3d2bd469	0.041950617
106	0x3e2fd91e	0.17172667
107	0x3b766e96	0.0037602535
108	0x3e43aa58	0.1910795
109	0xbdb591e7	-0.08865719
110	0x3de8c4bf	0.11365651
111	0x3e1879c0	0.14890194
112	0x3e5b7a48	0.21433365
113	0xbde25dd0	-0.110530496
114	0x3e747cca	0.23875728
115	0x3e143882	0.14474681
116	0x3da2a37f	0.07941341
117	0x3e36db4f	0.17857097
118	0x3e2ff4a5	0.17183168
119	0x3e84890f	0.25885817
120	0x3c5db8b0	0.013532802
121	0x3ddf85f5	0.10914222
122	0x3df9ebaf	0.12203156
123	0x3dd3f35c	0.103491515
124	0x3e734884	0.23758131
125	0xbd92e633	-0.07172813
126	0x3c416de1	0.011805982
127	0x3e120eda	0.14263478

lstm.bias_hh_l0 f4 [128]
0	0x3de05860	0.10954356
1	0x3dcd331d	0.10019515
2	0xbd502ec3	-0.050825845
3	0x3d61fd59	0.05517325
4	0xbc9e1e0b	-0.019301435
5	0x3e533464	0.20625454
6	0xbdc13b6e	-0.094351634
7	0x3d28779f	0.041129705
8	0x3e26cee7	0.16289864
9	0x3e2cb17d	0.16864581
10	0x3da0b513	0.07847037
11	0x3d337238	0.0438101
12	0x3dafc678	0.08582777
13	0x3e76d15e	0.24103305
14	0x3b754cfe	0.0037429924
15	0xbdd0ae17	-0.10189455
16	0xbdbbfeae	-0.09179436
17	0xbc6e051b	-0.014527584
18	0x3d837524	0.06418827
19	0xb8cce0dc	-9.769361e-05
20	0x3e4d7be0	0.20066786
21	0x3d8ed2ee	0.069738254
22	0x3c7d80f5	0.01547264
23	0xbdade70d	-0.08491335
24	0xbce58208	-0.028016105
25	0x3da07003	0.078338645
26	0x3e0684a3	0.13136534
27	0x3e48ca64	0.19608456
28	0xbd985f95	-0.07440106
29	0xbde18a82	-0.110127464
30	0x3e2bc66b	0.16774909
31	0xbd954fb0	-0.0729059
32	0xbe0bee24	-0.13665062
33	0x3e828259	0.25490072
34	0x3d4c17d5	0.049827415
35	0xbdae44b3	-0.08509197
36	0x3dde500a	0.1085511
37	0x3da20fc3	0.079131626
38	0xbd23bebe	-0.039976828
39	0x3db6439a	0.08899613
40	0xbd2944e8	-0.04132548
41	0xbd76242b	-0.060093086
42	0x3c9efc95	0.01940755
43	0xbd8be00e	-0.068298444
44	0x3dcc6708	0.09980589
45	0xbd0ff313	-0.035143923
46	0x3e808e19	0.25108412
47	0xbd8617c5	-0.065475024
48	0x3de5968e	0.11210357
49	0xbe308d26	-0.17241344
50	0xbadea8f7	-0.0016987611
51	0x3ca6be17	0.020354314
52	0x3e260931	0.16214444
53	0x3e3f03cf	0.18653797
54	0x3e5c8369	0.21534504
55	0x3e5dc8f1	0.21658684
56	0xbbdbb85a	-0.006705326
57	0xbe02a70f	-0.1275904
58	0xbc36d223	-0.011158499
59	0x3d71d4be	0.059040777
60	0x3c43f247	0.011959619
61	0x3e1bf151	0.15228774
62	0x3e0b54ba	0.1360654
63	0x3e69db2c	0.22837514
64	0x3de1aeb9	0.11019654
65	0x3db1faee	0.08690439
66	0x3d6692b3	0.056292247
67	0x3d893a5a	0.06700583
68	0x3ddd0b34	0.107931525
69	0xbe0df2f7	-0.13862215
70	0x3e40e9a0	0.18839121
71	0xbe4d2b0b	-0.20035951
72	0xbd94bed1	-0.07262958
73	0xbc99ced7	-0.018775387
74	0xbe5d2c49	-0.21598925
75	0x3dc0b16b	0.0940884
76	0x3e4c1d76	0.19933113
77	0x3caf1852	0.021373902
78	0x3e49312a	0.19647661
79	0xbdb96c98	-0.09053916
80	0x3e2d32fa	0.16913977
81	0xbc4c8188	-0.0124820545
82	0x3e672d91	0.22575976
83	0x3c63f1be	0.013912616
84	0xbd876474	-0.06610957
85	0xbe07048e	-0.13185331
86	0x3dfec671	0.124401934
87	0x3e35e661	0.17763664
88	0x3d854a35	0.065082945
89	0x3d71739d	0.058948148
90	0x3da0d338	0.07852787
91	0xbe2e26fb	-0.17007057
92	0xbe00dff8	-0.12585437
93	0xbdea38f1	-0.11436642
94	0x3df6351b	0.12021848
95	0x3e286313	0.16444044
96	0xbe06f500	-0.13179398
97	0xbd30602e	-0.043060474
98	0x3e7cdbf7	0.24693285
99	0x3e26eb38	0.16300666
100	0x3e2aa098	0.16662824
101	0x3e019dad	0.12657805
102	0x3e7bc612	0.24587277
103	0x3e0bafd4	0.13641292
104	0xbd7caac6	-0.0616863
105	0x3d81bbd6	0.06334655
106	0xbdbd9714	-0.092573315
107	0x3de46b2d	0.11153255
108	0xbd32c181	-0.04364157
109	0x3d9a1851	0.07524169
110	0x3e3171c1	0.1732855
111	0x3d67b4b2	0.05656881
112	0x3e09a9ad	0.13443632
113	0x3cc4a2ce	0.024003413
114	0x3e47a81b	0.19497721
115	0x3dd2505e	0.10269235
116	0x3d2a92d3	0.04164393
117	0xbdec1cd6	-0.115289375
118	0x3dc31123	0.09524753
119	0x3decc7c9	0.115615435
120	0x3d400519	0.04687986
121	0xbdbd11b8	-0.09231895
122	0x3cfab3f4	0.030603386
123	0x3b7c0400	0.0038454533
124	0xbd8ab122	-0.06772067
125	0xbe37d3cd	-0.1795189
126	0x3e373be5	0.17893942
127	0x3e16c53a	0.14723673

fc.weight f4 [1, 32]
0	0xbd7e38ab	-0.06206576
1	0xbe231269	-0.15924992
2	0x3e455b7b	0.19273178
3	0x3e223fd3	0.1584466
4	0xbe55ae4a	-0.20867267
5	0xbe81df63	-0.25365743
6	0x3dd8e2af	0.105901115
7	0xbe825a5b	-0.2545956
8	0xbe26d3f9	-0.16291799
9	0x3dfe4943	0.12416317
10	0xbe546e53	-0.2074521
11	0x3e1d8e14	0.1538623
12	0x3e5b502f	0.21417306
13	0x3ddb22b4	0.106999785
14	0x3e011fba	0.12609759
15	0xbe257ace	-0.16160128
16	0x3e4d4944	0.2004748
17	0x3e7e3aab	0.24827068
18	0x3e15b798	0.14620817
19	0xbe56d0a0	-0.20978022
20	0x3e1d2051	0.15344359
21	0x3e665768	0.2249428
22	0x3e8fcf79	0.28087977
23	0x3e1428ac	0.1446864
24	0x3df6b6cb	0.12046584
25	0xbdf5e475	-0.12006465
26	0x3e82f3b9	0.2557657
27	0xbd7dfdc7	-0.0620096
28	0xbdd72f7e	-0.10507105
29	0x3e442eb0	0.19158435
30	0x3d7c33ce	0.061572842
31	0x3e588122	0.2114301
