model/crnn_model.pt (torch, 89890 bytes, 17 tensors)

conv1.weight f4 [16, 1, 3, 3]
000000 05 90 ce be 14 73 32 bf ff 45 ea be 76 3f 1c bf
       -0.40344253 -0.69706845 -0.45756528 -0.61034334
000010 9e 5c 6a 3e 10 95 df be 53 6e 81 bd 17 d3 fd 3d
       0.22886893 -0.43668413 -0.06319871 0.12393778
000020 a2 78 fd 3d ba 37 87 bd 7f 70 fc 3e c9 f1 8b bf
       0.123765245 -0.06602426 0.49304578 -1.0933162
000030 d0 cd 26 3e a4 cf 9c be 9f 14 c2 3e ae 8b 21 be
       0.16289449 -0.30627167 0.37906358 -0.1577594
000040 74 cc e6 be 8c 55 a5 3e 03 33 9a be 54 e0 6b 3e
       -0.4507786 0.3229183 -0.30117044 0.23034793
000050 c0 4f 7e 3f e3 fb 6a 3e b1 26 6b 3d b1 b8 f4 be
       0.9934044 0.2294765 0.057409946 -0.47797158
000060 9d e2 8c be 4f 46 03 be 18 d7 1f 3e c9 30 db 3e
       -0.27516642 -0.1281979 0.15609396 0.42810658
000070 92 38 30 be 74 db e9 3e da 98 45 bf e9 c3 52 bf
       -0.1720908 0.45675242 -0.7718636 -0.82330185
000080 f1 d4 81 be 6b db 36 be 3d bd 9b 3f 84 1a 29 3e
       -0.25357774 -0.17857139 1.2167126 0.16514021
000090 20 aa 88 be 10 49 91 bf a4 ed a3 be 91 32 14 3d
       -0.26692295 -1.1350422 -0.32017243 0.036181036
0000a0 bd 7f 84 be 5d 94 6e 3f 99 d0 1a bf 17 c3 11 3e
       -0.25878707 0.93195134 -0.60474545 0.14234577
0000b0 17 87 85 bd 80 1f 22 3f 86 c6 9d bd 47 d2 14 3e
       -0.06519907 0.63329315 -0.07703881 0.1453334
0000c0 08 71 b3 bd 99 01 27 3f 98 f5 bd 3f d4 5d 83 3d
       -0.087617934 0.6523681 1.4840574 0.06414381
0000d0 e3 c6 d2 be 2b be 26 bd 83 26 9f 3e 91 de 1a 3d
       -0.41167364 -0.040708702 0.3108407 0.037809912
0000e0 6f cd ec 3d 4d 90 3e bf 93 f2 55 3f 38 1c 99 3f
       0.11562621 -0.74438936 0.83573264 1.1961737
0000f0 23 dd 97 3e 5b 7b 26 be 88 aa ea be 67 a2 2e 3e
       0.296609 -0.16257994 -0.4583323 0.17054139
000100 6c 4d 31 3d d3 01 98 be 0c 2e 18 bf 86 e2 f0 be
       0.043286726 -0.29688892 -0.5944526 -0.47047824
000110 55 1a 27 bf db 7c 82 bf 35 be 0f 3f 21 f3 9f bd
       -0.65274554 -1.0194353 0.5614961 -0.07810045
000120 a3 5e c1 bd bb 2a 16 bf a2 64 23 be df 78 ac 3d
       -0.09441879 -0.5865895 -0.15956357 0.08421492
000130 5f 57 24 3f 42 52 1c bf 18 72 04 3f 66 7e 75 3b
       0.6419582 -0.61063015 0.51736593 0.0037459373
000140 b2 76 a9 3f d9 96 76 3e fd 86 d3 be 25 7c 05 3f
       1.3239348 0.24080981 -0.41313925 0.52142555
000150 73 7f c7 be d3 8a 97 be e1 66 8d bc 42 62 a1 3e
       -0.38964424 -0.29598102 -0.01726097 0.31520277
000160 57 51 18 3f 25 47 03 bf 00 14 2d 3e aa 6d 16 bd
       0.59499115 -0.5128043 0.1690216 -0.036725678
000170 09 16 b9 be 90 93 9b 3f 00 b7 c9 3e 1d d6 0f 3d
       -0.36149624 1.2154408 0.3939743 0.035116304
000180 8b 6f 8b be 29 c4 3f bd 5a 4a 62 3e 21 f3 98 3e
       -0.27233538 -0.046817932 0.22098675 0.29872993
000190 76 2c 79 3d e6 a0 41 be ce e2 f7 be 8e 69 46 bf
       0.060833417 -0.18909034 -0.48415226 -0.77504814
0001a0 b4 2e cc be 5a 96 44 be b6 da 16 be 4a f9 a5 3e
       -0.39879382 -0.1919798 -0.14731869 0.32416755
0001b0 8a 30 4f bf 42 e6 5d bd 3f 84 a2 3e 2b c2 cb 3e
       -0.8093344 -0.05417467 0.3174152 0.39796576
0001c0 97 e1 68 be b0 81 e8 3f 3e 64 26 3f f7 57 11 bc
       -0.22742306 1.8164577 0.6499671 -0.00887107
0001d0 af 7e 4d 3f de 36 01 bf f6 9f 1a be d1 86 ae 3d
       0.8027143 -0.50474346 -0.15100083 0.08521808
0001e0 31 28 89 bd 46 d1 25 bf 19 41 93 3e 69 d5 82 be
       -0.06697119 -0.6477245 0.28760603 -0.25553444
0001f0 eb 72 83 bd 06 37 16 3f 20 19 03 be 71 eb bc 3e
       -0.06418403 0.5867771 -0.12802553 0.36898378
000200 41 9d 8c be 92 1c ad be 8d 60 3a 3e 00 0a 38 3e
       -0.27463725 -0.3381086 0.18200894 0.17972565
000210 4b bf eb 3e 6d 35 6d bd 4f 8d 98 3e 8c b8 93 3e
       0.46044382 -0.05791228 0.2979531 0.28851736
000220 9c 01 0a 3f 43 da 53 3e 0c 3c da 3e 5b 85 b7 bd
       0.53908706 0.20688729 0.42623937 -0.089609824
000230 2b dd 14 bf 72 ab a8 be 3f 93 31 be 1b 21 17 bf
       -0.58149976 -0.32943302 -0.17341326 -0.5903489

conv1.bias f4 [16]
000000 00 00 00 00 00 00 00 00 00 00 00 00 00 00 00 00
       0.0 0.0 0.0 0.0
000010 00 00 00 00 00 00 00 00 3d f2 fe 0a 82 b2 ef 09
       0.0 0.0 2.455043e-32 5.7705025e-33
000020 98 37 16 15 5d df a6 9a 42 9d 71 20 f0 5e 43 23
       3.0336114e-26 -6.9016854e-23 2.0465526e-19 1.0591075e-17
000030 7e 5a b2 2a b2 a8 cd b3 51 d6 5f bb bd 55 1c bb
       3.1681943e-13 -9.576742e-08 -0.0034154842 -0.0023854815

bn1.weight f4 [16]
000000 00 00 80 3f 00 00 80 3f 00 00 80 3f 00 00 80 3f
       1.0 1.0 1.0 1.0
000010 00 00 80 3f 00 00 80 3f 00 00 80 3f 00 00 80 3f
       1.0 1.0 1.0 1.0
000020 00 00 80 3f 00 00 80 3f 00 00 80 3f 00 00 80 3f
       1.0 1.0 1.0 1.0
000030 00 00 80 3f 00 00 80 3f 03 d1 82 3f f4 9b 8f 3f
       1.0 1.0 1.0220035 1.1219468

bn1.bias f4 [16]
000000 00 00 00 00 00 00 00 00 00 00 00 00 00 00 00 00
       0.0 0.0 0.0 0.0
000010 00 00 00 00 00 00 00 00 0b f1 7b 0b 41 cb 22 0d
       0.0 0.0 4.8522182e-32 5.016476e-31
000020 61 90 67 15 a7 19 7f 99 d4 95 50 a1 4a e5 39 a2
       4.6763973e-26 -1.31883715e-23 -7.0671437e-19 -2.519356e-18
000030 53 41 ee 2a 29 7a 35 b3 3f c7 ba bc 88 48 fe 3c
       4.232262e-13 -4.225345e-08 -0.022800086 0.031040445

bn1.running_mean f4 [16]
000000 1a 58 57 3f d8 9d 99 3e 94 49 96 3e 5e 4d 28 3f
       0.8411881 0.30003238 0.2935301 0.6574305
000010 9d fa 38 3f a6 6c 3e 3f 11 9b f2 3e cd b4 79 3f
       0.72257406 0.74384534 0.4738393 0.97541505
000020 65 de 26 3f cc fc 7d 3e ec 5a 10 3f 9f cc 40 3f
       0.651831 0.24803466 0.56388736 0.75312227
000030 c3 b2 75 3f 23 d4 af 3e 78 d3 49 3e 1a be 10 3f
       0.95975894 0.34341535 0.19709575 0.5654007

bn1.running_var f4 [16]
000000 95 45 80 40 f2 35 06 3f 2e a7 85 3f 79 f0 55 40
       4.008494 0.52426064 1.0441644 3.3428023
000010 22 ef 53 40 2b eb b6 40 6f 1e 0f 40 6e 14 98 40
       3.3114705 5.716207 2.2362325 4.752494
000020 18 44 87 40 cf ff ff 3e 0a 5e 76 40 5e f2 54 40
       4.227062 0.49999854 3.8494897 3.327293
000030 b0 2e 2a 41 c0 24 2d 3f 08 1c fd 3e 91 8b 2d 40
       10.636398 0.676342 0.4943545 2.7116435

lin.weight f4 [1, 64]
000000 47 8c f6 3c 02 32 c3 bd 39 69 d8 3d e2 33 ba bd
       0.030096186 -0.095310226 0.10566945 -0.09091927
000010 c2 94 21 be 25 9b 6f be f6 f2 32 be d7 ee 34 3e
       -0.15779403 -0.23399027 -0.17475495 0.17669235
000020 52 1e 7b 3c ae bc dd bd ad 26 b1 3c 64 11 3f be
       0.015327053 -0.108270034 0.021624887 -0.18658978
000030 9f be 38 3d 20 69 c2 3d b8 21 19 3e 6e 76 cc 3b
       0.045103665 0.09492707 0.14954269 0.006239704
000040 a6 bb 3c be ae 0b 9d 3d 06 24 58 bd 93 4a 04 be
       -0.18430957 0.07668243 -0.05276873 -0.12919073
000050 9b c7 da 3d 36 f1 25 be 87 92 28 3e 10 3e 49 3e
       0.10682603 -0.16205296 0.16462146 0.19652581
000060 68 78 d9 3d 9c a9 67 be c1 2d 23 bc c9 df 87 3e
       0.10618669 -0.22623295 -0.009959639 0.26537922
000070 b1 e9 c6 bc b3 1e 97 bd 2f 33 46 3e 76 2d 51 be
       -0.024281355 -0.07378902 0.19355462 -0.20427498
000080 73 c3 4a be 72 56 20 be 5b d3 c6 3d ef 08 6f 3e
       -0.1980112 -0.15657976 0.097082816 0.23343252
000090 5d df fb 3b 4b f8 a3 3d da f8 4b bd 70 98 31 3e
       0.007686539 0.080063425 -0.04979787 0.17343307
0000a0 8c 47 1c be 42 5c 91 3d 82 d7 66 be 2b c1 2e bd
       -0.15261668 0.07097675 -0.22543147 -0.042664688
0000b0 fb a0 cd 3d e4 24 ea 3d bb d4 7a 3e 37 b4 70 3d
       0.1004047 0.114328176 0.24495213 0.058765616
0000c0 91 46 5c be 47 23 37 3d 7f 92 a3 bd fb 4e 2e be
       -0.21511294 0.044711377 -0.07986926 -0.17022316
0000d0 74 15 b0 bc 3c 7d e8 bc a7 44 3b bd b6 7e 13 3e
       -0.021494605 -0.028380029 -0.04571977 0.14403805
0000e0 df 4c 0d 3e 69 c8 f3 bc 5c 70 63 be dd e4 50 bc
       0.13798855 -0.029758649 -0.2221083 -0.012749878
0000f0 9d 28 94 bd 5f 2a 20 be 2f 3e 18 be 45 0b 2a be
       -0.07234309 -0.15641163 -0.14867471 -0.16605861

lstm1.weight_ih_l0 f4 [256, 16]
000000 7f 01 bb bd 27 d4 cc bd 70 dd 5d 3d 63 93 74 3c
       -0.09131145 -0.10001402 0.054166257 0.014927718
000010 4f 98 07 3d 0d 99 cf 3d 64 fa 8b 3c 94 3f f1 3d
       0.033104237 0.10136614 0.017087169 0.11779705
000020 3a 7d 70 bd c9 e1 7a bb 48 36 ab 3d d6 8c 20 be
       -0.058713175 -0.003828155 0.08359963 -0.15678725
000030 2e 2d 35 3d 4e 2d d1 bd ab ef e0 bd 53 2e be 3d
       0.04423254 -0.10213719 -0.10983213 0.092861794
000040 74 33 de 3d 34 0d 02 bb b6 a1 d2 bc bf 86 44 3e
       0.10849658 -0.0019844295 -0.025711875 0.19192027
000050 e6 57 6d 3d 8e dd 7f 3d 3b 11 59 3d 01 f4 b7 bb
       0.057945155 0.06246715 0.052994948 -0.0056138043
000060 13 45 32 bc 87 82 d8 3d 5e aa 84 3d f3 48 61 3e
       -0.010880726 0.10571771 0.064778075 0.22000484
000070 ce da d8 bc 68 02 d1 3d ff ab 05 bc 0e 21 a1 3c
       -0.026471522 0.10205537 -0.008158683 0.019669082
000080 b0 9b 87 bd a5 9e aa bc dd 98 20 bc c7 f5 fc 3c
       -0.06621492 -0.0208276 -0.00980207 0.030878915
000090 38 55 f4 bd 5a 28 55 bc b2 ce 4a bd 6e 28 05 bd
       -0.11930317 -0.013010109 -0.049513526 -0.03250926
0000a0 bb 58 29 bd f0 c3 5f bd e5 24 a9 3d f3 c1 a8 3d
       -0.041344386 -0.05463022 0.0825899 0.08240118
0000b0 67 7e ef bc 71 3f e1 bc cc 48 09 3e 0c 59 b5 3c
       -0.029235078 -0.027496072 0.13406676 0.022137187
0000c0 65 3c 8a 3d 35 9f 17 3d bb d0 8c bd 0b 66 ca bd
       0.067498006 0.037017066 -0.0687575 -0.098827444
0000d0 a2 cc ff 3d f5 d9 7c 3d 6d c1 dd 3d d9 17 e4 3d
       0.124902025 0.061731298 0.10827909 0.11137361
0000e0 a1 e0 d4 3d 80 00 7f bd 47 24 7b bd 8e fe 83 3d
       0.10394407 -0.062256336 -0.061313894 0.06445037
0000f0 f3 a9 80 bd b5 be dd 3d 8a 14 bf 3d 6a c7 fe 3d
       -0.06282415 0.1082739 0.093300894 0.12440379
000100 a9 d0 86 bd a3 b5 49 bc de 88 17 bc c5 3e af 3d
       -0.065827675 -0.012311372 -0.00924894 0.08556894
000110 b7 92 13 bd b3 f0 86 bd 25 38 2c ba 02 3d 3b bd
       -0.03602859 -0.065888785 -0.00065696455 -0.04571248
000120 c8 60 90 3c 52 39 65 bd 47 95 5d 3d 3a fe a0 bc
       0.017624274 -0.055962868 0.05409744 -0.019652475
000130 7a 11 a4 3d db 93 34 3c f3 0b e0 3d ef 40 c9 3d
       0.08011146 0.01102158 0.10939779 0.09826838
000140 c3 52 c9 bd 3d 10 7f 3c 5c 31 c3 3c 83 fa 77 3d
       -0.09830239 0.015567836 0.023827247 0.06054164
000150 1a bc 0a 3e 9f c6 6c 3d 6e 47 08 3e 64 1a 56 bd
       0.13548318 0.057806607 0.13308498 -0.05227126
000160 13 43 d1 bd f1 a4 bc bc 93 31 fb 3d 44 49 21 3e
       -0.102178715 -0.023027869 0.12265315 0.15750605
000170 5f 27 1d 3e a2 70 75 bc da f0 0e 3e 62 d8 e3 3d
       0.1534705 -0.014980467 0.13959065 0.11125256
000180 32 76 a9 3c 88 58 fe bd d5 99 4f bd 34 9d b6 bc
       0.020686243 -0.1241923 -0.050683815 -0.022291757
000190 e1 d9 8b 3d 6f 97 82 3d bd e2 3a bc ec 20 f7 bc
       0.068286665 0.0637654 -0.011406598 -0.030167066
0001a0 18 f9 90 bc 7f af 11 3e d1 d8 ba 3d b7 bc 0f 3e
       -0.017696902 0.14227103 0.09123386 0.14036833
0001b0 f4 2a d6 3c 0c ee 6e 3d 20 0c 03 3e 66 74 8d bc
       0.026143529 0.058332488 0.12797594 -0.017267417
0001c0 fd 10 cd 3b 53 b3 59 3d ba 6a 92 bc f4 4d 91 bd
       0.0062581287 0.053149533 -0.017873157 -0.070949465
0001d0 e2 0d 36 bd d4 ea 3a 3c 48 69 28 3d 08 76 47 3e
       -0.044446833 0.011408526 0.04111603 0.19478619
0001e0 94 9f 6a 3d 30 b1 65 3e 74 90 69 3e a5 34 dd 3d
       0.05728109 0.22430873 0.2280901 0.10801057
0001f0 ac 5f 63 3e 3b e3 6e 3d d2 2a 15 3e 37 56 82 3e
       0.22204465 0.058322173 0.14567116 0.25456402
000200 9f 0a 90 bd a3 fe 03 bc aa b3 1a bd df 6b ad 3d
       -0.07033276 -0.008056316 -0.037768997 0.084678404
000210 9a c7 2a bc ca 4e ea 3c 1c a3 6b bd f7 59 01 3e
       -0.010423565 0.028602023 -0.0575286 0.12631975
000220 59 ea 1f bd 6b 16 00 3c 53 2f 4f 3c 0b c3 74 3b
       -0.03904185 0.007817845 0.01264556 0.00373477
000230 d1 77 d9 3d 7f 41 93 bb ce f0 4c 3c 41 dc 82 bc
       0.10618556 -0.0044938917 0.012508584 -0.015974166
000240 a9 90 99 3d a5 95 09 bd a2 bc 8d bd c5 f9 12 bd
       0.07498295 -0.033589978 -0.069207445 -0.03588273
000250 34 04 b7 3d 78 39 c2 3c 1a d1 c1 3d 50 36 dc 3d
       0.089363486 0.023709044 0.09463711 0.10752547
000260 8e 6b ad 3d 39 ed a4 3d 07 64 2e 3e 76 8a 8e 3d
       0.0846778 0.08053059 0.17030345 0.06960003
000270 ea 48 69 3e f8 4e 60 3e 46 bb 36 bb 6e 26 61 bd
       0.22781721 0.21905124 -0.002788262 -0.05496829
000280 06 2d ec 3d fb 89 87 bc 90 99 e0 bd e1 78 99 ba
       0.11532025 -0.016545286 -0.1096679 -0.0011708998
000290 f5 3d 88 bd 56 c2 d3 bb 88 6e c8 bd 8d 0f 53 bd
       -0.06652442 -0.0064623756 -0.09786707 -0.051528502
0002a0 1c 96 fa bb 2a d8 2c bd 45 77 2b bd 89 9a 10 be
       -0.007647289 -0.042198338 -0.04186179 -0.1412145
0002b0 22 b8 8a 3d 68 f3 db bd 7d 4d 85 bd 28 e2 16 3e
       0.06773402 -0.107397854 -0.0650892 0.1473471
0002c0 ca a1 f8 bd aa 73 f1 bd 1f b3 b4 3d 8c 35 14 bb
       -0.12140234 -0.11789639 0.08823227 -0.0022614924
0002d0 7d df eb bd 9f 9a c5 bd 19 3f 93 bd eb 40 11 bd
       -0.115172364 -0.09648632 -0.07189769 -0.0354623
0002e0 6e 06 26 3d 8e 37 94 bd e2 31 9d 3d 1a d5 27 be
       0.040533476 -0.07237159 0.0767553 -0.16389886
0002f0 14 9a 58 bd ae 00 c8 bc 22 23 17 be 4e 79 17 bd
       -0.052881315 -0.024414387 -0.14759496 -0.03698092
000300 ce fc d2 3d dc 8c 92 3d 46 78 a7 3b 21 91 ea bc
       0.10302125 0.07155773 0.0051107733 -0.028633656
000310 bd 29 6f 3d 8f 96 c1 3d c8 f0 73 3d 76 04 0f bc
       0.058389414 0.09452545 0.0595558 -0.008729091
000320 83 d6 0a 3e ae ff fe bb c7 63 d3 3d ce a3 8b 3d
       0.13558392 -0.0077819442 0.103217654 0.06818353
000330 45 48 39 3e 26 3a 28 3e 6f 14 bb 3d 54 a6 3a bc
       0.18093975 0.16428432 0.09134757 -0.011392195
000340 c6 51 33 bd 1d b6 34 3d db a3 b2 3d f4 7e 5f 3d
       -0.043779157 0.04411899 0.08722659 0.05456443
000350 7e 8d 73 3b 52 eb f4 3d 76 52 d8 3d b6 32 2e bc
       0.0037163193 0.11958946 0.10562603 -0.010632208
000360 7b 5c 50 3e 12 b4 db 3c 99 5c dc 3d 24 3f 82 3e
       0.20347778 0.026819263 0.10759849 0.25438797
000370 1f ea 2f 3e 7f 30 73 3e 3f 30 4b 3e 88 13 34 3d
       0.17179154 0.23748969 0.19842623 0.04396394
000380 26 25 94 bd 0f 92 3f 3d 6b 0e 1a 3d 07 6c cd 3c
       -0.07233648 0.04677015 0.037611406 0.025075926
000390 b0 82 1a 3e 66 6c 18 3e 74 f7 ad bb 44 9c 88 3d
       0.15088916 0.148851 -0.0053090397 0.0667043
0003a0 84 7a 11 3e d8 39 ed 3d 29 da 13 3e 1b bd 88 bd
       0.14206892 0.115832984 0.1443869 -0.06676694
0003b0 cf 3e 53 3c fa ae 1b bd 22 ba 1f 3e 60 3c d6 3c
       0.012893393 -0.038008668 0.15598348 0.026151836
0003c0 ea 89 57 3c e0 06 0d bd 9e ea a9 bd 2b 1f e9 bd
       0.01315544 -0.034430385 -0.08296703 -0.11382898
0003d0 0f 53 6e bd c8 63 89 bd 2e 77 62 bd ee 03 21 3d
       -0.05818468 -0.06708485 -0.05528944 0.03931039
0003e0 27 0d 14 3e 2b 68 01 3e 09 a7 52 bd 0e 20 83 3c
       0.14458142 0.12637393 -0.05142883 0.016006496
0003f0 af df f0 bc 3e c9 75 bd 26 d6 1d 3e 9b 69 8c 3d
       -0.029403536 -0.060006373 0.15413722 0.0685608

lstm1.weight_hh_l0 f4 [256, 64]
000000 c2 70 c2 3d 95 f8 2e 3d 00 ac 0f be 55 7c 14 bd
       0.09494163 0.042717535 -0.14030457 -0.036251385
000010 c6 3d 61 bd 2a 4d 32 3e 8f fb 1c 3e af b2 f3 bd
       -0.054990552 0.17412248 0.15330337 -0.118993156
000020 ea 0a 00 bc 76 c4 1e 3d 60 9f 23 bd 51 76 60 3e
       -0.007815102 0.03876158 -0.039946914 0.21920134
000030 eb 4f f1 bd 7e 0d 18 3c a5 2b 86 bd f3 15 48 3c
       -0.11782821 0.009280561 -0.06551293 0.012212264
000040 71 6b 10 be 72 66 fa bd 3a dc 09 3e a4 bd 06 3e
       -0.14103486 -0.12226571 0.13462916 0.1315828
000050 a0 df 39 be 50 69 7f 3d 20 12 b6 bd ef 6e 04 3c
       -0.18151712 0.062356293 -0.08890176 0.008083089
000060 0c 08 23 3c 57 61 56 3d 43 b3 c3 bd 3c c5 0d be
       0.009950649 0.052338924 -0.09555676 -0.1384477
000070 04 5b dd bc 23 37 00 be 04 a7 f3 bd 44 a5 1d bc
       -0.027020939 -0.12521033 -0.1189709 -0.009621922
000080 d2 a4 13 bd 2e c1 a1 3d 1a f9 3e be fa f1 50 be
       -0.036045857 0.07898174 -0.18649712 -0.20404807
000090 e9 b3 34 be 9a bc ba 3b 1d 3b 0c 3e 77 df 0c bd
       -0.17646755 0.0056987526 0.13694425 -0.0343928
0000a0 1e e8 70 3d 77 f7 01 be ac 59 87 3d b2 a5 1a 3e
       0.058815114 -0.12692057 0.066089004 0.1510227
0000b0 1c 25 aa 3d 89 e7 71 be c8 33 21 be 99 6c 1c be
       0.08307859 -0.2362348 -0.15742409 -0.15275802
0000c0 85 2a 39 3e 6c e1 d9 bd b8 23 b6 bc ae 1b 08 3d
       0.18082626 -0.10638699 -0.022233829 0.033229522
0000d0 bd 1d fc bd a0 9b 65 3c 52 4c 07 be 0e 31 0b be
       -0.123103596 0.014014155 -0.13212708 -0.13592932
0000e0 34 f0 c6 bd e5 67 f0 bd 68 b5 75 3e ae ba 9b bd
       -0.09713784 -0.11738566 0.23994982 -0.07603966
0000f0 b6 a5 d0 3c f3 83 70 3e 6d 37 76 bb 12 b9 88 3d
       0.025469642 0.23487835 -0.0037569657 0.06675924
000100 19 93 cc 3c 96 d4 c8 bd af 2f fd bd fe 69 b4 3d
       0.024972485 -0.098061725 -0.123626105 0.08809279
000110 97 32 08 bc 1e 4d 25 bd 33 6b 8f bd 46 72 16 be
       -0.008312843 -0.040356748 -0.070028685 -0.1469203
000120 f6 a1 db bd cc 89 1a 3e 93 69 38 3d 5d 67 f5 3d
       -0.10724251 0.15091628 0.04502256 0.119826056
000130 9e d3 df bd 66 46 e1 bd 78 3a a6 bd b8 fa aa 3c
       -0.10929035 -0.109997556 -0.08116621 0.020871505
000140 ec 5c 00 3e ba e9 88 3d ea 5a cf 3b b2 9e 18 3d
       0.12535447 0.06685205 0.0063279765 0.03726072
000150 cf 6c c7 bc 4e 46 f6 3d 6c 58 bf bd 4b 39 9e bc
       -0.024343876 0.12025128 -0.09343037 -0.019314429
000160 35 52 cc bd b0 98 2e 3d b1 41 00 3d 56 cb 56 3d
       -0.09976617 0.042626083 0.03131265 0.05244001
000170 ed 06 85 3d cf c4 6e bc 4d 94 24 3d 4d c0 0d 3e
       0.064954616 -0.01457329 0.040180493 0.13842888
000180 be 96 42 bd 7c 72 46 bd 7b 55 5b bd 36 89 d7 3d
       -0.04750704 -0.048449025 -0.053548317 0.10524218
000190 e0 5e ab 3d 9c 1a 97 3d 07 64 c8 3d 40 74 a9 bd
       0.08367705 0.07378122 0.09784704 -0.08274126
0001a0 d5 a1 03 3d 66 48 6d 3d 4c 41 cb bc 1f ed 80 bc
       0.032136757 0.057930373 -0.02481141 -0.015738068
0001b0 12 f4 35 3e 7a 95 d0 3d 4f 82 a6 3c 15 41 ec ba
       0.17768887 0.101847604 0.020325808 -0.0018024767
0001c0 24 34 dd 3d 4b f2 8f 3d 2f d7 cf 3b 02 60 bb 3d
       0.10800961 0.070286356 0.0063427906 0.091491714
0001d0 3e 2f 88 3d 27 d2 a1 bd c3 6c 92 3d d7 3d 28 bd
       0.06649636 -0.079014115 0.07149651 -0.0410746
0001e0 e8 95 69 bd 79 d4 57 3b 2f 34 f5 bc 54 4b 39 3d
       -0.057027727 0.003293304 -0.02993211 0.045237854
0001f0 7c 68 af bd 23 b1 80 3d ae bc 79 bd ca 9c b0 3d
       -0.08564851 0.06283786 -0.060970955 0.08623655
000200 27 b4 a2 3d b5 c7 0f 3e 69 1c f3 3d 66 4d 74 3e
       0.079445176 0.14041026 0.11870653 0.2385765
000210 21 05 c7 bd e6 0c 57 bc cd ce ad 3d a0 80 1e bc
       -0.09717775 -0.013125634 0.0848671 -0.009674221
000220 4b ec 3d bd 62 a1 f2 3d 1f c7 4a 3e 4d fa d0 bd
       -0.046367925 0.118471876 0.19802521 -0.10203991
000230 33 50 25 3e 74 1f 34 3e a2 f2 25 3e f3 47 f6 3d
       0.16143875 0.17590123 0.16205838 0.12025442
000240 6f 8e 99 bd c6 fe 88 be 3f d9 8e bd 93 c2 96 bc
       -0.0749787 -0.26756877 -0.0697503 -0.018403327
000250 f4 96 fa bb 98 62 99 3d 93 bf 20 be 91 ce 97 bc
       -0.0076473895 0.074895084 -0.1569808 -0.018531116
000260 a7 2c 13 be 67 91 3b 3e 79 09 33 3e a2 20 14 be
       -0.14372502 0.18317185 0.17484082 -0.14465573
000270 0b b2 18 be cd 62 8f be 69 07 3f be 80 39 50 3e
       -0.14911668 -0.28005067 -0.1865517 0.20334435
000280 62 e1 e5 bd f4 d6 d6 3d a3 e4 23 ba 09 df b2 bd
       -0.11224629 0.10490218 -0.0006252026 -0.08733947
000290 43 8b 21 be 0a 97 f2 bc 51 c8 c5 bd 32 5c 83 3d
       -0.1577578 -0.029613037 -0.09657348 0.06414069
0002a0 aa b6 fc bd 83 29 04 3e c1 ab 47 bd 5e f0 7f 3d
       -0.12339528 0.1290646 -0.04874778 0.06248509
0002b0 04 5b 07 3e fa 2a 94 bc 11 a8 28 be fb 24 ed 3c
       0.13218313 -0.0180869 -0.16470362 0.028948298
0002c0 76 ea 1e 3e 2a 5c 7f 3e 3f f7 14 be 66 12 74 3b
       0.15519127 0.24937502 -0.14547442 0.0037242412
0002d0 6a 0f 50 bd 0e 35 e7 bd d2 94 6c be 9e 58 1b 3e
       -0.05079595 -0.11289416 -0.23103645 0.15170524
0002e0 a3 a8 b8 bc 8b b6 1d be e5 c2 f0 3d 51 8a 14 be
       -0.02254135 -0.15401666 0.11755923 -0.14505889
0002f0 71 8a 3f be 8b ee d5 3d 32 6e e6 bc d1 06 ac b9
       -0.18705155 0.10445889 -0.028128717 -0.00032811475
000300 39 9d 55 bd 4f 5b 1b bc f0 b4 ea bd a7 96 db 3d
       -0.052151892 -0.009482219 -0.11460292 0.10722094
000310 3e 52 a7 bd ee 45 ff 3d 44 b2 c4 bc 34 47 07 3e
       -0.08169983 0.1246451 -0.024010785 0.13210756
000320 be 69 cb 3d 00 08 e9 bd 4c a7 7b 3d 2e f8 1d 3b
       0.09932278 -0.11378479 0.061438844 0.0024104225
000330 5c 5c c8 bd 4e 26 18 3e 73 3b ca bd 63 7a 01 3d
       -0.09783241 0.14858362 -0.0987462 0.031610858
000340 93 00 c9 3d 45 92 bd 3b 60 9b 0a be 37 43 15 3d
       0.09814563 0.005785259 -0.13535833 0.036441054
000350 ac 5a 75 3c 6a 32 c1 3d b5 36 6d bd 97 af 5b 3d
       0.014975231 0.09433444 -0.0579135 0.053634252
000360 0e 37 10 be f5 51 58 bd 13 33 a1 3d c7 75 ed bb
       -0.14083502 -0.052812535 0.0787107 -0.007246706
000370 04 30 a9 bd 88 57 06 bd 2b 38 0b 3e 80 0b 91 bd
       -0.082611114 -0.03279832 0.13595645 -0.070822716
000380 70 cc b3 3d 2d 18 85 3d c9 6b 4d bb ca db 8b bd
       0.08779228 0.06498752 -0.0031344763 -0.06829031
000390 c5 96 c2 b9 63 57 9d bc ce d3 a9 3c 47 a1 02 3d
       -0.00037114896 -0.019206708 0.02073088 0.031892087
0003a0 2e 43 bc 3d 26 89 19 3e 35 57 c9 3d 54 01 91 bc
       0.09192501 0.14993724 0.098310865 -0.017700829
0003b0 d0 70 ff bc 55 36 bd 3d ed 41 89 3d 0e bb cc 3d
       -0.031181723 0.09238879 0.067020275 0.09996615
0003c0 5c 3b 18 3d d3 e9 b8 3d 87 4c e6 bd 14 fd 01 bd
       0.037165985 0.090289734 -0.11245065 -0.031735495
0003d0 e7 f0 50 bd 86 6c f1 bb 69 a4 13 bd 07 ee 4f 3b
       -0.051010992 -0.0073676733 -0.036045466 0.0031727569
0003e0 be fa df 3b 1b d7 0e be 10 31 8a bc 72 67 16 3d
       0.0068353107 -0.13949244 -0.016869098 0.036719747
0003f0 37 8b 3a bd fe 09 b9 3c 73 50 aa 3d 0f ed 58 3e
       -0.045542922 0.022587772 0.08316126 0.2118418

lstm1.bias_ih_l0 f4 [256]
000000 c1 e1 b1 bd 9d dd 22 3d 81 85 14 3e 26 91 d7 bc
       -0.08685637 0.03976213 0.14504053 -0.02631433
000010 1f 67 3d bd 26 0d 3c 3e 4f bb 0e 3e 4e db c5 bd
       -0.046240922 0.1836439 0.1393864 -0.0966097
000020 fb 7e a4 bd f9 89 0d bd 99 05 cd 3c ab e2 6d 3e
       -0.08032032 -0.03455541 0.025027083 0.23230998
000030 f1 a6 07 be 4f 19 b2 3d 10 d2 61 3c 76 e0 45 3d
       -0.13247277 0.086962335 0.013782993 0.048309766
000040 74 a2 96 bc 48 d3 b9 bd 38 d4 a7 3d d0 eb af bc
       -0.01838801 -0.09073502 0.081947744 -0.021474749
000050 3e 2a 09 3e e4 81 39 3d 42 da f1 3d 94 b2 a9 3d
       0.1339502 0.04528989 0.118092075 0.08286014
000060 43 06 86 bd 60 e9 3a 3d c7 bd eb 3d 3e 20 da 3d
       -0.06544163 0.04563272 0.115108065 0.10650681
000070 a4 26 22 bd c3 ed ea 3d 61 50 2e 3d c8 69 62 3e
       -0.03958763 0.11471131 0.042557124 0.22110665
000080 07 52 32 3e 5b a1 ba 3b b6 09 39 bd a1 08 f6 3c
       0.17414103 0.0056955046 -0.045175277 0.030033411
000090 6c 7f 51 be d3 0e e7 3d 20 3d 1f 3d 12 31 37 3e
       -0.20458764 0.11282124 0.038876653 0.17889813
0000a0 83 74 42 3e 76 88 9a bb 66 be 24 3d 10 69 46 be
       0.18989758 -0.0047159744 0.04022064 -0.19376016
0000b0 ab f2 9c 3a b9 1f 0a 3e 79 ed 6a 3e 0f 9c da 3d
       0.0011974176 0.13488664 0.22942151 0.10674297
0000c0 bc 6e 6d bc d6 01 ed 3d 9b de d7 bd 3d 6b 3e 3e
       -0.014491733 0.11572616 -0.105405055 0.18595596
0000d0 04 d9 10 be 38 9a 1f bc d8 c7 ff 3d f1 ec 1f 3d
       -0.14145285 -0.009741358 0.12489289 0.039044324
0000e0 5a ce ba bb e0 7b 07 3d 6a 3f 37 3d df f3 57 3d
       -0.0057008686 0.03307712 0.04473821 0.052722808
0000f0 d6 18 86 3d f5 f5 43 3e ee ee 0d bd 3f 6d 4a 3e
       0.06547706 0.19136794 -0.03465169 0.19768237
000100 00 42 d8 3d 23 21 e7 3c c9 f2 33 3c 3b a7 ac bd
       0.105594635 0.028214043 0.010983177 -0.08430334
000110 26 f6 07 3e 1a 28 20 3c c9 cc d2 bd c3 15 f1 bd
       0.13277492 0.009775186 -0.10292966 -0.11771729
000120 53 13 89 3d 69 41 07 3d 25 9d eb 3d 61 f2 a1 bd
       0.06693139 0.033021364 0.11504582 -0.07907558
000130 75 6e d9 bd 4a 7f 06 3d 77 20 37 bd 91 2b 0f 3d
       -0.10616771 0.032836236 -0.044708695 0.034953658
000140 78 a3 71 3d 07 fd 30 bd 2f 53 da bb 5e d3 9d 3d
       0.058993787 -0.043210056 -0.0066627483 0.07706331
000150 e4 de cb bd 04 14 c2 bd 9c 41 a8 3d 9a 2c 60 3d
       -0.099546224 -0.09476474 0.08215639 0.054730035
000160 80 a4 e4 3d 9c 6b 97 bd 96 0f 23 be c2 d7 f9 3d
       0.111641884 -0.07393572 -0.15923914 0.12199356
000170 ff d3 e7 3c fa 52 e9 bd 06 b4 5c 3c a6 e9 05 be
       0.02829933 -0.1139278 0.013470655 -0.13077411
000180 ec 68 c9 bb 4e b0 c9 3d 22 7a 8d 3d 18 4a e6 3d
       -0.006146541 0.098480806 0.069080606 0.11244601
000190 aa b6 39 be 74 fb 1f 3d 70 6a c5 bd d2 76 67 bb
       -0.18136087 0.039058164 -0.09639442 -0.0035318625
0001a0 18 4a a5 bc f4 54 83 3d d0 58 d6 3c c6 55 28 be
       -0.020176932 0.06412688 0.026165396 -0.1643897
0001b0 ea ba c3 3d 2e 8d 0f be 27 c8 a5 3d 8a a2 9f bd
       0.095571354 -0.140187 0.08094817 -0.07794674
0001c0 8c 0f f3 ba 9c 60 eb bd ba 6e 6c 3d bf a7 06 3d
       -0.0018544062 -0.11493036 0.057722785 0.03287482
0001d0 ea f9 8e 3c 6b fa 8e bd 10 23 5f bd 96 88 38 3d
       0.017453153 -0.06981357 -0.054476798 0.045052134
0001e0 3c 51 d4 bc 96 92 7f 3c 52 2e 9c bd 60 60 67 bc
       -0.025917642 0.015598914 -0.076260224 -0.014122099
0001f0 4f 3c f2 bc 07 fb 34 bd 80 a6 2f bd 85 67 00 3d
       -0.029569773 -0.04418471 -0.042883396 0.031348724
000200 37 d0 90 bb 98 1b f1 bc 48 89 be bd 64 c4 37 3d
       -0.0044193524 -0.029432103 -0.09303528 0.044865027
000210 4f de 04 be 7d 5c 40 3d 08 a5 6f 3d 1f 22 79 bd
       -0.12975429 0.046963204 0.058506995 -0.060823556
000220 c0 ee c4 bd 12 9d d9 3d ec 62 05 be d4 45 ab bc
       -0.096158504 0.10625662 -0.13026017 -0.02090732
000230 6b 3c af 3a b5 09 95 bd ec 11 df 3d 57 42 8d 3d
       0.0013369446 -0.07277242 0.1089209 0.06897419
000240 21 3f 72 bd ea 83 0b 3d 0f 61 01 3c cc ea a7 3d
       -0.059142236 0.03406135 0.007896676 0.08199081
000250 88 2d 5e bd 33 1d a1 3c 35 a1 c8 bd 32 b4 50 3d
       -0.05424264 0.019667244 -0.09796373 0.050953098
000260 27 b4 84 3d ab 86 14 bc 51 6f 63 bd f2 f1 01 3e
       0.06479674 -0.0090653105 -0.05552608 0.12689951
000270 01 6c 02 3c f6 41 42 bb d5 86 ee 3d 49 09 74 3c
       0.00796032 -0.0029641367 0.11646811 0.014894792
000280 b9 cc 98 3d ac 2f d3 bd 77 53 de bc 98 87 10 3e
       0.07460923 -0.10311827 -0.027139409 0.14114225
000290 a2 49 8d bc d4 3b d3 3b 30 49 d8 bd 10 6f 0f be
       -0.017247025 0.006446341 -0.105608344 -0.1400721
0002a0 80 ba 94 3d f0 62 49 bd 3a 2a 5d 3d 49 ff a1 3c
       0.072621346 -0.04916662 0.05399535 0.01977505
0002b0 f4 fd 05 3e 0a 2a 82 bd 4d 62 80 bb ed 8a c3 3d
       0.13085157 -0.063556746 -0.0039179684 0.09547982
0002c0 45 7a f5 3c 27 c1 c9 bc 9c c4 81 bd 49 95 22 bd
       0.02996553 -0.024628235 -0.063363284 -0.03969315
0002d0 e2 36 d6 3d f0 5f 8f bc eb 2a 32 be c5 5b 31 3d
       0.10459687 -0.017501801 -0.17399184 0.04330041
0002e0 72 8c 91 3d c2 a6 1d be 85 fc 00 3e d2 99 7b 3d
       0.07106866 -0.15395644 0.12596329 0.06142599
0002f0 b1 76 0a bd 3c 74 0f be a9 12 ef bd 14 70 f0 bc
       -0.0338046 -0.14009184 -0.11673481 -0.029350318
000300 7b be 63 3d f9 7c a3 bd 31 99 c6 3d cf 45 75 3d
       0.05560158 -0.07982821 0.09697188 0.059881028
000310 70 ba 94 bd aa 87 5d 3e 94 38 dd 3d ff a6 c5 bd
       -0.07262123 0.21633783 0.10801807 -0.096509926
000320 5c 2b 30 be 68 6a c8 bc 61 2c ea 3c fc 29 6f 3e
       -0.1720404 -0.024464801 0.028585615 0.2335586
000330 60 5b 8d bd 8e e8 e3 3d 80 70 54 3d 7b 65 d2 3c
       -0.06902194 0.11128341 0.0518651 0.025683155
000340 22 de 01 3e 97 5b 3d 3e de 7b d1 bd 3c c0 be bd
       0.12682393 0.1849197 -0.10228704 -0.093140095
000350 9c c4 d8 3d ef fe a6 bc ea f1 0f 3d 54 6b 19 3e
       0.10584375 -0.020385234 0.035142817 0.14982349
000360 18 de b8 bb 9e 40 48 3e a4 79 e1 bd d4 7e 1c 3e
       -0.00564171 0.195559 -0.11009529 0.15282756
000370 0a 2f 02 bd 94 56 f5 bb 2c 99 2b 3c 19 9c ea 3d
       -0.03178314 -0.0074871276 0.010473531 0.114555545
000380 cf dd 9d 3e bc ab ea 3d b6 f2 12 3e 51 8d aa 3c
       0.3083329 0.11458537 0.143504 0.020819338
000390 be 9d 93 bb 25 2a 60 bd ab 53 61 3d 43 18 50 3e
       -0.0045048883 -0.054727692 0.055011433 0.20321755
0003a0 aa a7 38 3e a1 52 ff bc fd 58 f7 3c aa e9 17 be
       0.18032709 -0.03116733 0.0301938 -0.1483523
0003b0 ff c1 46 3d 2e 4e 59 3c a3 5e 9b 3d 84 b7 85 bd
       0.048524853 0.013263268 0.0758641 -0.065291435
0003c0 10 7d 1a 3e 8c 4c 2f bd 44 90 14 3e 8d bc 1c 3e
       0.1508677 -0.04279761 0.14508158 0.15306301
0003d0 70 bf c1 3a 83 14 9c 3d ea ca c7 3d 08 9c 99 3d
       0.0014781784 0.076211 0.097555 0.07500464
0003e0 e9 21 f4 3d b1 07 c5 bd 34 bf 64 3e 8b ef b1 3d
       0.1192053 -0.09620608 0.22338563 0.08688267
0003f0 24 48 ad bd 6d fa 2f 3d ca 83 f5 3d 47 75 02 3e
       -0.08461025 0.042963434 0.119880274 0.1274005

lstm1.bias_hh_l0 f4 [256]
000000 ba a6 b7 bd 17 ed e6 bc 32 53 05 3e 6d 07 10 3d
       -0.089673474 -0.028189225 0.13020018 0.03516333
000010 01 65 4c 3d 46 1f 66 3d 9c 82 55 3e 46 91 89 bd
       0.049901012 0.05618217 0.20850605 -0.06717162
000020 61 f1 61 bc 93 ac bc 3b 54 f4 57 3c c5 dd 4b 3d
       -0.013790459 0.005757877 0.013180811 0.049772043
000030 12 dc 12 be b1 40 cf 3d 9f fe f8 bc 6c 9a 35 3d
       -0.14341763 0.10119761 -0.03039485 0.04433672
000040 65 06 de 3d 71 a9 04 3e 3b 5d 65 bc b5 88 04 3e
       0.108410634 0.12955262 -0.013999279 0.12942775
000050 97 a6 4e bb 9e 9b 55 3d f3 c9 65 3e 47 72 9a 3d
       -0.00315324 0.05215036 0.22440319 0.07541328
000060 4a d3 82 3d d8 80 63 bc e3 32 84 3d f9 1d f3 3c
       0.063879564 -0.013885699 0.06455018 0.029677378
000070 55 ae 5f bd d5 89 fb bb 84 a2 09 bc b6 48 9c 3d
       -0.054609615 -0.007676343 -0.008400563 0.07631056
000080 06 81 b8 3e e3 92 ce 3d 00 a8 f0 3c fe 23 4c 3d
       0.36035937 0.1008661 0.029376984 0.049839012
000090 ac a5 f5 bd 62 1a dd bd f4 a0 15 3e 4d c8 51 3e
       -0.1199449 -0.10796048 0.1461218 0.20486565
0000a0 23 49 15 3e f1 03 af 3d 90 61 06 3d 87 c4 22 be
       0.1457868 0.08545674 0.032807887 -0.15895282
0000b0 98 ec 28 3d 1f db c7 3c 1f 94 c2 3c 2a 05 e0 bd
       0.04124126 0.024396477 0.02375227 -0.10938485
0000c0 ea df 63 3b a3 84 f3 3c bf 94 e6 3d 0a c4 2f 3e
       0.0034770914 0.029726332 0.1125884 0.17164627
0000d0 b8 bf 18 bd fd ac dd 3c 74 e7 a7 bd 53 d6 06 3e
       -0.037292212 0.027060026 -0.08198443 0.13167696
0000e0 1c a4 62 bd 2c 28 fb 3d 1b f1 b3 3d 6b c5 82 3d
       -0.05533229 0.122635216 0.087862216 0.06385311
0000f0 78 c0 ea bd bc b0 33 3d 62 28 de bc 8e 55 1b 3d
       -0.11462492 0.04386972 -0.027118865 0.03792339
000100 e0 df ff 3c 94 c6 a5 3d 62 0c 16 3d c6 fc 11 bb
       0.031234682 0.080945164 0.036632903 -0.002227591
000110 44 e5 05 bb 70 12 b3 bd e7 00 16 bd cf bc cc 3b
       -0.0020430842 -0.08743751 -0.036621954 0.0062480937
000120 71 ef 94 3d df 46 77 3c 43 ab e9 3d 2f 42 a5 3d
       0.07272232 0.015092581 0.11409619 0.08069264
000130 88 9e cc 3b 33 97 cd bd a2 82 e6 3d 6f a5 34 3d
       0.0062444843 -0.100386046 0.11255385 0.044103082
000140 a5 a0 f9 bd 18 55 0a 3e dc 6f 6d bd be a8 eb bd
       -0.12188844 0.13509023 -0.057968006 -0.115067944
000150 92 4b b5 3d 7e 3d b9 3d ef c5 8f bd dd 81 1c bd
       0.088523045 0.09044932 -0.07020175 -0.038209785
000160 4c 12 ac bd 06 6e 0a be ed 47 d7 bb 68 45 03 3e
       -0.08401927 -0.13518533 -0.0065698535 0.12819445
000170 5a 1f 68 bd a4 1f e1 3d bf 9a 3a 3d 26 49 4f bd
       -0.056670524 0.10992363 0.045557734 -0.05060687
000180 4d 5e 23 bc 75 55 21 bd f8 6d 90 3d fd d0 ab 3d
       -0.0099712135 -0.03938814 0.07052225 0.08389471
000190 dd d0 30 be ab 29 e1 bc d6 2f e0 bd a4 28 65 3b
       -0.17267175 -0.02748569 -0.10946624 0.003496685
0001a0 ca f2 9b bd a6 50 8b bd 80 fe 82 bd c7 76 b3 bd
       -0.07614668 -0.06802492 -0.06396198 -0.08762889
0001b0 ce 62 f8 3d 14 8b e4 bd fb 4d 43 3d ff 24 f3 bd
       0.121282205 -0.111593395 0.04768179 -0.11872291
0001c0 95 c8 16 bd 45 37 73 bc bb 31 02 3d ba 10 bd 3d
       -0.036812384 -0.01484472 0.031785708 0.09231706
0001d0 4f 02 70 bd 0c 4c 4a 3d d4 d1 bb bd e6 cf 8c 3c
       -0.05859595 0.04938893 -0.09170881 0.017188977
0001e0 09 f9 0f be 73 a0 2d 3d 07 54 95 bd 2a 97 cc bb
       -0.14059843 0.042389344 -0.072914176 -0.006243606
0001f0 da 79 26 3b b3 34 28 3d ce eb 77 3d 58 e8 7d 3c
       0.002540222 0.041065883 0.060527615 0.01549729
000200 59 8f 1d be 24 04 6d bd 54 ce 0a bb 4a 47 c6 bd
       -0.15386714 -0.057865277 -0.002118011 -0.09681566
000210 de b4 4d bd 6e 3c a9 bd 1d 33 68 3d e4 17 8c bc
       -0.050221317 -0.08263479 0.05668937 -0.017101236
000220 79 1f 9e bd 18 1b 8d bd 49 6f 3b bb 1e 35 49 3d
       -0.07720847 -0.06889933 -0.0028600267 0.049122922
000230 41 b5 a8 bd 72 f4 e4 bb 88 b8 12 3e c2 e5 4e bb
       -0.082376964 -0.006987148 0.14328206 -0.0031570052
000240 28 c5 b7 bd f5 ec 8f bd 8c 31 72 bd 30 95 e7 bd
       -0.089731514 -0.07027618 -0.059129283 -0.11307752
000250 2b 42 dd 3c 43 cb 46 3c 5a 50 01 3e 34 73 1c 3e
       0.02700909 0.012133422 0.12628308 0.15278322
000260 ca 08 92 bc 43 5c 82 3d ce 82 32 3d 59 56 a2 bd
       -0.017826457 0.06365254 0.043581776 -0.07926626
000270 11 46 0a be 0f 52 4c 3d 97 74 e1 bd 74 41 b4 bc
       -0.1350329 0.049882945 -0.11008566 -0.022003867
000280 1c 9d b3 3d 00 d5 80 3c a5 df 66 bc f3 48 df bc
       0.087702006 0.015726566 -0.014091407 -0.027256465
000290 c7 36 43 bd 46 3c 95 bc 28 a4 b8 3d 27 e5 41 3c
       -0.04765966 -0.018217217 0.09015685 0.011834419
0002a0 c7 8d 76 3d 6b 74 12 be ef 66 18 3d e9 63 93 3d
       0.060193803 -0.14302222 0.03720754 0.07196791
0002b0 fd 7c 3f 3c c4 0e 00 bd b7 0e 7e 3d 9d 72 56 bc
       0.011687514 -0.03126408 0.062025752 -0.013088849
0002c0 bb 8c b3 bc 8f eb 32 3d c8 d2 e2 bd 3f 68 a3 3d
       -0.021917691 0.043681677 -0.110753596 0.07978868
0002d0 11 f1 51 bd df d4 99 bd c1 6e d4 bd f6 a8 ff 3d
       -0.05125529 -0.07511305 -0.10372687 0.124833986
0002e0 4a fe 36 bd ad 7c e3 bd ca f2 85 3d 2d 5f a7 bd
       -0.044676103 -0.111077644 0.06540449 -0.0817245
0002f0 82 41 42 bd 7b 3c b3 bd d9 57 f9 3c ec 4b ec bd
       -0.047425754 -0.0875177 0.030437397 -0.115379184
000300 aa e8 14 3e 18 2d c4 3d ee cc 42 3e 0d 2c e0 bd
       0.1454188 0.095789135 0.19023487 -0.10945902
000310 ad a3 2c 3d dc a3 88 3c dc d7 1c 3e 27 eb 97 3d
       0.04214828 0.016679697 0.15316719 0.074178986
000320 05 ad 0e be 9e 62 d3 ba c7 6f ce 3c 45 68 3a 3d
       -0.13933189 -0.0016127413 0.025199784 0.045509595
000330 3c 2c 05 be e6 95 11 3e 01 c2 81 3d ff 60 18 bd
       -0.13005155 0.14217338 0.063358314 -0.037201878
000340 60 09 72 3d 02 42 73 3d fb fa b3 3c 05 7f 21 b9
       0.059090972 0.05938912 0.021970263 -0.00015401475
000350 50 56 4f 3e 1b 6e 8f 3d 8d 00 7e 3e 66 27 9b 3d
       0.2024777 0.07003423 0.24804898 0.07575874
000360 86 d8 9c bd aa 06 41 3b 75 22 5f 3c 58 fc 03 3d
       -0.07658486 0.0029453435 0.013619055 0.032223076
000370 55 eb 14 3d b2 79 cb 3d 04 76 6c 3d 9e 4f db 3d
       0.036357243 0.09935321 0.057729736 0.10708545
000380 72 b3 6c 3e 59 a1 12 3e ba d7 1e 3e 51 67 73 3d
       0.23115328 0.14319362 0.1551198 0.059424702
000390 e8 62 48 be 63 cb e1 bd 8b b4 aa 3d 38 40 7d 3e
       -0.1956898 -0.11025121 0.08335217 0.24731529
0003a0 34 31 40 3e 2c 58 cb 3d c3 38 78 3a 39 f7 94 bd
       0.1876877 0.09928927 0.00094689074 -0.072737165
0003b0 2e a8 8d bd d1 36 8a bc c1 4c 34 3e 78 d6 94 bd
       -0.06916843 -0.016871842 0.17607404 -0.07267469
0003c0 5e 64 27 3e 66 50 49 bd 1b f4 01 3e bf 26 7f 3d
       0.16346881 -0.04914894 0.12690775 0.06229281
0003d0 32 c7 ee bd 2a dd 00 bd 62 5d b5 3d 78 c4 03 3e
       -0.11659087 -0.03146092 0.08855702 0.12867916
0003e0 0c e4 22 3d 09 07 37 3d ea 0d 2e 3d 2b 37 5a bd
       0.039768264 0.044684444 0.04249374 -0.05327527
0003f0 ec ed 90 bd 1a 79 ca 3b 86 e9 fb 3c 24 ed 20 3c
       -0.0707663 0.006178987 0.030751001 0.009822164

conv.0.weight f4 [16, 1, 3, 3]
000000 05 90 ce be 14 73 32 bf ff 45 ea be 76 3f 1c bf
       -0.40344253 -0.69706845 -0.45756528 -0.61034334
000010 9e 5c 6a 3e 10 95 df be 53 6e 81 bd 17 d3 fd 3d
       0.22886893 -0.43668413 -0.06319871 0.12393778
000020 a2 78 fd 3d ba 37 87 bd 7f 70 fc 3e c9 f1 8b bf
       0.123765245 -0.06602426 0.49304578 -1.0933162
000030 d0 cd 26 3e a4 cf 9c be 9f 14 c2 3e ae 8b 21 be
       0.16289449 -0.30627167 0.37906358 -0.1577594
000040 74 cc e6 be 8c 55 a5 3e 03 33 9a be 54 e0 6b 3e
       -0.4507786 0.3229183 -0.30117044 0.23034793
000050 c0 4f 7e 3f e3 fb 6a 3e b1 26 6b 3d b1 b8 f4 be
       0.9934044 0.2294765 0.057409946 -0.47797158
000060 9d e2 8c be 4f 46 03 be 18 d7 1f 3e c9 30 db 3e
       -0.27516642 -0.1281979 0.15609396 0.42810658
000070 92 38 30 be 74 db e9 3e da 98 45 bf e9 c3 52 bf
       -0.1720908 0.45675242 -0.7718636 -0.82330185
000080 f1 d4 81 be 6b db 36 be 3d bd 9b 3f 84 1a 29 3e
       -0.25357774 -0.17857139 1.2167126 0.16514021
000090 20 aa 88 be 10 49 91 bf a4 ed a3 be 91 32 14 3d
       -0.26692295 -1.1350422 -0.32017243 0.036181036
0000a0 bd 7f 84 be 5d 94 6e 3f 99 d0 1a bf 17 c3 11 3e
       -0.25878707 0.93195134 -0.60474545 0.14234577
0000b0 17 87 85 bd 80 1f 22 3f 86 c6 9d bd 47 d2 14 3e
       -0.06519907 0.63329315 -0.07703881 0.1453334
0000c0 08 71 b3 bd 99 01 27 3f 98 f5 bd 3f d4 5d 83 3d
       -0.087617934 0.6523681 1.4840574 0.06414381
0000d0 e3 c6 d2 be 2b be 26 bd 83 26 9f 3e 91 de 1a 3d
       -0.41167364 -0.040708702 0.3108407 0.037809912
0000e0 6f cd ec 3d 4d 90 3e bf 93 f2 55 3f 38 1c 99 3f
       0.11562621 -0.74438936 0.83573264 1.1961737
0000f0 23 dd 97 3e 5b 7b 26 be 88 aa ea be 67 a2 2e 3e
       0.296609 -0.16257994 -0.4583323 0.17054139
000100 6c 4d 31 3d d3 01 98 be 0c 2e 18 bf 86 e2 f0 be
       0.043286726 -0.29688892 -0.5944526 -0.47047824
000110 55 1a 27 bf db 7c 82 bf 35 be 0f 3f 21 f3 9f bd
       -0.65274554 -1.0194353 0.5614961 -0.07810045
000120 a3 5e c1 bd bb 2a 16 bf a2 64 23 be df 78 ac 3d
       -0.09441879 -0.5865895 -0.15956357 0.08421492
000130 5f 57 24 3f 42 52 1c bf 18 72 04 3f 66 7e 75 3b
       0.6419582 -0.61063015 0.51736593 0.0037459373
000140 b2 76 a9 3f d9 96 76 3e fd 86 d3 be 25 7c 05 3f
       1.3239348 0.24080981 -0.41313925 0.52142555
000150 73 7f c7 be d3 8a 97 be e1 66 8d bc 42 62 a1 3e
       -0.38964424 -0.29598102 -0.01726097 0.31520277
000160 57 51 18 3f 25 47 03 bf 00 14 2d 3e aa 6d 16 bd
       0.59499115 -0.5128043 0.1690216 -0.036725678
000170 09 16 b9 be 90 93 9b 3f 00 b7 c9 3e 1d d6 0f 3d
       -0.36149624 1.2154408 0.3939743 0.035116304
000180 8b 6f 8b be 29 c4 3f bd 5a 4a 62 3e 21 f3 98 3e
       -0.27233538 -0.046817932 0.22098675 0.29872993
000190 76 2c 79 3d e6 a0 41 be ce e2 f7 be 8e 69 46 bf
       0.060833417 -0.18909034 -0.48415226 -0.77504814
0001a0 b4 2e cc be 5a 96 44 be b6 da 16 be 4a f9 a5 3e
       -0.39879382 -0.1919798 -0.14731869 0.32416755
0001b0 8a 30 4f bf 42 e6 5d bd 3f 84 a2 3e 2b c2 cb 3e
       -0.8093344 -0.05417467 0.3174152 0.39796576
0001c0 97 e1 68 be b0 81 e8 3f 3e 64 26 3f f7 57 11 bc
       -0.22742306 1.8164577 0.6499671 -0.00887107
0001d0 af 7e 4d 3f de 36 01 bf f6 9f 1a be d1 86 ae 3d
       0.8027143 -0.50474346 -0.15100083 0.08521808
0001e0 31 28 89 bd 46 d1 25 bf 19 41 93 3e 69 d5 82 be
       -0.06697119 -0.6477245 0.28760603 -0.25553444
0001f0 eb 72 83 bd 06 37 16 3f 20 19 03 be 71 eb bc 3e
       -0.06418403 0.5867771 -0.12802553 0.36898378
000200 41 9d 8c be 92 1c ad be 8d 60 3a 3e 00 0a 38 3e
       -0.27463725 -0.3381086 0.18200894 0.17972565
000210 4b bf eb 3e 6d 35 6d bd 4f 8d 98 3e 8c b8 93 3e
       0.46044382 -0.05791228 0.2979531 0.28851736
000220 9c 01 0a 3f 43 da 53 3e 0c 3c da 3e 5b 85 b7 bd
       0.53908706 0.20688729 0.42623937 -0.089609824
000230 2b dd 14 bf 72 ab a8 be 3f 93 31 be 1b 21 17 bf
       -0.58149976 -0.32943302 -0.17341326 -0.5903489

conv.0.bias f4 [16]
000000 00 00 00 00 00 00 00 00 00 00 00 00 00 00 00 00
       0.0 0.0 0.0 0.0
000010 00 00 00 00 00 00 00 00 3d f2 fe 0a 82 b2 ef 09
       0.0 0.0 2.455043e-32 5.7705025e-33
000020 98 37 16 15 5d df a6 9a 42 9d 71 20 f0 5e 43 23
       3.0336114e-26 -6.9016854e-23 2.0465526e-19 1.0591075e-17
000030 7e 5a b2 2a b2 a8 cd b3 51 d6 5f bb bd 55 1c bb
       3.1681943e-13 -9.576742e-08 -0.0034154842 -0.0023854815

conv.2.weight f4 [16]
000000 00 00 80 3f 00 00 80 3f 00 00 80 3f 00 00 80 3f
       1.0 1.0 1.0 1.0
000010 00 00 80 3f 00 00 80 3f 00 00 80 3f 00 00 80 3f
       1.0 1.0 1.0 1.0
000020 00 00 80 3f 00 00 80 3f 00 00 80 3f 00 00 80 3f
       1.0 1.0 1.0 1.0
000030 00 00 80 3f 00 00 80 3f 03 d1 82 3f f4 9b 8f 3f
       1.0 1.0 1.0220035 1.1219468

conv.2.bias f4 [16]
000000 00 00 00 00 00 00 00 00 00 00 00 00 00 00 00 00
       0.0 0.0 0.0 0.0
000010 00 00 00 00 00 00 00 00 0b f1 7b 0b 41 cb 22 0d
       0.0 0.0 4.8522182e-32 5.016476e-31
000020 61 90 67 15 a7 19 7f 99 d4 95 50 a1 4a e5 39 a2
       4.6763973e-26 -1.31883715e-23 -7.0671437e-19 -2.519356e-18
000030 53 41 ee 2a 29 7a 35 b3 3f c7 ba bc 88 48 fe 3c
       4.232262e-13 -4.225345e-08 -0.022800086 0.031040445

conv.2.running_mean f4 [16]
000000 1a 58 57 3f d8 9d 99 3e 94 49 96 3e 5e 4d 28 3f
       0.8411881 0.30003238 0.2935301 0.6574305
000010 9d fa 38 3f a6 6c 3e 3f 11 9b f2 3e cd b4 79 3f
       0.72257406 0.74384534 0.4738393 0.97541505
000020 65 de 26 3f cc fc 7d 3e ec 5a 10 3f 9f cc 40 3f
       0.651831 0.24803466 0.56388736 0.75312227
000030 c3 b2 75 3f 23 d4 af 3e 78 d3 49 3e 1a be 10 3f
       0.95975894 0.34341535 0.19709575 0.5654007

conv.2.running_var f4 [16]
000000 95 45 80 40 f2 35 06 3f 2e a7 85 3f 79 f0 55 40
       4.008494 0.52426064 1.0441644 3.3428023
000010 22 ef 53 40 2b eb b6 40 6f 1e 0f 40 6e 14 98 40
       3.3114705 5.716207 2.2362325 4.752494
000020 18 44 87 40 cf ff ff 3e 0a 5e 76 40 5e f2 54 40
       4.227062 0.49999854 3.8494897 3.327293
000030 b0 2e 2a 41 c0 24 2d 3f 08 1c fd 3e 91 8b 2d 40
       10.636398 0.676342 0.4943545 2.7116435
