model/model.pt (torch, 206037 bytes, 51 tensors)

conv1.weight f4 [32, 1, 3, 3]
00000000: 728b 6bbf e998 a9be f1fd 033f 084a 613f
00000010: 0438 3ebf b969 cabe d5bb fb3e e77b 103d
00000020: f48a 12bf b670 8cbd 0743 32bf eca2 87bd
00000030: 160a c1be 474e 26be e5ea b93c fbbe 483d
00000040: 1905 fdbd 9a23 0f3f 74ce d9be d975 f4be
00000050: 887e eb3c ae26 813d 459f 2ebf 9eca 40be
00000060: 8f27 aabe 1cbb a93e f578 e6bd 1ace 973f
00000070: 5367 d5be 1c1c a7bd 11a6 013f 78ab 7e3e
00000080: 0441 67be 5267 3cbe 6936 3cbf f50e ccbd
00000090: 7ef4 bfbe 680b 87bb c54a ae3e 45a6 c0be
000000a0: 09ad 2d3f ea25 74bc 03f0 aa3e 6477 0b3f
000000b0: 9df2 7f3f e2d3 783f 5ae9 41be bc65 f2be
000000c0: 953e ba3d 4f58 1dbe c80a b53e 8ca6 083f
000000d0: 8e01 68bc 6249 86bc 5f86 c53e e2f0 c6bd
000000e0: 870f 7f3e a872 39be 4ad9 b13e 71f0 be3e
000000f0: c226 b8be a12f 7f3d b6f3 5e3f 7e71 5bbe
00000100: 5e7d 4f3f 8a62 c0be ec1f babe 49cd 353f
00000110: f828 eabe 34ee b1be 6326 133f 316e 683e
00000120: f541 64bf 3867 a93e 2422 48bf b803 d8be
00000130: 591b c13e fc21 a4bd e91d d83e 79a8 433f
00000140: 5d12 4cbf e75a 64bf 9a9e a33f 9cf4 73be
00000150: ca93 873f d220 f9be a385 16bf b5cf 66bf
00000160: 7201 91be 3754 543e 11f1 2fbe 8018 6cbe
00000170: bd2b 35be 6c37 3d3f 6ee5 84bf 37d8 8bbd
00000180: b225 f5be 863a 1dbf c83d c33e 6e20 86be
00000190: 40f3 c9be c5f1 55bd 940a d0bb 2486 2c3d
000001a0: 2b5a d43d cd5b 6abf ddba f93e cd00 9a3e
000001b0: b05f 9b3e e31b 853e 923d b13e 2191 febe
000001c0: af5c 263f a4ae 123f 2aac 223d b405 aa3e
000001d0: 13ff b1be f2da ec3e ed77 d73d 4b04 9dbf
000001e0: 7a3f 983f 399e 89bf 96a1 80be 1ec7 a83f
000001f0: 5e31 253e a2c8 d23e 1275 74be a746 00bf
00000200: b883 823e 69be dcbe 5906 85bf 89f2 77bd
00000210: 03a5 f8be 4f6a 8bbe 5fd9 9c3d 1009 63bd
00000220: e390 c63e cb10 16be f605 abbf 35c8 b8be
00000230: 3d88 2bbb 7576 6fbf 839b b33e 2789 96bd
00000240: 94f9 43be 5fb2 e23d e3cf e83e 2d95 02bf
00000250: 1bb5 cfbe 9512 cfbd 9dc2 f0be d622 823e
00000260: ec8a c83e 09c4 003e b437 663f ca6d bbbe
00000270: d4a1 dcbe 7327 963e 474b 17bf 19b2 f13c
00000280: 1aaf 953e a498 833f 445f 523f 7e20 0a3e
00000290: f39a 1a3f 1d77 b93e 6ed6 393e debb dcbc
000002a0: e41d d33e 6aff c5bd e50a a53e 4ca0 813e
000002b0: 2b50 0cbe ab2b debc 68e9 863e 2ccf dc3e
000002c0: 375e 9bbf 20b5 f63e d3c5 30be d788 f03d
000002d0: 374c a8be 6b51 c2bd c382 a6bd 2435 a73d
000002e0: 993a cb3e ba6f 773e ed9c 90be 843d 25bf
000002f0: d34f 0e3f 3dd1 abbe 2340 47bf ec2d 243f
00000300: 0bb3 2d3f 9560 58bf f5eb 193f 181d 5fbe
00000310: 4bd6 ac3d daca 883e e78e 4e3d 6257 0f3e
00000320: 53f2 ddbe 1697 3cbe eacd e63e 8cdf c53e
00000330: abb7 26bc 16ac 31bf 67ba 02bf 34fe d03e
00000340: 3ecd 4cbe 30ad 8ebe 1ce2 26be 5e30 783e
00000350: ca42 a33e a888 083e d7a7 42bf 0613 60bf
00000360: b50a 1c3f 9a4f 63bc d632 09bf 542f a63e
00000370: 8843 1fbe 57c9 85be 9d69 a03d 1d75 813e
00000380: f75f 1bbf 0df4 8abe 306f 9dbe 6b17 1fbd
00000390: 407f 553e 9af9 4fbe d6fa 8a3e 8bd7 363e
000003a0: 301f a6be e8bc 8a3e 3325 a13e b2a8 9b3e
000003b0: 5f1c 11bf 1373 43bd 429e dabd dc05 9c3f
000003c0: 3a98 8a3e 0bac a23e 9012 39be 2cbe 323e
000003d0: 59f8 35be f7fa cfbe e456 47be 6649 7abf
000003e0: 38f3 7e3e c96a a83e dca1 9c3d ca00 073f
000003f0: 916c 9fbe ae7e b43e 3309 113a f75e ab3e
-0.9200965 -0.33124474 0.5155936 0.8800359 -0.74304223 -0.39533785 0.49166742 0.035274412
-0.57243276 -0.068574354 -0.69633526 -0.06622872 -0.37703007 -0.16240798 0.022695014 0.04901026
-0.12354488 0.559137 -0.42540324 -0.4774616 0.028746858 0.06306206 -0.68211776 -0.18827292
-0.33233306 0.33150566 -0.112535395 1.1859772 -0.41680393 -0.08159658 0.5064402 0.24870098
-0.22583395 -0.18398789 -0.73520523 -0.0996379 -0.3749122 -0.004121233 0.3404142 -0.37626854
0.67842156 -0.014901618 0.3338624 0.5447905 0.99979573 0.9719831 -0.18936673 -0.47343242
0.09093968 -0.15365718 0.35359788 0.5337913 -0.014160527 -0.016392414 0.3857908 -0.097139135
0.24908267 -0.18110144 0.3473609 0.37292817 -0.3596707 0.06230128 0.87090623 -0.21430013
0.8105067 -0.3757518 -0.3635248 0.71016365 -0.45734382 -0.34752047 0.5748045 0.22698285
-0.8916314 0.33086562 -0.78177094 -0.42190337 0.37716177 -0.080142945 0.4221032 0.76428944
-0.7971552 -0.89201206 1.2782776 -0.2382378 1.0591977 -0.48657852 -0.58797663 -0.90160686
-0.28321415 0.2073525 -0.17181803 -0.23056221 -0.17692466 0.7391269 -1.0382516 -0.06828349
-0.47880322 -0.61417425 0.38133073 -0.26196617 -0.39443398 -0.052232523 -0.0063489173 0.042120114
0.10368761 -0.91546327 0.48775378 0.30078736 0.3034644 0.25997838 0.34617287 -0.497201
0.64985174 0.5729773 0.03971497 0.33207476 -0.3476492 0.46260792 0.10520921 -1.2266935
1.1894372 -1.0751411 -0.2512328 1.3185766 0.16132113 0.41168696 -0.23872784 -0.50107807
0.25491118 -0.4311402 -1.0392562 -0.060534034 -0.48563394 -0.27229545 0.07658648 -0.055428565
0.38782415 -0.14654844 -1.3361194 -0.36090246 -0.0026173734 -0.93540126 0.35079584 -0.073503785
-0.19138175 0.11069178 0.45471105 -0.51008874 -0.4056786 -0.10110966 -0.47023478 0.25417203
0.3916849 0.12574781 0.89928746 -0.366072 -0.43092215 0.29326972 -0.5909924 0.029503869
0.29235154 1.0280957 0.82176614 0.13488957 0.60392684 0.3622369 0.18148205 -0.02694505
0.41233742 -0.09667857 0.32234874 0.2531761 -0.13702457 -0.027120432 0.2634995 0.4312681
-1.2138127 0.48185062 -0.17262964 0.1174485 -0.32870647 -0.094881855 -0.081304096 0.08164433
0.39693144 0.24163714 -0.28244725 -0.6454699 0.5559055 -0.33558074 -0.7783224 0.6413257
0.6785132 -0.8452237 0.60125667 -0.21788442 0.08439311 0.26717263 0.05042925 0.13998178
-0.4334894 -0.1841701 0.45078975 0.38647115 -0.010175626 -0.6940321 -0.5106568 0.40818942
-0.20000169 -0.27866507 -0.16297191 0.242372 0.31886894 0.1333338 -0.76037353 -0.8752903
0.6095384 -0.013873959 -0.53593194 0.32457983 -0.15553105 -0.26130173 0.07832644 0.25284663
-0.60693306 -0.2713932 -0.30748892 -0.038840692 0.20849323 -0.20310059 0.27144498 0.1785566
-0.3244567 0.2709725 0.31473693 0.30402142 -0.56683916 -0.047717165 -0.106747165 1.2189288
0.27069265 0.31771883 -0.18073487 0.17455357 -0.17770518 -0.40621158 -0.1946674 -0.9776825
0.24897468 0.3289397 0.0764806 0.5273558 -0.31137517 0.352529 0.0005532682 0.3347089

conv1.bias f4 [32]
00000000: 94c5 2f3b 5398 74bc 3c27 58bb 7e69 df3b
00000010: 8303 303b 161d 993c f56d 3ebb 9e8a 853b
00000020: 551f 96bb 0b02 01bd 97e8 11bd f33b afbc
00000030: 798b 85bb bd88 04bd 00e0 143c c636 6bbd
00000040: e4db eb39 4c4b 8cb9 683f 3abc ca5f dfbc
00000050: f4dd aabb 5618 f7bb 5c3e 1d3b 1dab 593c
00000060: 8c94 8fbc a2ac f03c 405b 8cbc 3f50 cf3c
00000070: d44e 20b9 f718 453c 4127 913c c174 ed3c
0.0026820647 -0.014928895 -0.003298237 0.0068179956 0.0026857562 0.018690627 -0.0029057239 0.0040753623
-0.004581372 -0.03149609 -0.035622206 -0.02139089 -0.0040754643 -0.032356966 0.009086609 -0.057425283
0.00044986524 -0.0002675898 -0.011367656 -0.027267355 -0.005214447 -0.007540743 0.0023993468 0.0132854255
-0.017526887 0.029379193 -0.017133355 0.025306819 -0.00015288155 0.012029878 0.017718913 0.028986337

bn1.weight f4 [32]
00000000: 253e 7b3f 120e 803f 6e67 793f b3f2 813f
00000010: aa4c 803f 1373 7d3f 3675 7f3f 8927 803f
00000020: 6b7e 7e3f b641 803f f361 7a3f 3850 803f
00000030: 0947 7d3f fb2d 803f 2e5d 783f 3801 813f
00000040: 554c 7f3f 47c0 783f 4b2b 7b3f b783 823f
00000050: b2c2 823f 583e 7f3f da4f 7f3f e861 813f
00000060: bfa0 823f 8211 873f 3503 7b3f d889 823f
00000070: f6dd 803f c4e6 7e3f b648 813f b1c8 7d3f
0.981417 1.0004294 0.97423446 1.0152191 1.0023396 0.99003714 0.99788225 1.0012065
0.9941165 1.0020053 0.9780571 1.0024481 0.98936516 1.0014032 0.9701718 1.0078497
0.9972585 0.9716839 0.98112935 1.0196446 1.0215666 0.99704504 0.9973122 1.0108004
1.0205306 1.0552218 0.9805177 1.0198317 1.0067737 0.9957087 1.0100315 0.99134356

bn1.bias f4 [32]
00000000: 8109 27bd 250a 02bd fbef 29bd f2b0 543d
00000010: c740 343c 0e74 b7bb 6a17 273b 8460 3abc
00000020: 09f6 88bc c64e c9bc 8f80 b2bc 6eb3 da3b
00000030: 8873 edbc 120c b83c 2b19 413d 0df2 e0bb
00000040: 7e6c 58bc 7771 cf3b 4a0f 90bd 9936 dabc
00000050: 6492 15bc 198d 303d be02 983c 4b55 4dbc
00000060: b3a8 543c a898 26bc 3216 453b 593e 113d
00000070: d5b1 213d 9b49 c03b f8e3 3dbc 039e de3c
-0.040780548 -0.031747956 -0.04148863 0.05192656 0.011001772 -0.0055985516 0.0025496134 -0.01137555
-0.016718881 -0.024573695 -0.021789817 0.0066742217 -0.028985754 0.022466693 0.047143143 -0.006864792
-0.01320946 0.0063306647 -0.07034166 -0.026637362 -0.0091291405 0.04310331 0.018555995 -0.012532542
0.012979674 -0.010168232 0.0030073044 0.03545985 0.039476234 0.0058681495 -0.0115899965 0.027174955

bn1.running_mean f4 [32]
00000000: 2259 1a3e 6599 d53d 4509 813e 6af1 a3bc
00000010: 318e 97be 857a 09be 359b 73be 6bc1 9bbd
00000020: c51d 163e 709b b33d 2c15 4c3e ac48 953d
00000030: c898 71be 95b9 39be 5a66 c53e 1681 7f3e
00000040: 5a47 933d d3c2 36be 3b82 c8be 45e8 cfbc
00000050: 93a2 8d3c 8ed4 a6bc ef99 ef3d 6901 353e
00000060: 8181 c83c 26b2 6b3d 6458 66be e0b8 9e3d
00000070: 09af 0ebe 71fb 0dbe 4b79 a23e dbe7 563d
0.15073064 0.10429648 0.25202385 -0.020012576 -0.2960067 -0.13425644 -0.23789676 -0.07605251
0.14659794 0.08769882 0.19929951 0.07289252 -0.23593438 -0.181372 0.3855465 0.24951586
0.071913436 -0.17847757 -0.39161858 -0.02537931 0.017289435 -0.020365026 0.116992824 0.17676319
0.024475815 0.057542942 -0.22494656 0.07750106 -0.13933958 -0.13865449 0.31733164 0.05246721

bn1.running_var f4 [32]
00000000: 09c8 1240 e421 8c40 aa96 bb40 6469 bc40
00000010: 3db4 4941 220d dc3f ebe2 7040 c21e 353f
00000020: b850 da40 e382 5140 ede9 6d40 4825 c23f
00000030: 92ea ae40 e08c 5741 3143 4941 df9f 4341
00000040: 9088 4040 7e6c c840 6526 3641 26d2 873f
00000050: 6c84 ec3f 8fd1 983f aa8b 9740 4d48 d940
00000060: 5b3f ab3e b8dd ad3f 8eff 9f40 2782 b240
00000070: 3a93 2f40 c0e2 1840 e8ce 1041 dc9a 6f40
2.2934592 4.379137 5.8621416 5.887865 12.6065035 1.7191508 3.76385 0.7075006
6.8223534 3.2736137 3.7174027 1.5167627 5.466134 13.471893 12.578904 12.226531
3.008335 6.2632437 11.384374 1.0611007 1.8477912 1.1938952 4.735799 6.790076
0.33446774 1.3583288 4.9999456 5.5783877 2.743361 2.3888397 9.050514 3.7438269

conv2.weight f4 [32, 32, 3, 3]
00000000: 7a34 42be 919d ef3d 4ea5 2bbe 9f66 ec3c
00000010: 3886 2cbe 7c06 bebd 1973 c0bb 164b 0c3d
00000020: bf90 d1bb ccb2 2dbd ff48 1bbd 3511 08bd
00000030: c4dc bdba df98 cebd 2a0c 963d c5ab 95bd
00000040: a6eb 01bd 440e 16bd a09f 973d db76 043d
00000050: 1503 ab3e 8e2a d6bc 02d7 7c3d bcd2 49be
00000060: f389 77bc 7fdc 933c 43d7 06be b523 35bd
00000070: 4f11 cdbd 03d3 04be 783e c0bc d526 03bd
00000080: 4b93 9fbd 8e35 073e 0c98 4f3e 5935 b9bd
00000090: 2a8f 83bd cfeb 2a3e f31f 633b 16bb 41bc
000000a0: 5fc1 66be 5e99 d5bd 64c7 83bd cb27 acbd
000000b0: 0dd5 2e3d d5a8 dabd edfb 7f3d e21d 9f3b
000000c0: f007 023e 0ef7 723d 644c 39be c586 0dbc
000000d0: cf1b 0a3c c403 1fbd 8e18 8bbd 991d 1d3d
000000e0: 9195 2ebe 4e34 8e3d c55e 35bd 5332 9bba
000000f0: 4170 2a3d b61f 3bbd 8cd0 c8bd f45d 9bbd
00000100: a0a6 4c3e 9fe3 fa3c 5e8e e43c c741 453c
00000110: 066b d93d cbd9 b3bd 0d1b 15bc 941c 0cbe
00000120: 1593 88bb 9ea1 91bd 8a6a a2bd b680 6fbd
00000130: b70c d03d 377f dbbd 8081 5abd ccd9 0e3d
00000140: d6de 71bb d38d 2c3d 78b4 0e3e 04cc ae3d
00000150: 7136 0bbe c629 0c3e 0476 c33d 9d51 273d
00000160: 875f b13b 5bfc 483c 7c2e 233c c9d7 71bd
00000170: d7ad abbd f368 debd fbf5 afbd 3061 243e
00000180: 27c1 b33d f4c5 0ebd f6ff 6ebc e6a5 393d
00000190: 4a20 debc 331c bcbd 0441 d9bb 16e0 2dbe
000001a0: 5fe8 3f3d e438 8b3c 8e07 cb3d 0a63 c6bd
000001b0: b746 133d 2e24 d5bc 88ae 023e e901 0fbe
000001c0: 029c 0a3d 7b9d 7abd 7d85 883d 6dbe a6bd
000001d0: b6df f53d dbeb 85bc 27c3 14bd 32f9 983a
000001e0: 9e57 72bd 750e 29bc 1ef5 403d 648d afbd
000001f0: 8cb0 833d c083 fc3c f822 d73c 7008 a43d
00000200: 873c b13d 615e fe3c 0553 5b3c a8da f13c
00000210: 005d 0f3e eacb a5bd f40c f43c df91 2abe
00000220: 95f1 373c dea0 153e dd43 b13d a617 093d
00000230: 8864 963d 4989 05be 7f8f 66bd c643 f5bd
00000240: 3e88 87bd 1f53 02be 1511 153d 2b59 fa3d
00000250: d1da 7b3d b0cf 6bbc 2190 9bbd d72d ff3c
00000260: ebbe 36bd ff83 833d fd51 1ebd 8d94 893c
00000270: 4317 70bd 41c0 333e 5de7 343c b6f0 68bb
00000280: 5dea 13be 1d92 87bc dad9 bdbc a244 04bd
00000290: 44e5 d53d 7327 433c 7a4d 093d 10b3 693d
000002a0: 0845 a1bd d4d6 373d 6bbe 9e3d 3985 0e3d
000002b0: d171 b5bc 086c a13d 1dec a8bd b01b 7d3c
000002c0: 572c 0d3d e3a3 84bd b182 023d 489d 183c
000002d0: 60f2 413e e6fc 3dbe 847b a2bc 8a9b b8bd
000002e0: 9086 13be c80c f6bd d309 f73b e12e abba
000002f0: 4c54 f0bb 3ee8 b3bd 5686 bcbd 9877 023d
00000300: f843 503d 08a5 b73d 005f 613d 94c5 833d
00000310: ae11 c13d b5c4 87bc 3e47 0b3e 38cf 9e3d
00000320: b0f6 fc3c 84a9 583d 19ce 07be d7ac 14be
00000330: 2a6d e73c e0d0 873d 805e e1bd 255f d9bd
00000340: 6f76 33bd abbd eb3d fb8c 24be bf45 9a3c
00000350: 4555 1cbd a3b1 123e 6c64 c53d d812 9e3d
00000360: fb21 143e d0cc 7abc d496 5ebd e546 60ba
00000370: 1ed1 73bd 8720 8f3d ad86 353e 3849 03be
00000380: 03e0 fd3d c29b f03d 9a69 eebd f671 8f3d
00000390: d383 b33c cdd8 1fbe 8b7b b1bb 80bb 443e
000003a0: 50e3 0d3e 4a88 0bbe 7d45 f5bd 8819 a7bd
000003b0: 1f8e ca3d d59a c4bc 88e0 d03c e1d9 433d
000003c0: 07f1 873d c6f4 003d 0a1d 10be 1d7d 823d
000003d0: 605b cc3c 2906 9fbc c4e8 9a3b 4380 14be
000003e0: 4017 a83d e820 0cbe 25d5 0abe 0f52 d8bc
000003f0: c72e 3dbe 4d8c 563a 28a5 ba3c d5ca 80bd
-0.1896533 0.11699975 -0.16762277 0.028857527 -0.16848075 -0.092785805 -0.0058730957 0.034251295
-0.006395429 -0.042406842 -0.03791141 -0.033219535 -0.0014485349 -0.100877516 0.07326539 -0.07308153
-0.031718872 -0.0366347 0.07403493 0.032339912 0.3340079 -0.026143339 0.061728485 -0.19709295
-0.015108573 0.018049477 -0.13168053 -0.044223506 -0.10013067 -0.1297112 -0.023467287 -0.032019455
-0.07791766 0.13204023 0.20272845 -0.090433784 -0.06423791 0.16691516 0.0034656494 -0.01182439
-0.22534703 -0.10429643 -0.06434515 -0.084060274 0.04268365 -0.106767334 0.062496115 0.004855857
0.1269834 0.05931764 -0.18095547 -0.008638089 0.008429482 -0.03882195 -0.06791793 0.038358305
-0.17049243 0.0694357 -0.044279832 -0.0011840559 0.04161096 -0.04568454 -0.09805402 -0.075862795
0.19985437 0.030626116 0.027899917 0.012039608 0.10616116 -0.08781775 -0.009100688 -0.13682777
-0.004167924 -0.07110904 -0.07930477 -0.058472358 0.10158675 -0.10717624 -0.053346157 0.034875676
-0.0036906502 0.04212744 0.13936031 0.08535007 -0.13594986 0.1368781 0.09543994 0.040849317
0.005412999 0.0122671975 0.009959813 -0.05904368 -0.08382767 -0.10859861 -0.08591839 0.16052699
0.08777075 -0.03485675 -0.014587393 0.04532423 -0.027115006 -0.09185066 -0.006630065 -0.16980013
0.046852466 0.016994901 0.0991355 -0.09686859 0.03595611 -0.026018228 0.12761891 -0.13965572
0.033840187 -0.06118534 0.06666086 -0.081417896 0.1200556 -0.016347816 -0.036318924 0.0011670946
-0.05916559 -0.010318388 0.047108762 -0.0857189 0.06430158 0.030824542 0.026261792 0.08009422
0.08654123 0.031050863 0.013386493 0.029523209 0.1400032 -0.08095534 0.029791333 -0.16657208
0.011227031 0.14612147 0.08655522 0.03346982 0.073433936 -0.13040651 -0.056289192 -0.119758174
-0.06617783 -0.1272702 0.036393244 0.12224039 0.061487976 -0.014392778 -0.0759585 0.031149788
-0.044615667 0.06421661 -0.03865241 0.016794467 -0.058615934 0.17553808 0.011041489 -0.0035543866
-0.14444871 -0.016549164 -0.023175169 -0.032292016 0.104441196 0.011911261 0.033521153 0.057055533
-0.07874495 0.04488261 0.07751163 0.03479502 -0.022148998 0.078819335 -0.0824816 0.015448496
0.034466114 -0.064765714 0.03186292 0.0093148425 0.18940115 -0.18553504 -0.019834287 -0.09014042
-0.144068 -0.120141566 0.007539013 -0.0013060236 -0.0073342677 -0.08784531 -0.0920531 0.031852335
0.05084607 0.08967024 0.05502224 0.064341694 0.094272 -0.01657329 0.13601395 0.077543676
0.030879349 0.052896038 -0.13262214 -0.14519058 0.028250296 0.066316366 -0.110043526 -0.106138505
-0.04381412 0.11510786 -0.16069405 0.018832086 -0.038167257 0.14325576 0.096382946 0.07718438
0.14466088 -0.01530762 -0.05434306 -0.0008555486 -0.0595256 0.06988626 0.17727156 -0.128209
0.123962425 0.117484584 -0.11641236 0.07004158 0.021913445 -0.15610047 -0.005416339 0.1921215
0.13856244 -0.13626209 -0.119761445 -0.081591666 0.09890389 -0.02399961 0.02549769 0.047815207
0.06637769 0.031483434 -0.14073578 0.0637152 0.024945915 -0.019412117 0.004727455 -0.14502053
0.082075596 -0.13684428 -0.1355787 -0.026406316 -0.18474875 0.00081843586 0.02278383 -0.06288687

conv2.bias f4 [32]
00000000: 72ec 203c 385a 4fba 83da 633c 3ec7 253d
00000010: b8bc 713c 8cd5 09bc 6226 9a3c 4919 3dba
00000020: f785 c4bc 4bd2 983c ac1b 083c dc73 b33b
00000030: ada8 a3bc 8fd8 af3b e37c 613b baf9 8bba
00000040: ec30 d23c b1c2 1a3b 50b4 2538 a9c0 9ebc
00000050: bed8 79bc dbe1 ce3c c543 90bc 713b a23b
00000060: 3a76 e43c b636 83bc adf1 ad3a 2116 a83a
00000070: 20a9 ba3b 5051 c43b 9cdc 71bc f6df bbbc
0.009821998 -0.0007909867 0.013907078 0.040473215 0.014754467 -0.00841273 0.01881713 -0.00072135456
-0.02398966 0.018654963 0.008307379 0.005476458 -0.019977892 0.005366392 0.0034406714 -0.0010679283
0.025658093 0.002361458 3.9506995e-05 -0.019378977 -0.015249429 0.02525418 -0.01761044 0.0049509336
0.027888406 -0.0160173 0.0013270878 0.0012823978 0.005696431 0.0059911385 -0.01476207 -0.022933941

bn2.weight f4 [32]
00000000: 074c 783f 3d77 803f 4cef 803f 8869 843f
00000010: 0039 803f 7347 7f3f d54e 823f cd39 843f
00000020: 9349 7b3f 3f50 783f b3db 7c3f 8334 813f
00000030: b454 803f d3f2 803f e712 803f 3323 7e3f
00000040: bdf8 813f 8061 803f 602f 7f3f 227b 803f
00000050: eacc 7b3f f596 883f ebe1 773f a751 853f
00000060: 4017 773f 02b1 823f 75af 7d3f 55b2 803f
00000070: f147 7c3f 84ca 813f bb9b 803f 55c9 773f
0.9699101 1.0036389 1.0073028 1.0344706 1.0017395 0.997184 1.0180308 1.0330139
0.9815914 0.96997446 0.98772734 1.009415 1.0025849 1.0074104 1.0005769 0.9927246
1.0154034 1.0029755 0.99681664 1.0037577 0.9835955 1.0671068 0.968291 1.0415543
0.9651985 1.0210268 0.9909585 1.0054423 0.98547274 1.0139928 1.0047525 0.96791583

bn2.bias f4 [32]
00000000: c781 d63b 0349 22bd 3e21 203b 7190 e83b
00000010: 9624 41bc bbea d53b e969 833b f15b 2ebc
00000020: b3ba d7bc 078a cbbc a330 b0bc 6e3d 47bc
00000030: d221 6c3c 82d7 16bd dc30 5e3b 6391 05bd
00000040: b6b1 cb3c 60fc c1bb b217 19bd c9d6 32bd
00000050: 79f9 b33b ebac 013d 117b f1bc 0833 dc3a
00000060: 7097 86bd 3fde 333d 410c f73b 61a9 af3d
00000070: 579d 54bb 06f0 0c3a b69a aebc e33d fab9
0.0065462324 -0.03962041 0.0024433876 0.007097297 -0.011788508 0.006528226 0.004010428 -0.010642038
-0.026334142 -0.02484609 -0.021507567 -0.012160642 0.01441236 -0.036826618 0.0033903634 -0.032609355
0.024865013 -0.005919978 -0.037376113 -0.043661866 0.005492386 0.031659048 -0.029477628 0.0016799876
-0.06571853 0.043913122 0.0075393026 0.08577228 -0.0032442415 0.00053763425 -0.021314006 -0.00047729825

bn2.running_mean f4 [32]
00000000: c769 f1be ec7d 34be 6475 e23e 19fd cbbf
00000010: bd9d a23f 5d5c bb3e 1ac0 7bbf 49f0 cabe
00000020: d466 2ebf 9cb2 c23f c887 df3f 75f3 b33e
00000030: c321 9dbf aa12 ec3e 3970 883e b98b 3e3d
00000040: 2899 4ebe ac69 ec3c 43d8 963d 494c 4d3e
00000050: 3365 553e 90a7 aebf e856 1b3f 3781 8fbf
00000060: ce54 ac3f 0597 cabd ebe5 c1bc e082 aa3e
00000070: a79e d6be a3ec 83bf 8ac6 6ebf 6866 163f
-0.47151014 -0.1762616 0.44230187 -1.5936614 1.2704388 0.36593905 -0.9834 -0.39636448
-0.68125653 1.5210757 1.7463312 0.3514668 -1.2275928 0.4610799 0.2664812 0.04651997
-0.20175612 0.028858982 0.073654674 0.20048632 0.20839386 -1.3644886 0.60679483 -1.1211308
1.346338 -0.09892086 -0.023669204 0.33302975 -0.41917917 -1.0306591 -0.93271697 0.5875001

bn2.running_var f4 [32]
00000000: b54d 9e3f dcde 843f 4367 ef3f dab1 d440
00000010: b68b 8240 74b8 be3f 6d45 2940 ea8d 4a3f
00000020: f99e 1b40 a549 8440 e8d7 0241 15d3 aa3f
00000030: f2bb 6f40 1a1d de3f c6bc cb3f 5596 1340
00000040: a87c 9e3f e843 633f 50d6 c63f cbc2 2940
00000050: 40b9 c23f 5c45 a740 4e9b 0140 532b 8b40
00000060: e5b1 4d40 a699 873f f2f9 ae3f d22a f43f
00000070: 7614 0a40 d807 3e40 556b f43f 634e 0740
1.2367464 1.0380511 1.8703388 6.6467104 4.0795546 1.4900041 2.6448624 0.79122794
2.431578 4.13399 8.1777115 1.3345667 3.7458463 1.7352631 1.5916984 2.3060505
1.2381792 0.8877549 1.5534153 2.6525142 1.5212784 5.2272167 2.025104 4.3490386
3.2139828 1.0593765 1.3670027 1.9075568 2.1574988 2.9692287 1.9095255 2.1141593

conv3.weight f4 [32, 32, 3, 3]
00000000: 1b8f 04be 4ce0 afbc 0115 87bc 1e15 2f3d
00000010: ae18 8d3d 0a55 0e3d a66d 94bd 52f7 36bb
00000020: a78f d53d 7385 0cbe 6eb0 e23d b49a c4bd
00000030: 7087 f03d aab0 cb3d 1e74 20bd b012 81bd
00000040: c81f 61bd 13c7 08be 7c3d 46be 7b44 1e3e
00000050: 7e17 943d 3d33 2dbb 3fcd 213c 2546 fcbd
00000060: 1cf1 ccbc c4e2 f3bc e2a1 a43b b12c 6e3e
00000070: b28b 65bc ba7a c63d 0254 ce3b 6f41 12bd
00000080: 8d21 b73d 10c7 18bd 6b13 693d 6f9f e33c
00000090: 01cd 2fbd 7800 893d 1106 aabd 80e0 f6bc
000000a0: 4d45 b73d bb39 2d3c eac4 a83d 17ef f0bc
000000b0: 4062 53bd c11c 93bd e4c4 1a3d 8796 4cbe
000000c0: c594 d43c 830b e23c beb6 a1bd 6882 adbc
000000d0: ec61 18be f69e 1a3d bf8d b63c bcfa d5bd
000000e0: 1c17 593d 56bd e13d 9c7a 713d cef4 e33c
000000f0: 0200 b1bd 72fa 1cbc cce8 3d3b cf97 9bbd
00000100: a5b2 bc3c ea5c adbc ac7c 29bd 2844 cf3d
00000110: 8298 a73d e9bb 29bd 84eb 3ebe 66db c7bd
00000120: a785 26bd 8dfd 373e 6b06 1cbd 4e37 c93d
00000130: f319 60bd 02d8 143c 99cb 49bd c234 80ba
00000140: 26c9 51bd 3358 f1bb 4fe7 98bc fa93 19bc
00000150: 17cb 513c 120d 6cbd be8b dd3d 6134 3e3d
00000160: 3312 523d c1ec 893d 186b 223a 9c3e afbd
00000170: 1c5c 9fbd cb07 1a3e 7ba6 f03c 528b d2bc
00000180: 6aa6 afbd a035 dfba 1555 b2bd b5ab c83d
00000190: 6884 1c3d b9eb bfba fbce e2bd b043 c2bd
000001a0: f493 f3bd e005 8bbc 6a01 623d 49b9 13bd
000001b0: 012f 793d c24c 8f3d 5f20 623d 521b ae3c
000001c0: d090 2bbc 8d36 403d 7c4c a83c 02ec 533d
000001d0: bdc1 95bc 0e79 173d 848e 323d 488b 41bd
000001e0: 340d bf3d abb1 7f3b 5cfc 2cbd 94ca 80bc
000001f0: 8452 113e 2e31 6f3e 3c82 983d ace4 5cbd
00000200: ca10 f1bd 0500 ba3b e3ff febc f597 03be
00000210: 6f2a 8a3d 4598 913d d7ee 81bc b0e3 babc
00000220: 7a27 2fbd 0387 69bc 81f1 cebd 1370 f83c
00000230: 15d0 45bd 25f0 243e afd6 0d3d 1595 cfbd
00000240: f172 123e ca5e 0c3b 4c7d 033e 792f 23be
00000250: 8106 7dbe 4db0 04bd e901 48bd 3b05 693d
00000260: 9063 093e b454 adbd 5939 8f3c 2bba 89bd
00000270: 0a2b 953c eacc 453d 2043 21bd 5c02 233e
00000280: e8b3 8ebc 479e 363d 94a8 ffbc 4201 b43d
00000290: b12e c8bc ab38 febd d7ed d8bd ae75 243c
000002a0: 3f17 dabc e24a 823d 3861 8b3d c706 56be
000002b0: bfad 3bbc 4c40 993d fb70 b8bb 8ee2 b63c
000002c0: e9e5 16be 09db 0f3c 16d5 a8bd 7b35 20be
000002d0: 45bf 2e3d 5b63 5d3c ad0a 15bc ff39 37bd
000002e0: a455 3fbd eaf5 60bd f6f9 503d ba5e 013c
000002f0: e9d2 c6bd cd29 be3d 2adc 183d e744 dfbc
00000300: 1700 ba3d ff98 ad3d fa77 f7bc db37 fd3d
00000310: aae5 003d 373e c83d 2aea 063e 8206 d63d
00000320: 25c8 2c3e 17d9 f63d af5e f7bd 0d0d 0dbd
00000330: 077a 5d3d 4a87 313e 19ff 80be fc6c 4ebd
00000340: c53f 42bd 6f3f 2c3d faf7 493c 9c7d c4bd
00000350: b0a1 2bbd e441 d23c a336 8f3d b71a 163e
00000360: dd60 ab3d 5a04 61bd 9f09 053e 305c 52bd
00000370: b83d 993b 8bd8 973d 21ff 76bd 7b8d 04be
00000380: 50ab 2fbc 6608 e83c 37f1 323c 258e 41bd
00000390: 6ae2 9abd 3c99 683d f3ce 493b 1880 f2bd
000003a0: 9c87 17bd 18bd 83bd b9fe 9bbd a173 22bd
000003b0: de88 9dbc a3e9 ba3d 294f ae3c 9263 863d
000003c0: c749 f1bc f222 4b3e 2edf d1b9 7438 ddbd
000003d0: 9bdd 9cbc c35e 67bd 69bb da3c 9c02 b9bd
000003e0: 7154 07be 7ddd 363d 4666 3cbc 092a 01be
000003f0: 7d96 ddbc a4ce f4bc d951 08bd 7a7d ddbd
-0.12945215 -0.021469258 -0.016489508 0.04274475 0.06889473 0.03474907 -0.07247476 -0.002791841
0.1042779 -0.13722782 0.110688075 -0.0959982 0.11744583 0.09945805 -0.039173238 -0.063023925
-0.05496195 -0.13357191 -0.19359392 0.1545581 0.07231043 -0.0026428245 0.009875595 -0.123180665
-0.025017314 -0.029771216 0.0050241807 0.23259236 -0.014010357 0.09691377 0.0062966356 -0.035706934
0.08941946 -0.037299216 0.056903284 0.027785985 -0.042920116 0.066895425 -0.08301938 -0.030136347
0.08948765 0.010572846 0.082406834 -0.029410882 -0.05160737 -0.07183219 0.037785426 -0.19979297
0.025949845 0.02759338 -0.078961834 -0.021180347 -0.14881104 0.037749253 0.022284387 -0.104482144
0.053000554 0.11022441 0.05895482 0.027826693 -0.086425796 -0.009581195 0.002897787 -0.075973146
0.023034403 -0.021162469 -0.041378662 0.10120422 0.081833854 -0.04143897 -0.1864453 -0.09758644
-0.040654805 0.17967816 -0.03809206 0.09825002 -0.054712247 0.009084703 -0.04926643 -0.0009781348
-0.05121722 -0.0073652505 -0.018664984 -0.009373659 0.012804768 -0.057629652 0.10817669 0.04643667
0.051286887 0.0673461 0.0006195768 -0.08556864 -0.0778124 0.15042035 0.02937626 -0.025701199
-0.08576663 -0.0017029531 -0.08707634 0.097983755 0.03821221 -0.0014642394 -0.11074635 -0.094855666
-0.11893454 -0.016970575 0.05517713 -0.036065374 0.060835842 0.06997062 0.055206653 0.021253262
-0.010471538 0.046927024 0.020544283 0.051738746 -0.018280858 0.03698068 0.043592945 -0.04725197
0.0932869 0.003901581 -0.042232856 -0.015721597 0.14191633 0.23358604 0.07446715 -0.053929016
-0.117707804 0.005676272 -0.031127876 -0.12850936 0.06746375 0.07109121 -0.015860958 -0.022813648
-0.042762257 -0.014253381 -0.10104657 0.030326879 -0.048294146 0.16107233 0.034628566 -0.10135857
0.14301659 0.0021418803 0.12840766 -0.15936078 -0.24709512 -0.032394696 -0.048829947 0.056889754
0.13416886 -0.084634215 0.0174834 -0.06724962 0.018209 0.048291124 -0.039370656 0.15918869
-0.01741977 0.04458454 -0.031208314 0.087893024 -0.024436327 -0.12413152 -0.10592239 0.010037823
-0.026622413 0.06361939 0.068056524 -0.20901023 -0.0114549985 0.07482967 -0.0056287027 0.022324827
-0.14736141 0.008780249 -0.08243768 -0.15645401 0.042662878 0.013512458 -0.009096784 -0.044733044
-0.046712533 -0.054922022 0.05101963 0.00789612 -0.09708197 0.092853166 0.03731934 -0.027254535
0.090820484 0.08476447 -0.030208576 0.12364169 0.031469025 0.097774915 0.13175264 0.1045046
0.16873224 0.12053125 -0.12078606 -0.034436274 0.054071452 0.17336765 -0.25194624 -0.050396904
-0.047424097 0.042052682 0.012327189 -0.095942706 -0.041902244 0.025666185 0.06992843 0.14658628
0.083680846 -0.05493579 0.12991951 -0.051357448 0.004676547 0.07414349 -0.060301904 -0.12944596
-0.010721996 0.028324317 0.010921768 -0.0472547 -0.07562716 0.05678676 0.0030793517 -0.11840838
-0.03699456 -0.06432551 -0.07616944 -0.039661054 -0.019230302 0.09126594 0.02127798 0.0656196
-0.029454125 0.1983755 -0.00040029868 -0.10801783 -0.019148638 -0.056486856 0.026700692 -0.09033701
-0.13215806 0.04464482 -0.011498993 -0.12613691 -0.027049297 -0.02988369 -0.03328118 -0.108149484

conv3.bias f4 [32]
00000000: db48 553b b363 b93a 89ad c33b ffac 5bbc
00000010: c8ec 2b3c bd16 4dbb 5406 913c 79b6 663b
00000020: e484 f63b a2ca 103c 47a2 1fbc 6c6d d6bb
00000030: 4855 0abb 171d 7a3b 3408 06bc a0b6 7c3c
00000040: 8830 7b3b 089f b0bc 9ba6 023b 7bcd 3b3c
00000050: 9f2c 893c 2f62 c3ba 1bc3 d4bb b77b c0ba
00000060: 661d 97bc 65e1 d7ba 34bb 043c 80b5 0d3b
00000070: 1a98 d8bc 9003 03bd e074 553c 32a5 8db9
0.0032544646 0.0014144093 0.0059716147 -0.013407945 0.010493465 -0.003129407 0.017703213 0.0035203977
0.007523166 0.008837374 -0.00974328 -0.006543806 -0.002110796 0.0038164312 -0.008180667 0.015424401
0.0038328487 -0.021560207 0.001993573 0.011462565 0.01674491 -0.001490658 -0.006492985 -0.0014685307
-0.018446635 -0.0016470371 0.008101273 0.0021623075 -0.026439715 -0.03198582 0.013028353 -0.00027016696

bn3.weight f4 [32]
00000000: f6d2 7e3f 273c 823f 4925 7b3f 9f04 833f
00000010: eefa 7b3f 87b0 7c3f 0d6f 783f a12b 813f
00000020: c99b 813f bed9 7e3f 0692 823f 5cd5 813f
00000030: b909 813f d1c6 7d3f 092e 743f 5944 803f
00000040: 0c13 793f 1fb4 7f3f 384f 7c3f dca0 7d3f
00000050: 2e90 833f 4d41 803f 89f3 803f aa22 7c3f
00000060: 8203 813f 3bed 7e3f b538 833f 5c81 7e3f
00000070: d6cc 813f 2831 7f3f ed61 7d3f ce3a 7d3f
0.9954065 1.0174607 0.9810377 1.0235785 0.98429763 0.9870686 0.9704445 1.009144
1.0125667 0.99551 1.0200813 1.0143237 1.0081092 0.99131495 0.95382744 1.0020858
0.9729469 0.9988422 0.9855838 0.99073577 1.0278375 1.0019928 1.0074321 0.98490393
1.0079195 0.99580735 1.0251681 0.99416137 1.0140636 0.9968438 0.9897755 0.98917854

bn3.bias f4 [32]
00000000: 7433 0dbc 53ba 1b3c 5dc4 c7bb e727 5fbb
00000010: 51cd 3abc 167d d63b 4578 e6bc 70dc f53c
00000020: 4036 82bb b299 16bc 5ba6 bcb9 1b2b 6e3c
00000030: 0b66 473c 504b a43a 9590 64bd 452d 51bb
00000040: 4d92 23bd ee46 c83b daa3 04bd 19e9 85bc
00000050: 97f6 6abc 17ec 66bd 6f35 a43b 8761 0bbc
00000060: 2eac ccbb 8360 9e3c b463 493c a4d7 9d3b
00000070: 60b7 233c c0d0 d6bc 74d7 92bc b905 13bc
-0.008618224 0.009504872 -0.0060964064 -0.0034050883 -0.01140149 0.006545673 -0.02813352 0.03001234
-0.0039737523 -0.009191917 -0.000359821 0.014536644 0.012170325 0.0012534652 -0.055801947 -0.0031917852
-0.039934445 0.006111971 -0.032382824 -0.016346501 -0.014341018 -0.056377497 0.0050112526 -0.008507139
-0.0062461114 0.01933313 0.0122918375 0.004816966 0.0099924505 -0.026222587 -0.017925002 -0.008973532

bn3.running_mean f4 [32]
00000000: d011 b33d 3081 28bf a917 593d 0a58 d53e
00000010: fe85 583f a399 50bf 72b1 bdbe 23ab 96bf
00000020: 94d1 103e f136 d3be 1814 86bf e9e6 82be
00000030: 85f6 09bf 85a1 073f 32e8 01bd d530 12bf
00000040: f678 5dbe 696a a4bd 7b73 8fbf 33c1 9abf
00000050: e4ae 99be 1244 bc3e fbe1 bfbe 368c 1d3f
00000060: 241f 38bf e215 af3c ad04 26bf d584 263d
00000070: 7d30 07bf 0b24 963f 6c1b acbe 1848 92bf
0.08743632 -0.65822124 0.05300108 0.4166873 0.84579456 -0.8148443 -0.37049443 -1.1770977
0.14142448 -0.41252854 -1.0474882 -0.25566795 -0.53891784 0.52980834 -0.03171558 -0.5710576
-0.21628174 -0.080281086 -1.1207117 -1.209021 -0.30016243 0.36770684 -0.37477097 0.6154207
-0.71922517 0.02137274 -0.64850885 0.040654022 -0.5280836 1.172975 -0.3361467 -1.1428251

bn3.running_var f4 [32]
00000000: 6d1d b43f a2b8 2240 1d40 d53f 604b e23f
00000010: 11eb 503f 5062 933f 2687 9f3f c3ab 3340
00000020: a00b 613f fa55 ca3f 9ed5 3d40 1912 7f3f
00000030: 396c 2040 7fa2 693f 3132 9e3f 397c b63f
00000040: 83a7 323f 7a0e 413f 4211 9640 3101 ee3f
00000050: d3ca 9e3f 2966 0340 d0e5 1f40 0600 3c40
00000060: 7612 d73f a2f0 b43f e204 1940 2394 c43f
00000070: c3d4 dc3f cbad 0040 f1d1 713f 624a bd3f
1.407148 2.542519 1.6660191 1.7679253 0.8160868 1.1514378 1.2463119 2.8073585
0.87908363 1.5807488 2.9661632 0.9963699 2.5066054 0.91263574 1.2359067 1.425666
0.6978685 0.75412714 4.6896067 1.8594114 1.2405647 2.0531104 2.4984016 2.9375014
1.6802509 1.4135935 2.390923 1.5357708 1.725243 2.0106075 0.9446097 1.4788325

conv4.weight f4 [64, 32, 3, 3]
00000000: 0938 3b3d 1487 cb3c ad40 f1bc bf30 d63d
00000010: dc15 e23d af80 8e3b cde8 b33d b9e7 9a3d
00000020: cd78 cf3c dd61 2d3d bdb7 04be a0a7 f3bd
00000030: 6e4f 613d c75f 793c 8838 293e 7b33 f3bd
00000040: fcac 603d bcc3 903b 4ec2 043d cfe0 6c3d
00000050: 83b7 88bb e52b 903d af9a 0d3d 357b e13d
00000060: 4e00 0a3d 0a7e 003c d0a0 41bd 4d15 de3c
00000070: e00c 20bd dd55 d4bd eaae a7bd 7ebe 26bd
00000080: 03f0 ce3c 8b25 d8bc 44ef 4c3b d91f 28bd
00000090: 47c5 2d3e 050f 423d f214 bcbd e1ce 9abc
000000a0: b136 13be a7b1 593d c6eb 923d 83a2 a8bd
000000b0: 82a0 f23c 5511 f53c 0257 893d 7fb2 a3bd
000000c0: a210 993b d254 23bd d9dd 34bd 997c 513d
000000d0: 3292 00be 2631 a83b 17d0 003d 6e18 4e3e
000000e0: beb9 e5bd 212e 7d3a 8f46 babd 080e 9ebd
000000f0: 0dac 7739 9e5d a1bd 6194 86bc 9950 23bd
00000100: 6b7a 463c 1618 04be c377 b83d 2726 16bd
00000110: 4189 903d c43f 803d 6301 e0bd 33b2 22bd
00000120: d4f1 f8bd 121e 003d 0220 0ebd 1bb6 463d
00000130: d7a8 603d f2ae 3c3d f489 fabd d641 f6bb
00000140: 2762 033c d269 89bc 1261 1abe ed92 443d
00000150: 0b49 2c3e 32c8 6a3d 64c9 3dbc a4f8 5bbd
00000160: fd5b 933d 1f57 d4bc fb84 243e 334a 603d
00000170: 1657 bdbc f0b0 ff3d df2c 9a3d e365 d03b
00000180: 0d24 9fbd 13f5 5b3d 743c 9a3d f99d ee3d
00000190: d2f5 d13d ec09 27bd 3f74 413d ee76 2a3d
000001a0: 8a6e 1e3d acd8 803c 9291 22bd 1b4d 28be
000001b0: 7525 55bd e7b2 683d 56d1 5d3d d299 d53d
000001c0: 17e2 c2bc 26d8 143d 5574 c2bd cbe1 67bc
000001d0: c234 e6bc f8ea a33b 14e6 d73d 2626 bbbd
000001e0: aff1 3cba 9118 aabb 3794 dd3d 0e0b 02bd
000001f0: de30 903d 66eb 18bd 043a 1fbd 8989 fabb
00000200: 797c 83bc d1c6 09bd 2950 ae3d d0f1 3fbe
00000210: a18c 9bbd 6270 1e3d edd7 0cbe 5c05 133d
00000220: 2ac0 883d 7045 da3d 1673 d8bd 82e1 bbbd
00000230: 86dd 50bd e09f 8bbc 9db3 c13d a98c 353d
00000240: 7df7 fd3c cae5 8b3d 5c89 3b3e 2baf d83d
00000250: ce50 b7bd cf81 36be 168d ecbd 3979 06bd
00000260: 1272 253d 8abf bf3d ed4f 8bbd 4437 3ebd
00000270: 338b 6b3d 0563 873d 48ec 2cbd 4dd2 123d
00000280: 6860 9b3d b355 513d d50a 673d db70 e7bd
00000290: f7c0 6ebd 2f95 603c 5c2a 553d a8d2 dd3c
000002a0: 7e55 64bd 6b36 b83d 81cb 623e 65fa b4bc
000002b0: 8358 83ba d224 653d 4be6 e43b e956 d13d
000002c0: 8b7b 8dbd 9c41 383e 6aa2 713c 92fe b8bd
000002d0: 4070 9e3c 9d74 09bd 2383 02be eca5 083d
000002e0: bcfc 95bc ad47 983c 8cd7 863d 438c 5f3e
000002f0: 1883 a23d c9c1 a23d afde 8f3d bfc6 f9bd
00000300: f108 a739 7fef 083d cda1 dbbc 3fb1 01be
00000310: 6779 afbd 716e 0dbd 3f64 353e cd05 8a3d
00000320: 143a ec3d 39ec 8fbd 1c5b cabd 25ea a83d
00000330: 2ed8 283d ccbf 8e3d 59b5 003e f6ad 4f3d
00000340: db64 e03c dd45 94bc d661 2d3d 7f98 053b
00000350: 7b80 fa3d 7c6a b8bd 5ce5 2c3b 8fcc e63c
00000360: 5e29 3e3b dba7 873d 5bd0 2a3d bbc3 18bd
00000370: 3bbb 90bb 2188 efbd 6ba5 45bd e5cc 3d3c
00000380: 9a40 373d a403 4c3d 10cb f3bc 332e 3d3d
00000390: b789 ea3d b2e9 e83d 7839 103d 646d b23d
000003a0: 51ae bdbc 34a9 573d bd1d bcbd b80e b03d
000003b0: 0496 153e afc5 28be d831 ac3c b5fe debd
000003c0: e14e 063d ebbb 33bd 1a36 f93d b8e4 a23b
000003d0: 6482 cc3d f303 81be be95 3c3d 5b37 763d
000003e0: 0aa0 873d e454 a5bd 393e 323e c28b 253d
000003f0: ad3d ac3b 850b 0c3e e983 d4bc a5e9 373d
0.045707736 0.024844684 -0.029449785 0.10458516 0.110393256 0.0043488364 0.087846376 0.07563729
0.025326157 0.042329658 -0.12960716 -0.11897206 0.05500739 0.015220589 0.16525471 -0.118750535
0.05485247 0.0044178646 0.032411866 0.05783158 -0.004172267 0.07039622 0.034571346 0.11009828
0.033691697 0.00784255 -0.047272503 0.027109766 -0.03907478 -0.103679396 -0.08187659 -0.04070901
0.02526093 -0.02638509 0.0031270543 -0.041045997 0.16969787 0.047377605 -0.091836825 -0.018897476
-0.14376332 0.053147938 0.071738765 -0.08234122 0.029617552 0.029915491 0.067060485 -0.0799303
0.0046711722 -0.039875813 -0.044156883 0.051144216 -0.12555769 0.005132812 0.03144845 0.20126507
-0.11217068 0.0009658058 -0.09095489 -0.0771752 0.0002361985 -0.07879184 -0.016428174 -0.039871786
0.012114148 -0.12899813 0.09007218 -0.03665748 0.07057429 0.06262162 -0.109377645 -0.039720725
-0.121555 0.031278677 -0.034698494 0.048513513 0.05484852 0.04606528 -0.12233344 -0.0075151725
0.008019007 -0.016774092 -0.15076092 0.04799168 0.16824739 0.057319827 -0.01158366 -0.05370392
0.0719528 -0.025920449 0.16066353 0.054758262 -0.023112815 0.1248492 0.0752809 0.006359802
-0.07770548 0.053700518 0.07531062 0.11651225 0.10251965 -0.040780947 0.04723 0.041617326
0.038679637 0.015728317 -0.039689608 -0.16435663 -0.052037675 0.05681124 0.054154716 0.104297295
-0.023789449 0.036338948 -0.09494845 -0.014152954 -0.028101329 0.0050023757 0.10541931 -0.091381356
-0.00072076445 -0.005190917 0.10819285 -0.031748824 0.07040571 -0.03733387 -0.038873687 -0.00764579
-0.016050564 -0.03363687 0.08511383 -0.18744588 -0.07595182 0.038681395 -0.13754244 0.035893783
0.066772774 0.106577754 -0.10568826 -0.091738716 -0.05099251 -0.017044008 0.09458087 0.044323597
0.0310018 0.06830938 0.18314117 0.10580286 -0.08950959 -0.17822956 -0.115503475 -0.03283045
0.04039199 0.09362705 -0.06802354 -0.046439424 0.057505798 0.06610683 -0.042217523 0.03584509
0.075867474 0.05110712 0.056406815 -0.11300822 -0.058289494 0.013707443 0.05204235 0.027077988
-0.055745594 0.089947544 0.22147943 -0.022092054 -0.0010020885 0.055943318 0.006985461 0.10221655
-0.069083296 0.17993778 0.014748195 -0.090329304 0.019340634 -0.033558477 -0.12745337 0.03336136
-0.01830899 0.018588865 0.06584081 0.2183085 0.079351604 0.07947118 0.070248954 -0.12196111
0.00031859384 0.033431526 -0.026810551 -0.1266527 -0.085680775 -0.034529153 0.17714022 0.06739388
0.11534515 -0.07027478 -0.09880659 0.082477845 0.04122179 0.06970176 0.12569179 0.05070301
0.027391842 -0.01809972 0.04232963 0.0020385084 0.12231537 -0.09004685 0.0026381826 0.028173713
0.0029016356 0.06623813 0.04170261 -0.037296038 -0.004416851 -0.116958864 -0.048253458 0.011584495
0.044739343 0.04980816 -0.029759914 0.046186637 0.11452048 0.11372699 0.035211056 0.08712271
-0.02315441 0.0526516 -0.091853596 0.085965574 0.14608008 -0.1648166 0.021019861 -0.10888425
0.03279007 -0.043880384 0.12168522 0.004971113 0.099858075 -0.25198326 0.046041243 0.060111385
0.06622322 -0.08072832 0.17406549 0.040416487 0.0052563758 0.1367627 -0.025941806 0.044900555

conv4.bias f4 [64]
00000000: 7df0 093c 299c debb fff9 573c 2b02 28bb
00000010: 9eff 8abb ae71 ecbb ed16 07bc c7e3 81bc
00000020: 8d57 bf3b 1861 30bc 23d3 4dbb 4822 d13b
00000030: 3e46 743b c81d 9dbc 1021 d4ba e534 7f3c
00000040: 31eb 1e3b e3fc 34bc 50c9 96bb 3caf 463c
00000050: efdd eabb ccd4 753c 81d2 053c 1afd 51ba
00000060: e642 11bc b023 ae39 337e 14bc 61fc 8fba
00000070: 3762 5abc 7267 0b3c d0dd 77bc 3d95 06bb
00000080: 5b1a 173c 5d80 19ba 8de7 0dbb 6fdf f03a
00000090: 715c 693c 098a 8cb8 d73b a33a c24e a13c
000000a0: 7772 8d3c 9919 94bb 91a7 073b 9709 0fbc
000000b0: f809 8139 6b46 c23c 31b2 a13c 9479 473b
000000c0: 4d14 66b9 b56f d73a 7f65 c13b 7c05 0dbc
000000d0: 617d aa3b d7f0 2339 2dde 5ebb b406 14bc
000000e0: 3b8d 0ebc c01f 5c3c 5527 adbb a478 133c
000000f0: 499b 153b 5eaf 3f3c 96cc 87bc ef9a 23bb
0.008419153 -0.006793518 0.013182162 -0.0025636058 -0.0042418977 -0.0072157 -0.008245212 -0.015855683
0.0058392943 -0.010765336 -0.0031406365 0.0063822605 0.0037273313 -0.01917924 -0.001618417 0.015576576
0.0024249072 -0.011046621 -0.004601635 0.01212674 -0.00716757 0.015004348 0.008167864 -0.00080104324
-0.0088660475 0.00033214455 -0.009063291 -0.0010985249 -0.01332908 0.00850855 -0.015128568 -0.002053573
0.009222592 -0.00058556144 -0.0021652908 0.0018377135 0.014243231 -6.701431e-05 0.0012453747 0.019690875
0.017266495 -0.004519653 0.0020699243 -0.008730314 0.00024612225 0.023715219 0.019738289 0.0030437456
-0.00021942072 0.001643649 0.005901992 -0.008607265 0.0052029346 0.00015634611 -0.0034006939 -0.009034801
-0.008700664 0.013435304 -0.0052842298 0.009000931 0.0022828153 0.011699526 -0.016577046 -0.0024964174

bn4.weight f4 [64]
00000000: c7f7 803f 78ad 803f 5806 813f 12c3 7e3f
00000010: 2af9 803f 3d24 803f 11b5 803f abf4 803f
00000020: ba05 7f3f 7840 823f 3cd3 803f 46e3 7f3f
00000030: 661f 803f 708a 813f 23d6 7f3f 19d3 803f
00000040: 9482 7f3f 9c4c 813f a0a4 803f 5888 7f3f
00000050: 7019 833f 9907 823f 611d 823f 5ae4 803f
00000060: 6023 7f3f d520 7f3f bf3c 803f 235f 813f
00000070: 4e27 7d3f 96df 803f b515 823f b389 7e3f
00000080: 4800 823f 47f6 7f3f 7ba9 813f 4837 833f
00000090: bf33 823f f0c9 7a3f a2d9 7f3f 21e9 7d3f
000000a0: 673c 813f c3e5 803f e31c 813f dd43 813f
000000b0: 7852 803f d949 823f f95d 803f 871d 823f
000000c0: 56bf 823f 7ce6 7a3f 80e0 803f ae29 803f
000000d0: 1d19 813f 2ba3 773f f37e 803f 41db 803f
000000e0: ce3e 823f fc9d 803f 271d 803f 1774 813f
000000f0: 66ae 803f 54be 803f f541 813f 4847 813f
1.0075616 1.0052938 1.0080061 0.99516404 1.0076039 1.0011059 1.0055257 1.0074667
0.99618113 1.0175924 1.0064464 0.99956167 1.0009582 1.0120373 0.9993612 1.0064422
0.9980862 1.0101504 1.005024 0.9981742 1.0242138 1.0158569 1.0165216 1.0069687
0.9966335 0.9965947 1.0018538 1.0107158 0.988881 1.0068233 1.0162874 0.9942886
1.0156336 0.99985164 1.0129846 1.0251245 1.0172042 0.9796438 0.99941456 0.9918385
1.0096558 1.0070118 1.008694 1.0098835 1.0025167 1.0178787 1.0028678 1.0165261
1.0214641 0.9800794 1.0068512 1.001272 1.0085789 0.9673335 1.0038742 1.0066911
1.0175416 1.0048213 1.0008897 1.0113553 1.0053222 1.0058084 1.0098253 1.0099878

bn4.bias f4 [64]
00000000: d0ff 2cbb ec43 1b3c 8d61 95bb b141 9dbc
00000010: 80eb 1737 b696 cd3b ee31 14bb 7372 fa3b
00000020: 617b 3e3a 42db d4bb 912e 3b3b 4eb6 d93a
00000030: 73d3 f8bb ee1e 0bbc a34e 5cbc 2350 7ebc
00000040: 227a aebb 9076 e2bb 2445 3bbb 8ef9 39bc
00000050: 3517 dabb 8d79 a73c 9e30 2cba 2c1f 16bc
00000060: b331 8cbc 9eec f53a 7cde a83b da54 34bc
00000070: 74d8 9b3b f219 d7bb 1ef2 563c 2532 0cbb
00000080: 2df8 22bc 2e2a 853a d763 033c be23 a7ba
00000090: ac7f 71bb 2f18 dbbc 77e0 3f3c 72b9 8e3b
000000a0: 44da 373c 6f27 dfbb f668 ddba 7b90 1d3c
000000b0: e33e 10bb 9644 b03b eb8f 523c 8b2d 9c3b
000000c0: 1211 ecbb 9e61 bebc 6940 bebb 01a2 683c
000000d0: f931 bb3b 6e0d 16bd 62ff 47bc d42e 85ba
000000e0: 1493 513a 28c5 283c 5fec 10bc c497 e83b
000000f0: dbbf 42bc 2522 3cbc 6206 273c c17a 743c
-0.0026397593 0.009476643 -0.004558748 -0.019196363 9.055133e-06 0.0062740697 -0.0022612768 0.007643038
0.00072663097 -0.006495864 0.0028561691 0.0016610117 -0.007593566 -0.008491261 -0.013446483 -0.015522036
-0.005324618 -0.0069111064 -0.0028575147 -0.011351002 -0.0066555985 0.020443702 -0.0006568524 -0.009162705
-0.017113542 0.0018762534 0.0051534753 -0.011006558 0.004756028 -0.006564372 0.013119249 -0.0021392193
-0.009946865 0.0010159665 0.008019409 -0.0012751741 -0.003684978 -0.02674493 0.011711231 0.004355603
0.011221472 -0.006810121 -0.0016892243 0.009616966 -0.002201014 0.00537927 0.0128516955 0.0047661713
-0.0072041834 -0.023239907 -0.005806018 0.014198781 0.0057127443 -0.0366339 -0.012206884 -0.0010161051
0.00079946336 0.010300912 -0.008845418 0.00709817 -0.011886562 -0.01148275 0.010194393 0.014921845

bn4.running_mean f4 [64]
00000000: 41c5 5b3f 2c60 1abe 60ff a03e 437a 273f
00000010: 1d37 7a3f 6d96 6b3d 1d4e b7be 66e6 16bf
00000020: 3872 d3be 02db a73e 6100 403e f96e 39be
00000030: e1ec 65bd d159 52bd 0789 583e 0128 fd3e
00000040: a660 ecbe ab73 3abd 558d 073f a46c 17bf
00000050: 94b2 05be dd6d b7be d04f bd3e cc6f a83e
00000060: 4930 d63e 9e76 d7bd 3869 5d3e adea 663e
00000070: 6f8d a6be 2874 d7be 8e7f 623c e67a 603e
00000080: e672 b33e a5a1 b3be c2f4 3cbf 49fd ddbe
00000090: af00 a4be 8ce0 1e3c 7267 2abe 3de5 8dbe
000000a0: eceb 47bf 3fd4 17bf 2aaf dd3e a605 b8bd
000000b0: 2e18 483e 83e6 58be 4a09 ccbe aad5 a7be
000000c0: c426 413e 4916 f0be 54ff 823f 46ac 0dbf
000000d0: 9a20 f03b 4b0f 7f3e c3f3 373f 3294 d93e
000000e0: 7e2a fdbd 8a69 d0be 0f4c 503f c5ec 3abf
000000f0: 5f03 2c3e cb2e 0abf eb0c c4be 79dc a63d
0.8584786 -0.15075749 0.31444836 0.6542093 0.97740346 0.057516504 -0.35801783 -0.5894531
-0.4129808 0.32784277 0.18750145 -0.18108739 -0.05613411 -0.051355187 0.21146022 0.49444583
-0.46167487 -0.045520466 0.5295003 -0.5915015 -0.13056403 -0.35826007 0.36974955 0.32897794
0.41833714 -0.10520671 0.21622169 0.22550459 -0.3252978 -0.42080808 0.013824357 0.21921882
0.35048598 -0.35084262 -0.7381097 -0.43357304 -0.32031772 0.009697091 -0.16641024 -0.27713957
-0.78094363 -0.59308237 0.43297702 -0.08985452 0.19540474 -0.21181683 -0.39850837 -0.327802
0.18862444 -0.46892002 1.023417 -0.55340993 0.007328105 0.24908178 0.71856326 0.42495877
-0.1236162 -0.4070552 0.81366056 -0.7301753 0.16798161 -0.5397765 -0.38291106 0.081475206

bn4.running_var f4 [64]
00000000: d259 713f e334 1d3f 623a 193f 1114 163f
00000010: 5a69 533f 0aeb 1d3f 29b7 ef3e 615e 643f
00000020: 065a 863f 2cd0 243f 0f1a 0a3f 1ce7 643f
00000030: aa5f f73e 7be1 2d3f 82fb 383f 912d fe3e
00000040: 72b6 123f 4f1c 533f 12b2 873f 357c 8a3f
00000050: 1133 403f 4b97 5e3f b24b 373f dbbd 8c3f
00000060: e6b8 483f 78c8 9a3f 1fb6 ec3e 2e59 4f3f
00000070: 7f11 7b3f 761c 043f f56b 593f 162e 4b3f
00000080: 9257 0a3f 84c0 473f 267d 273f d0b6 2f3f
00000090: fe8b 213f 7cda 183f 253a dd3f 1d30 373f
000000a0: 999e cb3f 7b16 6d3f 7d2c 1a3f b1ac 263f
000000b0: 17f3 ed3e 3ae2 2f3f 13f5 8f3f 1198 3b3f
000000c0: 584f 403f 6435 2f3f 4403 3a3f bc86 233f
000000d0: 1155 453f 3c28 1a3f 9d09 4b3f 1127 393f
000000e0: bc40 2b3f eac7 793f a3c5 773f 25c9 183f
000000f0: 05d8 1e3f 89cd 343f df0e 4e3f 9ab0 403f
0.9427768 0.61408824 0.5985471 0.5862437 0.8258263 0.61686766 0.46819428 0.8920651
1.0496223 0.64380145 0.5394601 0.89415145 0.48315173 0.6792218 0.7225877 0.4964414
0.5730964 0.8246507 1.0601218 1.0819155 0.7507792 0.86949605 0.71599877 1.0995439
0.7840713 1.2092428 0.46232697 0.8099545 0.9807357 0.5160593 0.84930354 0.79367197
0.5403987 0.7802813 0.65425336 0.68638325 0.63104236 0.5970838 1.7283369 0.7155779
1.5907775 0.9261243 0.60224134 0.65107256 0.46474525 0.6870457 1.1246666 0.7327891
0.7512107 0.6844084 0.7266123 0.63877463 0.77082926 0.6021764 0.79311544 0.72325236
0.6689565 0.9757067 0.96785945 0.5968192 0.6204837 0.7062612 0.8049144 0.7526947

lin.weight f4 [1, 64]
00000000: 0073 20bd 5399 f03d 9c34 94bd 964e dfbb
00000010: cc60 d4bd dbdb e83d 9d52 723d 64d5 d73d
00000020: d70b 063d 4d11 f7bd 5839 e53d 1744 443d
00000030: 0436 0b3d ed3d 95bd 39a8 a9bd de7f f0bd
00000040: 6b36 efbd 0957 9f3d e749 fbbd 272f 07bd
00000050: 0db6 17be 5feb c83d 1f86 09bd 2744 b4bd
00000060: ef07 9fbd eeab d33d ffcb 853d ea37 043e
00000070: e213 1d3d da6b eabd 534d f63d 1abd c63c
00000080: 3f80 04be 060f cc3c 95bd 6b3d b6d8 0abe
00000090: 5c83 0dbe 287b e9bb 552a 043d 26b6 a33d
000000a0: 60df d03d bd43 c6bd b948 7bbd 3c93 9c3d
000000b0: deea 733d e865 0c3e b857 fe3d c30f 0dbe
000000c0: 0cfb 9abd 5192 073c 9967 c6bc 254a 913d
000000d0: e860 4b3d 3d44 753b 593b bcbd bbd8 e0bd
000000e0: ca1d adbd 1fc3 4a3d e8b1 ccbd 5ab1 3d3d
000000f0: c1f4 5f3d e535 4c3d b648 9e3d 3d00 0b3d
-0.039172173 0.11747994 -0.07236597 -0.006814788 -0.10370025 0.11370059 0.059160817 0.10538748
0.032726135 -0.12063847 0.11192578 0.047916498 0.03398706 -0.07287202 -0.08284039 -0.11743139
-0.11680301 0.077802725 -0.12269955 -0.033003952 -0.1481554 0.098105185 -0.033575173 -0.088020615
-0.07765185 0.10335527 0.0653305 0.12911955 0.03834904 -0.11446352 0.12026467 0.024260093
-0.12939547 0.024909507 0.057553846 -0.13559231 -0.13819641 -0.007125277 0.032266933 0.079937264
0.101988554 -0.09680889 -0.06134865 0.0764527 0.05955016 0.13710749 0.12419075 -0.13775544
-0.07567415 0.008274631 -0.024219321 0.0709422 0.049652964 0.0037424706 -0.09191007 -0.10978838
-0.084529474 0.04950249 -0.099948704 0.046311714 0.054676775 0.049856085 0.07728712 0.033935774
