model/model.pt (torch, 206037 bytes, 51 tensors)

conv1.weight f4 [32, 1, 3, 3]
0.5177546 -0.088171914 -0.43608835 0.1572389 0.017750058 0.2874289 0.47536182 -0.9982137
-0.057247613 0.6819359 -0.33400512 -0.34735003 -0.055319082 0.9295456 1.0705771 0.24749328
0.3447415 -0.4909038 0.8679902 0.5505132 0.4072426 0.12674993 0.08562821 0.75273794
-0.0051330794 0.6121695 0.7026813 0.27991062 0.7038432 1.3008238 -0.05552481 -0.415454
0.29424083 -0.41111133 -0.6113855 0.66630244 0.041931584 -0.3733862 -0.20092992 0.5235607
-0.1932241 -0.89615035 0.66893196 -0.72182435 -0.528412 -0.12401862 0.25569066 0.86056066
0.75340295 0.51947874 0.23440737 0.36607474 0.046782374 -0.12267503 0.0070896447 -0.7482525
-0.6074828 -0.0646373 -0.90051234 0.005546875 0.18584554 -0.46084046 -0.13231504 -0.16365352
-0.5445455 -0.100171074 -0.10903934 0.5082835 0.17457668 0.25992113 -0.047945023 -0.8674707
-0.08087931 -0.6844517 -0.66007614 0.5817363 -0.30549634 0.5144878 -0.37461048 -0.31884333
1.2617296 -0.1140314 -0.3059656 -0.063778624 0.1770627 -0.76905674 0.4020468 -0.1446529
-0.7376631 1.1196566 0.29840556 -0.07850862 -0.00032034 0.5734604 -0.69879085 -0.4876973
-0.72941476 1.0479096 0.08784147 -0.62210345 -0.40648365 -0.49344495 -0.43516484 0.98892236
-0.4433233 0.46418095 -0.08094051 -0.017038291 -0.9046148 -0.18660079 -0.09982432 0.6811521
0.6252529 0.64166737 -0.11780923 -0.87939817 -0.26255572 -0.75840175 0.700053 -0.71923095
0.054059718 0.64786696 0.19402082 1.0563539 0.24377793 -0.4846706 0.32709345 -0.7347558
-0.58868027 0.15038842 -0.68649733 0.28915185 0.053703677 -1.1207175 0.051431313 -0.026538562
0.57633287 -0.33829114 0.14204535 0.18016091 0.47407025 0.47135478 0.27524963 -0.27417046
-0.07129319 0.8746819 0.5035087 -0.20788535 -0.09585799 -0.63900626 -0.030773563 0.06449519
-0.3038883 0.15646407 -1.1116297 -0.08268978 -0.31754175 -0.9370047 -0.04429241 0.2980893
-0.59137845 0.32632834 -0.13690446 0.9563358 0.12442247 0.26922604 -0.091413036 -0.055576056
0.5137339 -0.45375285 -0.093795426 -0.6726845 -0.4113516 -0.296757 0.24693039 -0.107825175
-0.39521798 0.22401908 0.45265317 0.69426244 0.37856483 -0.2554897 -1.2074845 -0.8653385
1.2561805 -0.72724247 -0.047952376 0.0316482 -0.19299647 -0.46141472 -0.072219945 0.01346231
0.18780918 0.24840146 0.59057796 0.026431289 0.26198277 0.19834839 0.5833556 -0.32080933
-0.19218573 1.0280969 -0.6976999 -0.13602453 -0.5492258 -0.5822938 0.29784092 -0.6256799
0.4302916 0.121715024 0.33410436 0.19717982 -0.5614176 -0.14895314 0.33813477 -1.1306248
0.50837874 0.10564193 0.3994631 -0.12830493 -0.1628627 0.6602565 0.6462292 0.6303022
0.41104525 -0.37288117 -0.10623409 0.29948395 -1.1815811 -0.37816155 -0.15007141 0.26817286
0.35085705 0.39091036 0.7639339 0.10885049 -0.05905638 -0.1609596 0.04857318 0.009554237
0.42930785 0.45956573 -0.09680149 -0.08268899 -0.25968918 0.45158246 0.39711443 -0.50753677
0.39090618 0.23164317 1.0286459 0.2095902 -0.084229715 0.027242595 -0.44235086 0.370855
00000000: 918b 043f 7a93 b4bd f946 dfbe 3c03 213e
00000010: 9268 913c e129 933e a062 f33e ef8a 7fbf
00000020: 797c 6abd 5a93 2e3f b802 abbe ddd7 b1be
00000030: 4396 62bd b3f6 6d3f ac08 893f e16e 7d3e
00000040: f581 b03e be57 fbbe 9b34 5e3f 6fee 0c3f
00000050: 1a82 d03e bcca 013e d85d af3d 6fb3 403f
00000060: 6433 a8bb 24b7 1c3f ece2 333f 7250 8f3e
00000070: 112f 343f 6581 a63f fc6d 63bd 63b6 d4be
00000080: bca6 963e 2f7d d2be c383 1cbf cc92 2a3f
00000090: 74c0 2b3d 7a2c bfbe 93c0 4dbe 1308 063f
000000a0: 8adc 45be 1c6a 65bf 203f 2b3f 7bc9 38bf
000000b0: 0246 07bf 79fd fdbd e3e9 823e b44d 5c3f
000000c0: 04df 403f 8ffc 043f 7c08 703e 266e bb3e
000000d0: e09e 3f3d 0c3d fbbd 4050 e83b 7a8d 3fbf
000000e0: fe83 1bbf 9060 84bd fa87 66bf 8fc2 b53b
000000f0: 4b4e 3e3e 48f3 ebbe 987d 07be ca94 27be
00000100: 5567 0bbf 7e26 cdbd 0450 dfbd de1e 023f
00000110: 3bc4 323e 6214 853e 0062 44bd 8f12 5ebf
00000120: 0da4 a5bd 3a38 2fbf c0fa 28bf acec 143f
00000130: 046a 9cbe 79b5 033f f2cc bfbe 6f3f a3be
00000140: 5b80 a13f 4b89 e9bd 86a7 9cbe 5e9e 82bd
00000150: ed4f 353e e7e0 44bf 14d9 cd3e e41f 14be
00000160: 7dd7 3cbf e850 8f3f 9dc8 983e 21c9 a0bd
00000170: 4ff3 a7b9 4dce 123f f5e3 32bf 76b3 f9be
00000180: edba 3abf e721 863f 3be6 b33d 2c42 1fbf
00000190: a01e d0be d1a4 fcbe edcd debe 042a 7d3f
000001a0: 46fb e2be 20a9 ed3e 23c4 a5bd e393 8bbc
000001b0: d694 67bf 4714 3fbe b170 ccbd fc5f 2e3f
000001c0: 9310 203f 5044 243f f745 f1bd 3d20 61bf
000001d0: b46d 86be 9e26 42bf ac36 333f 851f 38bf
000001e0: b96d 5d3d 9cda 253f 65ad 463e 9b36 873f
000001f0: eca0 793e bf26 f8be cb78 a73e f518 3cbf
00000200: c0b3 16bf 6cff 193e 4abe 2fbf b60b 943e
00000210: 63f8 5b3d ac73 8fbf a4a9 523d 6667 d9bc
00000220: 8d8a 133f 7f34 adbe 5674 113e 1a7c 383e
00000230: 56b9 f23e 6a55 f13e 85ed 8c3e 1260 8cbe
00000240: 2a02 92bd 27eb 5f3f f2e5 003f e6df 54be
00000250: 3251 c4bd ea95 23bf d718 fcbc 0e16 843d
00000260: 3f97 9bbe 1e38 203e e249 8ebf 4259 a9bd
00000270: d594 a2be 8adf 6fbf f56b 35bd 299f 983e
00000280: 9464 17bf 8214 a73e af30 0cbe 6cd2 743f
00000290: 35d1 fe3d ffd7 893e c236 bbbd b8a3 63bd
000002a0: 1184 033f 4b52 e8be d117 c0bd 0d35 2cbf
000002b0: ad9c d2be 89f0 97be 52db 7c3e 72d3 dcbd
000002c0: 035a cabe 4265 653e 28c2 e73e 2fbb 313f
000002d0: 40d3 c13e 8ccf 82be da8e 9abf d386 5dbf
000002e0: 86ca a03f 902c 3abf b669 44bd 8ba1 013d
000002f0: dea0 45be 8d3e ecbe 0de8 93bd 0591 5c3c
00000300: 0d51 403e f45c 7e3e 1e30 173f 6e86 d83c
00000310: 9b22 863e d71b 4b3e cb56 153f 1f41 a4be
00000320: 56cc 44be ae98 833f 769c 32bf 044a 0bbe
00000330: 109a 0cbf 3511 15bf 9b7e 983e 8f2c 20bf
00000340: 2e4f dc3e ba45 f93d ba0f ab3e 82e9 493e
00000350: 10b9 0fbf 2c87 18be 0020 ad3e 50b8 90bf
00000360: 1c25 023f cc5a d83d 6d86 cc3e 5e62 03be
00000370: 7bc5 26be 9206 293f 476f 253f 7c5b 213f
00000380: 8674 d23e 48ea bebe 4291 d9bd f655 993e
00000390: 0d3e 97bf 649e c1be 52ac 19be f44d 893e
000003a0: 89a3 b33e 6725 c83e 2c91 433f 01ed de3d
000003b0: 1ae5 71bd 98d2 24be acf4 463d 6089 1c3c
000003c0: 3dce db3e 334c eb3e dc3f c6bd d858 a9bd
000003d0: fbf5 84be d135 e73e 9552 cb3e eeed 01bf
000003e0: db24 c83e de33 6d3e abaa 833f d09e 563e
000003f0: a180 acbd dd2b df3c d07b e2be b5e0 bd3e

conv1.bias f4 [32]
0.010634409 0.0013075554 0.023018368 -0.02510185 0.027877789 0.012653519 0.0027407561 0.0025445062
0.034241542 0.033720225 -0.001958616 0.002983609 -0.0070037646 0.026185201 -0.034008313 -0.0073110843
-0.009219247 -0.015774028 0.007755384 -0.014822659 0.023965813 0.05445807 0.011513953 0.014513905
-0.0067503047 0.032460034 -0.024834312 -0.03294313 0.0075565665 -0.013025554 0.0052855555 0.0017698673
00000000: f23b 2e3c 4762 ab3a 0491 bc3c 65a2 cdbc
00000010: f65f e43c b550 4f3c 429e 333b bbc1 263b
00000020: dc40 0c3d 381e 0a3d 205c 00bb a788 433b
00000030: d67f e5bb 5982 d63c 4d4c 0bbd d291 efbb
00000040: 530c 17bc 8938 81bc e020 fe3b bdda 72bc
00000050: f453 c43c 6d0f 5f3d 05a5 3c3c bbcb 6d3c
00000060: a931 ddbb d0f4 043d 5471 cbbc 60ef 06bd
00000070: 139d f73b 2269 55bc 7432 ad3b e4fa e73a

bn1.weight f4 [32]
1.0272576 0.9929903 0.98136514 1.0287492 1.0287404 0.9730917 0.9992812 0.9899785
0.9872774 0.9818033 1.0356942 1.0037153 1.0133111 1.0032489 0.9876663 0.97656614
1.0322971 0.9658583 1.0177776 1.0023166 0.9850185 0.9875746 0.97534186 0.9769098
1.0024492 0.9982209 0.98136735 0.997127 1.0364577 1.00068 0.9756715 0.9882554
00000000: 2d7d 833f 9d34 7e3f bf3a 7b3f 0eae 833f
00000010: c4ad 833f 8a1c 793f e5d0 7f3f 3b6f 7d3f
00000020: 36be 7c3f 7657 7b3f a191 843f be79 803f
00000030: 2eb4 813f 766a 803f b3d7 7c3f 3d00 7a3f
00000040: 5022 843f 7d42 773f 8946 823f e94b 803f
00000050: 2c2a 7c3f b0d1 7c3f 01b0 793f c316 7a3f
00000060: 4150 803f 688b 7f3f e43a 7b3f b743 7f3f
00000070: a5aa 843f 4816 803f 9cc5 793f 4efe 7c3f

bn1.bias f4 [32]
0.020175321 -0.007615883 -0.000999574 0.08965212 0.05798264 -0.027381277 0.0005283498 0.015529079
0.019001786 0.062132116 0.024580123 -0.09620618 0.037145883 0.031496905 0.010738795 -0.065166906
0.10937023 0.0043645706 0.052256692 0.06823714 -0.029630236 0.037826676 0.02468874 0.0068810014
0.06562436 0.04673206 -0.026620913 0.006107587 -0.0027526678 -0.0023639137 -0.0015126811 -0.043689802
00000000: b746 a53c a88e f9bb 2304 83ba 889b b73d
00000010: 347f 6d3d b34e e0bc f480 0a3a ae6d 7e3c
00000020: a2a9 9b3c 3f7e 7e3d 415c c93c bf07 c5bd
00000030: 4826 183d e602 013d c5f1 2f3c 3a76 85bd
00000040: 80fd df3d ac04 8f3b 1d0b 563d eabf 8b3d
00000050: 1cbb f2bc 25f0 1a3d 0a40 ca3c 067a e13b
00000060: 1166 863d 1e6a 3f3d 1a14 dabc 2722 c83b
00000070: 1a66 34bb e4eb 1abb 2845 c6ba 14f4 32bd

bn1.running_mean f4 [32]
0.036740333 -0.35060623 -0.68866616 -0.3298931 0.31817925 -0.47474542 0.47703147 0.15752244
0.046664923 0.11196419 -0.0020138177 0.18424715 0.08417005 -0.1365242 0.3580694 -0.26443148
-0.023090035 0.3834778 -0.1731655 0.028661557 0.3049237 -0.115847506 0.10777905 0.19583547
-0.5414101 0.18547347 -0.28387508 -0.35623893 0.15330735 -0.27859873 -0.36453995 -0.16581443
00000000: 087d 163d a982 b3be 6d4c 30bf c0e7 a8be
00000010: 64e8 a23e d511 f3be 783d f43e 904d 213e
00000020: b823 3f3d 7b4d e53d 41fa 03bb 49ab 3c3e
00000030: 5961 ac3d 00cd 0bbe df54 b73e 9063 87be
00000040: 5027 bdbc 3457 c43e 4c52 31be a4cb ea3c
00000050: f61e 9c3e 7541 edbd 43bb dc3d 1889 483e
00000060: da99 0abf c2ec 3d3e 1358 91be f364 b6be
00000070: 9afc 1c3e 7ea4 8ebe fba4 babe 42cb 29be

bn1.running_var f4 [32]
1.2081627 11.153186 20.09805 15.49858 3.438967 12.142005 10.4276085 2.5471823
8.035451 1.0853003 1.1044071 7.2302985 11.831615 6.3687096 6.106761 3.3013475
6.472955 9.824295 2.7845254 12.148602 4.335852 4.586211 1.9349587 2.584699
11.936575 9.518808 3.1262696 6.914981 4.1977816 2.7911575 7.3693466 1.6361662
00000000: 13a5 9a3f 7373 3241 cec8 a041 2ffa 7741
00000010: 0918 5c40 a745 4241 7cd7 2641 0905 2340
00000020: 3591 0041 1feb 8a3f 365d 8d3f 9b5e e740
00000030: 4c4e 3d41 78cc cb40 966a c340 4749 5340
00000040: 7322 cf40 5030 1d41 aa35 3240 ac60 4241
00000050: 4dbf 8a40 3ec2 9240 baac f73f b56b 2540
00000060: 36fc 3e41 0a4d 1841 cd14 4840 8647 dd40
00000070: 3a54 8640 53a2 3240 b0d1 eb40 e56d d13f

conv2.weight f4 [32, 32, 3, 3]
-0.036604267 -0.07365221 -0.009427728 0.08122727 -0.12363552 -0.14130479 0.06485401 -0.039427772
-0.037986305 -0.042137206 0.089599416 0.027254866 0.06375528 0.13873349 -0.06715781 0.070373364
0.0890981 0.04941303 0.10527487 0.15449814 -0.07759028 -0.023917958 0.008171644 0.09252925
0.052723214 -0.04090922 -0.047125828 -0.05227647 0.14750388 -0.051674377 -0.036381688 -0.037736896
-0.1787453 0.06373057 0.046921577 0.012943852 -0.024812674 -0.006219513 -0.07918114 0.22351614
-0.03126658 -0.0951712 -0.0030538333 -0.042096633 0.026472941 -0.115693435 -0.0569179 0.028470412
-0.0376293 -0.014551117 -0.054348405 -0.06523051 -0.027370133 -0.07627253 -0.026202008 -0.016609823
-0.09627262 -0.063876085 -0.04098443 -0.020022737 -0.057878017 0.005434048 0.025409454 -0.07723196
0.08824979 -0.039085038 -0.00918719 0.045153733 0.012150625 -0.14338368 0.074920535 0.08832812
0.08632094 0.04269337 0.024570253 -0.09714331 -0.04243807 -0.062188163 0.05701451 0.0507454
0.023974938 -0.18071195 0.032576133 0.25044742 0.04186081 -0.024094863 0.11341419 0.13525417
-0.034668222 -0.1381206 -0.020622987 -0.02476788 -0.12357595 0.001569715 0.05284135 0.059717964
-0.021219578 0.0483605 0.052169163 0.14422101 0.0041877353 0.09651226 -0.04610379 -0.11793461
0.022882156 -0.112796396 -0.04062697 -0.033737797 -0.06810444 -0.07592599 0.011973542 0.11601497
-0.060475346 -0.13651924 -0.07621266 0.15306988 -0.11761415 -0.037078958 0.01399797 -0.0062520234
-0.034927297 0.0027598212 0.18306907 0.045080304 -0.06276672 0.044241037 0.060210574 -0.0046235383
0.09118442 -0.0024783837 -0.0462499 -0.01306372 0.0027691305 -0.08814245 -0.0014187432 0.12308145
-0.014277745 -0.0147143705 0.03428849 -0.09913179 0.0027683643 -0.15993524 -0.01116967 0.025977438
0.030910341 -0.021468624 0.05609991 -0.09092708 0.03618365 -0.15028556 0.12224412 0.0196525
-0.09925207 0.03919923 -0.04335185 0.024009269 0.08919128 0.054535083 0.07929558 -0.23463081
-0.10715527 -0.04918806 0.12422676 0.024330473 0.14327258 0.016283559 -0.074306995 0.056788202
0.017244743 -0.033987857 -0.03960566 -0.04293564 0.026676685 0.092161916 -0.10495295 0.07616855
-0.087346606 -0.00023936789 -0.03740914 0.10758902 -0.0058288802 -0.05870543 0.06536923 0.06371912
0.042720355 0.008683931 0.12802386 -0.0078367805 -0.11382788 0.040630974 -0.07588838 0.009856593
-0.04136776 0.062324956 -0.058196332 -0.007416215 -0.06291789 -0.016227175 -0.07773456 -0.15587778
-0.019740107 0.00844632 0.122576565 0.07794744 -0.026892582 -0.047902852 -0.0646493 0.08937313
0.022208601 -0.036310475 -0.09407753 0.078787014 0.041333813 -0.12563562 0.06252432 -0.01108147
-0.040709917 -0.04691075 0.07835044 -0.0663664 0.05263406 0.2678332 -0.009649823 -0.11314071
-0.05626691 0.08703268 -0.077875786 -0.13029568 0.18397777 0.020816728 -0.081721276 0.014476832
-0.13614537 -0.007529602 0.047715172 -0.053257484 -0.007976557 0.043195114 -0.12919556 -0.1151231
0.041504525 0.024351656 0.051633127 -0.038250316 -0.12337776 -0.15252596 0.030530466 0.0032417527
0.12523761 0.091532744 -0.15538149 0.008879215 -0.06658269 -0.024867874 -0.12968837 0.00921597
00000000: 5bee 15bd f8d6 96bd c276 1abc 7c5a a63d
00000010: 9f34 fdbd 34b2 10be 2ed2 843d 047f 21bd
00000020: 8797 1bbd 1098 2cbd e67f b73d 9945 df3c
00000030: 2192 823d 2710 0e3e 098a 89bd e91f 903d
00000040: 1179 b63d 5165 4a3d 5a9a d73d c334 1e3e
00000050: a7e7 9ebd 98ef c3bc 5ce2 053c fa7f bd3d
00000060: 4cf4 573d 6d90 27bd 0307 41bd da1f 56bd
00000070: 420b 173e 83a8 53bd f704 15bd 0192 1abd
00000080: 0209 37be 2c85 823d d730 403d 7312 543c
00000090: f343 cbbc 0ecd cbbb b929 a2bd 6ae1 643e
000000a0: 6311 00bd 1ee9 c2bd d222 48bb 856d 2cbd
000000b0: c8dd d83c aef0 ecbd be22 69bd c83a e93c
000000c0: 2e21 1abd cf67 6ebc 6f9c 5ebd 9397 85bd
000000d0: 5437 e0bc c634 9cbd 98a5 d6bc 5311 88bc
000000e0: 942a c5bd 77d1 82bd 4adf 27bd b906 a4bc
000000f0: 8011 6dbd 1910 b23b 7d27 d03c ca2b 9ebd
00000100: 4ebc b43d a217 20bd de85 16bc 1ff3 383d
00000110: 6a13 473c 2cd3 12be f06f 993d 60e5 b43d
00000120: 08c9 b03d 3edf 2e3d 8e47 c93c 12f3 c6bd
00000130: 8bd3 2dbd 04b9 7ebd 0c88 693d 69da 4f3d
00000140: 1767 c43c 8e0c 39be 8d6e 053d a53a 803e
00000150: 3e76 2b3d 9762 c5bc b345 e83d 1280 0a3e
00000160: 4400 0ebd 7d6f 0dbe 8af1 a8bc 02e6 cabc
00000170: 6315 fdbd e5be cd3a 2c70 583d d39a 743d
00000180: aed4 adbc a915 463d 55af 553d acae 133e
00000190: 4539 893b 38a8 c53d 54d7 3cbd b387 f1bd
000001a0: 5c73 bb3c cc01 e7bd 7768 26bd a530 0abd
000001b0: 577a 8bbd 167f 9bbd ad2c 443c 4299 ed3d
000001c0: ffb4 77bd b3cb 0bbe 6215 9cbd 5abe 1c3e
000001d0: b0df f0bd 1be0 17bd be57 653c c6dd ccbb
000001e0: ed0f 0fbd 1ede 343b 7576 3b3e 20a6 383d
000001f0: d78b 80bd 1736 353d 5d9f 763d 0d81 97bb
00000200: e6be ba3d 616c 22bb 8970 3dbd 3709 56bc
00000210: 4d7a 353b 0784 b4bd 1ff5 b9ba 2112 fc3d
00000220: 34ed 69bc 8b14 71bc 1672 0c3d 9c05 cbbd
00000230: 726d 353b 10c6 23be fe00 37bc a3ce d43c
00000240: af37 fd3c f8de afbc 05c9 653d fa37 babd
00000250: 4f35 143d 75e4 19be 205b fa3d 48fe a03c
00000260: ab44 cbbd 5f8f 203d b691 31bd 16af c43c
00000270: eba9 b63d 2e60 5f3d b965 a23d 0f43 70be
00000280: 3974 dbbd 6b79 49bd 996a fe3d b350 c73c
00000290: 0cb6 123e 1965 853c 442e 98bd bf9a 683d
000002a0: d944 8d3c da36 0bbd 8b39 22bd 48dd 2fbd
000002b0: 1089 da3c 63bf bc3d 92f1 d6bd 42fe 9b3d
000002c0: c7e2 b2bd d4fe 7ab9 543a 19bd a257 dc3d
000002d0: 3100 bfbb 1b75 70bd 4ee0 853d 2c7f 823d
000002e0: 8afb 2e3d 0c47 0e3c b018 033e d765 00bc
000002f0: 971e e9bd aa6c 263d 5e6b 9bbd 8c7d 213c
00000300: 3e71 29bd 7448 7f3d 475f 6ebd b803 f3bb
00000310: 18db 80bd daee 84bc 4c33 9fbd 6d9e 1fbe
00000320: 01b6 a1bc 6f62 0a3c 6c09 fb3d e8a2 9f3d
00000330: d54d dcbc c835 44bd da66 84bd 4209 b73d
00000340: d0ee b53c 4bba 14bd b8ab c0bd 165b a13d
00000350: a54d 293d a0a6 00be c00c 803d 0e8f 35bc
00000360: 71bf 26bd 7d25 40bd 3276 a03d 1beb 87bd
00000370: d096 573d 6f21 893e 4b1a 1ebc 51b6 e7bd
00000380: 2278 66bd 313e b23d 577d 9fbd 3b6c 05be
00000390: ab64 3c3e d887 aa3c 7c5d a7bd 3c30 6d3c
000003a0: b169 0bbe e1ba f6bb fc70 433d 8524 5abd
000003b0: 1bb0 02bc 5ced 303d d74b 04be a9c5 ebbd
000003c0: a600 2a3d 207d c73c 427d 533d 5dac 1cbd
000003d0: 7bad fcbd c42f 1cbe 071b fa3c 9673 543b
000003e0: 4a3e 003e 8575 bb3d 531c 1fbe 217a 113c
000003f0: 815c 88bd b6b7 cbbc 07cd 04be 94fe 163c

conv2.bias f4 [32]
-0.0033473333 0.007881441 -0.007483965 0.0069652866 -0.026775593 0.013596805 0.03148198 -0.005763697
-0.0011223312 -0.033655833 -0.010455692 0.0029156269 0.028159313 -0.005412803 0.012535095 -0.0064028134
-0.03322064 0.0075987503 0.008979343 0.044264175 -0.018677399 0.029659348 0.0023742104 -0.0028210026
0.016189896 0.031523835 -0.004063267 0.009415661 -0.021955574 -0.0032771744 0.0005623174 -0.019104589
00000000: ef5e 5bbb 2921 013c 0c3c f5bb 0f3d e43b
00000010: 7d58 dbbc 22c5 5e3c 40f3 003d 65dd bcbb
00000020: 301b 93ba b3da 09bd 5a4e 2bbc 1a14 3f3b
00000030: 5cae e63c e25d b1bb 0060 4d3c b1ce d1bb
00000040: 5e12 08bd f0fe f83b 181e 133c 5a4e 353d
00000050: 5801 99bc 29f8 f23c a498 1b3b 92e0 38bb
00000060: aca0 843c 231f 013d 2725 85bb 2544 1a3c
00000070: 2ddc b3bc ddc5 56bb 7b68 133a 3a81 9cbc

bn2.weight f4 [32]
0.97292084 1.0191648 1.0023158 1.0335648 0.9804943 0.998498 0.9832365 1.0065887
0.9804867 1.0178717 0.9814707 1.0101992 0.98315436 0.9823439 0.99912703 0.99294895
1.022301 0.9843167 0.9849473 0.99483514 1.0379032 0.99939394 1.0052193 1.0383853
1.0023626 0.9988475 1.011251 1.0095015 1.046369 1.0138786 0.9754511 1.0051906
00000000: 5711 793f fe73 823f e24b 803f da4b 843f
00000010: ad01 7b3f 919d 7f3f 63b5 7b3f e6d7 803f
00000020: 2d01 7b3f 9f49 823f aa41 7b3f 354e 813f
00000030: 01b0 7b3f e47a 7b3f cac6 7f3f e731 7e3f
00000040: c2da 823f 2efc 7b3f 8225 7c3f 84ad 7e3f
00000050: 03da 843f 48d8 7f3f 07ab 803f cfe9 843f
00000060: 6b4d 803f 78b4 7f3f ac70 813f 5837 813f
00000070: 6bef 853f c6c6 813f 2ab7 793f 16aa 803f

bn2.bias f4 [32]
-0.033017185 -0.03125984 0.010796564 0.048250698 0.048975796 -0.034234185 -0.027842548 -0.014513647
-0.054096147 -0.024421524 0.018625373 0.007804135 -0.03796837 0.009909262 -0.046554133 -0.019379757
-0.0399526 -0.019866029 -0.048208557 -0.030942421 0.006258992 -0.068493016 0.01271928 0.009716815
-0.00020370947 0.0058006044 -0.010581885 0.014837143 0.016275976 0.008693211 0.008616318 0.007230496
00000000: 073d 07bd 510a 00bd 12e4 303c 86a2 453d
00000010: d89a 483d 2539 0cbd 0e16 e4bc a6ca 6dbc
00000020: ec93 5dbd a60f c8bc 3d94 983c d4b9 ff3b
00000030: b984 1bbd 755a 223c 8caf 3ebd 4cc2 9ebc
00000040: 56a5 23bd 15be a2bc 5676 45bd f67a fdbc
00000050: 3b18 cd3b 1146 8cbd 8764 503c 4733 1f3c
00000060: d89a 55b9 ff12 be3b a55f 2dbc 7d17 733c
00000070: 3255 853c f86d 0e3c 752b 0d3c cced ec3b

bn2.running_mean f4 [32]
-0.43255618 0.3860742 -0.37293813 -0.43631473 -0.19803928 0.4266454 -0.040773727 0.36402693
1.0393994 -1.2541679 0.019889211 0.054834954 -1.415005 -0.07106324 -0.9568145 0.4548401
-1.6338419 -1.2480248 -1.3797302 0.5849884 -0.289936 -0.0053090807 -0.5367726 -2.147917
-1.7466742 -0.8991503 -0.55351394 -0.14922838 -0.45418677 -0.112959936 -0.036824755 -0.8301578
00000000: 0178 ddbe 84ab c53e bff1 bebe a564 dfbe
00000010: cfca 4abe 4471 da3e 5a02 27bd bd61 ba3e
00000020: 0a0b 853f 9388 a0bf b3ee a23c 9e9a 603d
00000030: e21e b5bf 9b89 91bd ccf1 74bf cde0 e83e
00000040: bb21 d1bf 47bf 9fbf 009b b0bf cdc1 153f
00000050: 7e72 94be ccf7 adbb ee69 09bf 7977 09c0
00000060: 0593 dfbf b72e 66bf 17b3 0dbf 53cf 18be
00000070: 2b8b e8be 8a57 e7bd 8ed5 16bd 3985 54bf

bn2.running_var f4 [32]
0.7635717 1.4337859 1.7606424 2.6060953 1.3788372 1.2314901 3.7680044 0.760647
3.9505084 3.3422341 1.5028843 1.8412384 4.1362863 1.7945349 2.5052733 2.4864497
7.93687 3.3854234 4.5315237 2.2511516 1.1282225 1.5836084 1.2610159 8.6490135
7.9403696 3.503811 1.5707864 0.70265234 1.831527 2.0850174 5.7302547 2.260271
00000000: 6f79 433f 4c86 b73f bb5c e13f 44ca 2640
00000010: bd7d b03f 78a1 9d3f fc26 7140 c3b9 423f
00000020: 21d5 7c40 2ae7 5540 835e c03f b3ad eb3f
00000030: 755c 8440 52b3 e53f 6656 2040 fe21 1f40
00000040: d7fa fd40 c7aa 5840 3e02 9140 de12 1040
00000050: 9869 903f aeb3 ca3f f868 a13f 5c62 0a41
00000060: 8217 fe40 703e 6040 870f c93f 06e1 333f
00000070: 7a6f ea3f ed70 0540 3f5e b740 48a8 1040

conv3.weight f4 [32, 32, 3, 3]
-0.01158794 0.10113244 -0.014919368 -0.07551818 -0.0036301664 0.050408777 -0.009174823 -0.012129559
-0.019705784 -0.015134757 0.12401704 0.106702834 0.048652414 -0.03098263 0.09266264 -0.038662758
-0.02780621 0.07215573 0.18295923 0.10185732 0.009044739 -0.061129924 -0.057392735 -0.021642063
-0.023812888 -0.0037235925 -0.014681566 0.07907452 0.09329833 0.108015515 -0.07037318 0.049482543
0.14340816 0.07117119 -0.02426756 0.04661074 -0.055383172 0.18834905 -0.08408109 0.04600581
0.0687109 -0.1285279 0.040554665 -0.07652363 -0.008498528 -0.004334032 -0.04634882 -0.1816257
-0.0529078 0.18792775 0.042604703 -0.10344287 -0.013345664 0.0803319 0.077969626 0.14394967
-0.06684947 -0.051547658 0.062455863 0.026328772 -0.071343996 0.01745383 -0.0059297686 -0.014443577
-0.067221105 0.042457163 -0.024715794 -0.09312309 -0.0067273304 0.07358206 -0.115554795 -0.016519507
-0.08643391 0.037054695 -0.016012918 0.07758477 0.14581548 0.042583276 0.0043403255 0.025618283
0.08171434 0.11089697 0.16727172 -0.10381554 -0.1731363 -0.037361458 -0.0076247817 -0.0654209
0.0024254106 -0.03955947 -0.01223782 -0.036728207 0.028612811 -0.081626795 0.015589928 0.06585218
0.06846118 0.16046274 0.0050046276 -0.07143767 0.0068764975 -0.21081059 0.019085633 0.072065204
-0.019335784 0.15054974 0.13177471 -0.06575809 -0.19635995 0.19944304 0.05674115 -0.0797257
0.21149717 0.11794648 0.026100107 -0.05002005 0.0011285787 -0.15614772 0.06933474 -0.010060433
0.10661073 0.06566814 -0.04642441 -0.01785441 -0.029131187 -0.2729152 0.087014444 0.10870219
0.21978767 0.23699057 -0.05850538 0.0797811 -0.012317875 -0.23713581 0.041644532 0.096429676
-0.09711885 -0.011414028 -0.09760239 -0.19653022 0.15411626 0.039431974 0.070205204 0.12328898
-0.09769831 0.0539347 0.022668192 -0.18076387 0.013097397 0.08883562 0.04811976 -0.112157784
0.052657474 0.27660936 0.048254315 -0.10776557 -0.035691977 0.012714751 -0.11602305 0.1321898
0.071148746 -0.0022293387 0.062242106 -0.05059078 0.16153789 0.1467576 0.047809076 -0.08529459
0.012822257 0.016109696 0.051329304 0.08487389 0.13687985 0.07558894 -0.0019436581 -0.04099347
0.13356046 0.017555399 -0.074529946 -0.05989377 -0.057745688 2.1812593e-05 0.027121808 -0.08758192
-0.070231654 -0.08174902 0.057903647 0.024766162 -0.08798474 0.06514212 0.054997046 -0.12982395
0.033277903 -0.012404115 -0.14595519 0.059801817 -0.102366984 0.074350245 0.1305255 -0.07086885
-0.05836065 0.16214849 0.079830386 0.05344099 0.099481575 -0.021337751 0.009779026 -0.025462218
-0.009824971 0.010628233 0.08670441 0.08996389 0.09881623 0.011179001 -0.08944698 -0.025607567
0.07057146 0.013078222 -0.07894605 0.07602241 -0.16281675 0.0053948406 -0.037057232 0.031224603
0.014360478 0.14418896 0.11035695 0.027538834 0.027730813 0.037353113 -0.042600587 -0.122397095
-0.15997273 0.016827375 0.019090602 0.08790716 0.10743197 -0.007249513 0.18509425 0.035596088
-0.038921 0.05474742 -0.069411986 0.19235948 -0.030481573 0.004506374 -0.009572125 -0.13875337
0.087417796 0.03980659 0.14500546 -0.102287985 0.25241452 -0.004330346 0.08234723 -0.10761577
00000000: 58db 3dbc 861e cf3d 5d70 74bc 47a9 9abd
00000010: 16e8 6dbb 6f79 4e3d ff51 16bc 0fbb 46bc
00000020: 066e a1bc c6f7 77bc a5fc fd3d 0487 da3d
00000030: c147 473d 49cf fdbc e9c5 bd3d d75c 1ebd
00000040: d9c9 e3bc 62c6 933d aa59 3b3e 929a d03d
00000050: 6330 143c 5f63 7abd a514 6bbd b24a b1bc
00000060: 3f13 c3bc 8407 74bb f38a 70bc d2f1 a13d
00000070: 3213 bf3d 3d37 dd3d d01f 90bd 35ae 4a3d
00000080: 97d9 123e 33c2 913d c3cc c6bc e7ea 3e3d
00000090: 77d9 62bd 93de 403e b532 acbd 9770 3c3d
000000a0: 4db8 8c3d d19c 03be a61c 263d 6cb8 9cbd
000000b0: 693d 0bbc 7f04 8ebb 43d8 3dbd 16fc 39be
000000c0: d9b5 58bd 2270 403e 4582 2e3d dbd9 d3bd
000000d0: c6a7 5abc 0d85 a43d 8aae 9f3d 8b67 133e
000000e0: 60e8 88bd a323 53bd b8d1 7f3d 70af d73c
000000f0: cd1c 92bd 56fb 8e3c 814e c2bb c1a4 6cbc
00000100: 38ab 89bd 90e7 2d3d c778 cabc 52b7 bebd
00000110: f070 dcbb 31b2 963d fea7 ecbd eb53 87bc
00000120: 4304 b1bd aac6 173d 862d 83bc c4e4 9e3d
00000130: a750 153e cd6b 2e3d 4a39 8e3b 6fdd d13c
00000140: d959 a73d f31d e33d 4749 2b3e 3e9d d4bd
00000150: a44a 31be 5408 19bd 4ed9 f9bb 65fb 85bd
00000160: a3f3 1e3b 1c09 22bd 2381 48bc 5170 16bd
00000170: 6a65 ea3c f32b a7bd e66c 7f3c 82dd 863d
00000180: 6035 8c3d 5850 243e dcfd a33b ea4d 92bd
00000190: 3e54 e13b bbde 57be 7959 9c3c ec96 933d
000001a0: 1466 9ebc b629 1a3e f3ef 063e 2dac 86bd
000001b0: 9512 49be cc3a 4c3e 6869 683d 3a47 a3bd
000001c0: b792 583e ed8d f13d e4cf d53c d3e1 4cbd
000001d0: d1ec 933a 30e5 1fbe 5fff 8d3d 84d4 24bc
000001e0: ba56 da3d 057d 863d 8627 3ebd 6943 92bc
000001f0: 87a4 eebc 8bbb 8bbe a134 b23d 419f de3d
00000200: 0510 613e a8ad 723e 56a3 6fbd 4664 a33d
00000210: ead0 49bc bbd3 72be 7593 2a3d ec7c c53d
00000220: 3fe6 c6bd e701 3bbc c3e3 c7bd 383f 49be
00000230: a7d0 1d3e 6c83 213d bfc7 8f3d ef7e fc3d
00000240: 0d16 c8bd a2ea 5c3d a5b2 b93c 2a1a 39be
00000250: 7796 563c 73ef b53d 3a19 453d fbb2 e5bd
00000260: 5daf 573d be9f 8d3e 51a6 453d 32b4 dcbd
00000270: c031 12bd 8851 503c 7e9d edbd c35c 073e
00000280: 6fb6 913d 191a 12bb 94f1 7e3d 4738 4fbd
00000290: 306a 253e a047 163e 73d3 433d eeae aebd
000002a0: 7214 523c 7bf8 833c ad3e 523d 5dd2 ad3d
000002b0: 3b2a 0c3e 60ce 9a3d 58c2 feba c5e8 27bd
000002c0: 13c4 083e 57d0 8f3c 28a3 98bd 2b53 75bd
000002d0: be86 6cbd 30fa b637 8e2e de3c 265e b3bd
000002e0: 9dd5 8fbd 086c a7bd 602c 6d3d 68e2 ca3c
000002f0: 5831 b4bd 3b69 853d 9544 613d 92f0 04be
00000300: 694e 083d a13a 4bbc 4775 15be c0f2 743d
00000310: c8a5 d1bd f144 983d 7aa8 053e b023 91bd
00000320: 940b 6fbd 410a 263e 1d7e a33d f1e4 5a3d
00000330: ffbc cb3d 82cc aebc 3538 203c 2496 d0bc
00000340: eaf8 20bc 0a22 2e3c 1592 b13d fd3e b83d
00000350: 2a60 ca3d 2128 373c fa2f b7bd f6c6 d1bc
00000360: c587 903d 0a46 563c 77ae a1bd a3b1 9b3d
00000370: 6fb9 26be 34c7 b03b 53c9 17bd bdca ff3c
00000380: 3648 6b3c 45a6 133e d302 e23d 1f99 e13c
00000390: bb2b e33c 94ff 183d f47d 2ebd 54ab fabd
000003a0: e4cf 23be 90d9 893c e563 9c3c ab08 b43d
000003b0: 4b05 dc3d 538d edbb 5989 3d3e 34cd 113d
000003c0: a06b 1fbd d53e 603d df27 8ebd e2f9 443e
000003d0: 7eb4 f9bc 34aa 933b 67d4 1cbc 5d15 0ebe
000003e0: 1a08 b33d 3c0c 233d 507c 143e 5d7c d1bd
000003f0: 7a3c 813e 93e5 8dbb aaa5 a83d a865 dcbd

conv3.bias f4 [32]
-0.0200059 0.0015369442 0.015246878 -0.005752148 -0.0051397155 -0.022596775 -0.0073130336 -0.0062807654
0.004517728 0.0039207954 -0.010142177 -0.00705589 0.017749276 0.0067298813 -0.013032518 -0.0030107938
-0.013773087 -0.0028587338 0.010633755 0.012315496 -0.00926362 0.0029577997 0.018255653 0.0049282033
-0.0025253906 0.011244065 0.0037563024 0.002431276 0.0037778488 -0.009823054 -0.00792962 0.03404344
00000000: 6ae3 a3bc 4a73 c93a 0bce 793c 847c bcbb
00000010: 0f6b a8bb df1c b9bc 2ca2 efbb e1ce cdbb
00000020: 7309 943b 047a 803b 602b 26bc 1835 e7bb
00000030: ee66 913c 5686 dc3b 5886 55bc bd50 45bb
00000040: 84a8 61bc 9859 3bbb 3339 2e3c efc6 493c
00000050: 70c6 17bc a5d7 413b e18c 953c c47c a13b
00000060: 0681 25bb 0739 383c 4c2c 763b 0b56 1f3b
00000070: c995 773b e0f0 20bc 3deb 01bc 2271 0b3d

bn3.weight f4 [32]
0.9823916 0.97797644 0.9774883 1.0139979 0.9822929 1.0157307 1.0306615 1.010445
0.9669514 0.9701133 0.9970803 0.9918646 1.0332208 0.9973509 1.0293037 0.99881536
1.016411 1.0192399 0.9596671 1.0145204 0.9676773 0.9864289 1.0160787 1.0063761
0.95237476 0.9870831 1.0177014 1.0012903 0.99841607 1.0135865 1.0076677 1.0264959
00000000: 047e 7b3f aa5c 7a3f ac3c 7a3f afca 813f
00000010: 8c77 7b3f 7703 823f b7ec 833f 4356 813f
00000020: 208a 773f 5859 783f a840 7f3f d7ea 7d3f
00000030: 9440 843f 6352 7f3f 39c0 833f 5db2 7f3f
00000040: c119 823f 7476 823f beac 753f cedb 813f
00000050: b3b9 773f 9b86 7c3f de0e 823f efd0 803f
00000060: d5ce 733f 7ab1 7c3f 0a44 823f 482a 803f
00000070: 3298 7f3f 34bd 813f 41fb 803f 3864 833f

bn3.bias f4 [32]
-0.0124492645 -0.0012618554 0.004333863 -0.010875919 -0.02489831 -0.0018416812 0.006886804 0.01655708
-0.029725753 -0.030016154 -0.019530209 0.016709344 0.0013549716 -0.020382889 0.01943114 0.011963791
-0.0056417175 -0.012884688 -0.03370017 -0.005072434 -0.026042122 -0.025833135 -0.0234782 0.017030345
-0.049840596 -0.013197934 0.013110394 -0.02444118 -0.010737448 -0.02456316 0.010481533 -0.0010044721
00000000: 00f8 4bbc d764 a5ba 1403 8e3b e930 32bc
00000010: 8af7 cbbc 9164 f1ba b3aa e13b b7a2 873c
00000020: 6c83 f3bc 70e4 f5bc d1fd 9fbc 09e2 883c
00000030: 4d99 b13a 04fa a6bc 0e2e 9f3c c703 443c
00000040: 28de b8bb 4c1a 53bc 3109 0abd a936 a6bb
00000050: 4a56 d5bc 03a0 d3bc 5b55 c0bc 3983 8b3c
00000060: a725 4cbd 263c 58bc facc 563c df38 c8bc
00000070: 1fec 2fbc ae38 c9bc bcba 2b3c 7ea8 83ba

bn3.running_mean f4 [32]
1.3091654 -0.7607809 -0.13340423 -0.27827793 -0.67489946 -0.418897 -0.71841997 -0.2620992
0.99666524 0.38461527 -0.68923473 0.10313422 0.0019170241 -0.84774417 -0.5204895 -1.478587
-0.44295165 -0.17036416 -0.38607988 -0.11855511 0.51007366 0.49437737 0.908397 -0.185198
-0.25331065 -0.5305226 -0.35139838 -0.74834967 -0.22060901 -0.7737328 -0.5841555 -0.04139681
00000000: bb92 a73f 89c2 42bf 1e9b 08be 727a 8ebe
00000010: 36c6 2cbf ab79 d6be 5fea 37bf de31 86be
00000020: 7425 7f3f 4bec c43e b071 30bf 0938 d33d
00000030: a844 fb3a c305 59bf cd3e 05bf 5742 bdbf
00000040: 8fca e2be f173 2ebe 43ac c5be 06cd f2bd
00000050: 3094 023f 081f fd3e b58c 683f 8ba4 3dbe
00000060: efb1 81be 54d0 07bf 7dea b3be d893 3fbf
00000070: 54e7 61be 5a13 46bf 378b 15bf b48f 29bd

bn3.running_var f4 [32]
1.4361922 1.1263565 0.824976 0.6303368 1.0633326 1.364229 1.4913663 0.8595784
1.3168321 0.8828505 0.9306734 0.5860341 1.1641761 1.159935 0.9576724 1.3829503
0.90914166 1.2376841 1.7549382 0.8480934 2.1043413 0.9991961 1.4184667 0.9531581
0.7674874 1.0791923 2.2249725 1.6007696 1.2222538 1.040292 0.77592796 1.3409202
00000000: 25d5 b73f 732c 903f a131 533f c15d 213f
00000010: 481b 883f 0e9f ae3f 17e5 be3f 540d 5c3f
00000020: f48d a83f 7e02 623f 9d40 6e3f 5506 163f
00000030: b903 953f c078 943f 052a 753f 8404 b13f
00000040: 82bd 683f 6f6c 9e3f d1a1 e03f a61c 593f
00000050: 87ad 0640 51cb 7f3f 5190 b53f 2b02 743f
00000060: 0e7a 443f f922 8a3f f365 0e40 05e6 cc3f
00000070: d072 9c3f 4a28 853f 37a3 463f 46a3 ab3f

conv4.weight f4 [64, 32, 3, 3]
-0.04365529 0.040692337 -0.074382246 0.04027465 -0.0758665 -0.06889644 0.12530904 0.039047197
0.26211068 -0.027011879 -0.041561194 -0.12413434 0.08155538 -0.03159682 0.025019433 0.2039597
-0.042653315 -0.10334127 0.09532774 0.022240786 0.0034777094 -0.14272839 -0.04597051 0.007792882
-0.08908304 0.03692532 -0.024795804 -0.03872227 -0.0003900639 -0.023380233 -0.04589073 0.120824665
0.032028988 -0.13847096 -0.093383245 -0.011278169 0.09975182 0.003582637 0.012322584 0.013555019
0.058475126 -0.038191993 0.051318407 0.033653494 -0.14269775 -0.08338349 -0.10175962 -0.0526706
-0.00695136 0.021267682 0.04057127 -0.015342074 0.033394095 -0.012573148 0.11485353 -0.04133412
0.09222961 -0.12650812 0.10240104 0.0042891875 0.004505936 -0.08246414 0.04337155 0.121016376
0.05995362 -0.114779234 0.033216007 0.011398519 0.02864578 0.06596713 0.15876068 0.020924954
0.025266385 -0.11487273 -0.07783735 0.13709506 -0.10448032 -0.02909042 0.010844146 0.10473081
-0.14189503 0.03417233 0.07984684 -0.025946014 0.06510656 -0.050428838 0.05427501 0.06674846
-0.014326099 0.078160256 0.052455325 -0.12258987 0.07220695 0.054170664 0.24555881 -0.011540771
-0.05867586 0.020667728 -0.04638138 0.16642135 0.171711 -0.0952175 -0.06369219 -0.09728964
0.054879047 0.022028212 -0.021347748 -0.044310626 -0.04206323 -0.057242252 0.01977311 0.024954721
0.038870737 0.03763292 -0.0018315448 0.031036098 -0.004794165 0.00024474683 0.03978778 0.0902276
0.026271679 -0.009514713 0.10977931 -0.0048960433 -0.019936873 -0.104751386 0.15602802 -0.037310194
0.094166525 0.06976397 0.0074575986 0.011094382 0.14972505 -0.07628989 -0.048143163 -0.06389433
0.057989318 -0.109183714 -0.012345253 -0.066241615 0.027632589 0.016759085 -0.075232685 -0.1031893
-0.03741464 -0.017098386 0.05018778 0.11314139 -0.028675484 0.10911214 0.021453649 -0.13635506
-0.10542664 -0.025261836 0.11853298 -0.112885214 -0.12151341 0.015582959 -0.1248097 -0.101498544
0.11781924 -0.030368008 -0.058566466 0.11813796 0.056270637 0.040849186 -0.03137552 0.049207672
0.12131636 0.12820767 0.08283721 -0.035739917 -0.05162268 0.08248273 0.16186601 -0.04759033
-0.057075214 0.08631497 -0.0733665 -0.08855301 -0.13496771 0.094660655 -0.06340042 -0.047209013
-0.006912457 -0.058366437 0.12906604 -0.02386334 -0.08962593 -0.011332773 -0.07155991 0.18303177
-0.021348264 -0.11148557 -0.068103306 0.0982247 0.1680028 0.017296156 -0.095307395 0.12845379
0.09935793 0.11104757 0.22700743 -0.06747418 -0.025316492 -0.052436076 -0.03152463 -0.13334367
-0.041229863 0.06671267 0.027303515 -0.09214118 0.010952725 -0.011348421 -0.0031405785 -0.006098549
-0.02672534 -0.05466327 -0.043662705 0.04015923 -0.07945338 0.17539135 -0.05036171 0.08311369
-0.042525582 0.104743406 -0.004069124 -0.22957219 -0.033269726 0.07947951 0.033906445 0.20326881
-0.01255988 0.32431594 0.11084474 -0.03808539 -0.010171733 -0.15115419 0.08073555 -0.032625064
0.17334339 0.017567104 -0.0770999 -0.015704317 0.12462347 -0.05074464 0.07080575 0.05031086
0.013100992 -0.0015440164 -0.09334675 0.011396047 -0.063674256 -0.06450872 0.11554128 -0.15758546
00000000: e4cf 32bd 02ad 263d b855 98bd 08f7 243d
00000010: e55f 9bbd 9419 8dbd 0351 003e f4ef 1f3d
00000020: 5f33 863e 0448 ddbc 123c 2abd 253a febd
00000030: 8206 a73d ab6b 01bd 8ef5 cc3c d0da 503e
00000040: 3eb5 2ebd 96a4 d3bd 313b c33d 4f32 b63c
00000050: 48ea 633b 6427 12be 934b 3cbd 6f5b ff3b
00000060: 2b71 b6bd 013f 173d 9220 cbbc 3e9b 1ebd
00000070: 7e81 ccb9 e787 bfbc ebf7 3bbd ec72 f73d
00000080: d430 033d 55cb 0dbe b73f bfbd 12c8 38bc
00000090: af4a cc3d adca 6a3b aae4 493c df15 5e3c
000000a0: 9d83 6f3d 356f 1cbd 4033 523d 3fd8 093d
000000b0: 5c1f 12be f7c4 aabd 5967 d0bd 21bd 57bd
000000c0: 3cc8 e3bb 9039 ae3c 0f2e 263d 535d 7bbc
000000d0: 3fc8 083d 9bff 4dbc 5438 eb3d f74d 29bd
000000e0: e1e2 bc3d 588b 01be a3b7 d13d 508c 8c3b
000000f0: 88a6 933b f6e2 a8bd 5ea6 313d 6fd7 f73d
00000100: ed91 753d 6011 ebbd 820d 083d dbc0 3a3c
00000110: 8eaa ea3c c619 873d 2992 223e cf6a ab3c
00000120: 73fb ce3c 6542 ebbd 3069 9fbd a662 0c3e
00000130: c7f9 d5bd 084f eebc a5ab 313c 1b7d d63d
00000140: ee4c 11be 49f8 0b3d bd86 a33d bc8c d4bc
00000150: 9756 853d 788e 4ebd 794f 5e3d 6bb3 883d
00000160: 04b8 6abc 7c12 a03d 65db 563d 6610 fbbd
00000170: 3de1 933d 0fe2 5d3d c573 7b3e 8115 3dbc
00000180: 1956 70bd 5e4f a93c 67fa 3dbd 5c6a 2a3e
00000190: 02d5 2f3e 6501 c3bd 0d71 82bd ca3f c7bd
000001a0: dac8 603d 8274 b43c 79e1 aebc 0f7f 35bd
000001b0: 7e4a 2cbd da76 6abd 38fb a13c d86d cc3c
000001c0: ec36 1f3d fa24 1a3d 7210 f0ba 6a3f fe3c
000001d0: 5f18 9dbb 5d51 8039 83f8 223d 3fc9 b83d
000001e0: b437 d73c 99e3 1bbc fad3 e03d fd6e a0bb
000001f0: a752 a3bc e587 d6bd cfc5 1f3e 93d2 18bd
00000200: 61da c03d 6ae0 8e3d df5e f43b 36c5 353c
00000210: 8651 193e e03d 9cbd c431 45bd 08db 82bd
00000220: 3586 6d3d b69b dfbd be43 4abc afa9 87bd
00000230: bd5d e23c 594a 893c 9813 9abd e954 d3bd
00000240: 1840 19bd ea11 8cbc b491 4d3d acb6 e73d
00000250: d9e8 eabc 3076 df3d 90bf af3c a9a0 0bbe
00000260: ece9 d7bd e9f1 cebc 6bc1 f23d 5d30 e7bd
00000270: 06dc f8bd ab4f 7f3c 3a9c ffbd 78de cfbd
00000280: 374b f13d 54c6 f8bc 64e3 6fbd 51f2 f13d
00000290: 0a7c 663d 7a51 273d 9e83 00bd fc8d 493d
000002a0: b674 f83d df48 033e 8ea6 a93d 0564 12bd
000002b0: 4e72 53bd b5ec a83d 34c0 253e 14ee 42bd
000002c0: b3c7 69bd e7c5 b03d 2d41 96bd 485b b5bd
000002d0: fa34 0abe 72dd c13d 14d8 81bd 3d5e 41bd
000002e0: e481 e2bb a511 6fbd e329 043e 0d7d c3bc
000002f0: cd8d b7bd 18ad 39bc 018e 92bd ae6c 3b3e
00000300: 8ee2 aebc 8c52 e4bd bf79 8bbd 082a c93d
00000310: ed08 2c3e abb0 8d3c 8630 c3bd 6489 033e
00000320: 2c7c cb3d e96c e33d a374 683e e72f 8abd
00000330: 8864 cfbc 36c7 56bd f81f 01bd 3e8b 08be
00000340: a5e0 28bd a7a0 883d 9fab df3c 84b4 bcbd
00000350: 0f73 333c baee 39bc 2ad2 4dbb 56d6 c7bb
00000360: 1aef dabc 98e6 5fbd aad7 32bd 017e 243d
00000370: 74b8 a2bd ca99 333e 1548 4ebd 8337 aa3d
00000380: 4e2f 2ebd b683 d63d 4956 85bb f914 6bbe
00000390: d645 08bd 27c6 a23d 7ce1 0a3d b325 503e
000003a0: f4c7 4dbc bd0c a63e 9102 e33d 6dff 1bbd
000003b0: 57a7 26bc 2ac8 1abe ae58 a53d dca1 05bd
000003c0: ee80 313e e3e8 8f3c 8de6 9dbd 57a6 80bc
000003d0: 973a ff3d 9dd9 4fbd 9b02 913d c312 4e3d
000003e0: 8ba5 563c 9860 caba 952c bfbd 7cb6 3a3c
000003f0: a667 82bd 261d 84bd e8a0 ec3d 155e 21be

conv4.bias f4 [64]
0.0020241083 -0.00025767754 0.0034469417 0.010067159 0.0056769466 -0.004385345 -0.007437642 -0.0054284274
-0.015702786 0.001410534 0.00016715082 0.006312679 0.010429153 -0.011538032 -0.0038365372 -0.0025189403
0.017118763 0.006349898 -0.011446861 0.0017784341 -0.0032509638 -0.0020218128 0.002685258 -0.009273645
-0.0044662124 -0.0023114707 -0.0008124521 0.0002845675 -0.0025557133 -0.015089571 0.004040527 0.0011678654
-0.0013558567 -0.004915727 -0.004540397 0.001039314 -0.013904526 0.01563831 0.012144486 0.013917139
0.00014554508 -0.005565439 0.02365004 0.0008684263 -0.005618189 -0.0014345321 -0.0033433405 -0.0049200077
0.0007513938 0.013204055 0.0053672087 -0.0075801956 0.0091233 0.0028741015 0.0069403653 0.016686732
-0.0075943344 0.00053139403 0.0130672 -0.014494957 0.0038077286 0.00041428194 0.00044925217 0.006687934
00000000: e7a6 043b e518 87b9 16e6 613b baf0 243c
00000010: ae05 ba3b f1b2 8fbb 77b7 f3bb f3e0 b1bb
00000020: 21a3 80bc abe1 b83a 3545 2f39 97da ce3b
00000030: 0adf 2a3c 040a 3dbc 6a6e 7bbb ce14 25bb
00000040: a63c 8c3c ce12 d03b 9d8b 3bbc 591a e93a
00000050: 1f0e 55bb 6480 04bb 27fb 2f3b 7cf0 17bc
00000060: 4e59 92bb 0b7c 17bb bdfa 54ba 0132 9539
00000070: c17d 27bb 3f3a 77bc 6666 843b 0f13 993a
00000080: 00b7 b1ba 1b14 a1bb 9cc7 94bb 9739 883a
00000090: cfcf 63bc ea1b 803c abf9 463c b604 643c
000000a0: 769d 1839 495e b6bb bbbd c13c 1aa7 633a
000000b0: c918 b8bb e906 bcba f21b 5bbb 0438 a1bb
000000c0: 2ff9 443a d255 583c 69df af3b 4a63 f8bb
000000d0: e579 153c 6c5b 3c3b 016c e33b 9db2 883c
000000e0: e5d9 f8bb 404d 0b3a cf17 563c 427c 6dbc
000000f0: 168b 793b fb33 d939 9b89 eb39 7526 db3b

bn4.weight f4 [64]
0.99662197 0.9939423 1.0173907 1.0064135 1.0210487 1.0172681 1.0035033 1.0013269
1.0175036 0.9637241 0.96938634 1.0119035 1.0135072 0.9986645 1.0022722 0.98621535
1.0182446 1.0045266 1.0169483 0.9724612 1.0110325 1.0104464 1.0083581 0.99589294
1.0158225 1.0146998 1.0096407 1.018856 1.0284706 1.0288 1.0102798 1.0214162
1.0030006 1.0091183 1.0171883 0.9806361 1.0155195 1.0108544 1.0053663 1.0112079
1.0078696 0.99593943 1.0218424 0.99756056 0.9999208 0.9828769 1.0188016 0.99967855
0.99400985 1.0052975 0.99934095 1.0307087 1.0002316 1.0083004 1.0174842 1.0091913
1.0027022 1.0061781 1.0065345 1.0235652 1.0301683 1.0129422 1.0119922 1.0071216
00000000: 9e22 7f3f 0173 7e3f dc39 823f 28d2 803f
00000010: b9b1 823f d735 823f cc72 803f 7b2b 803f
00000020: 8f3d 823f 9fb6 763f b429 783f 0e86 813f
00000030: 9bba 813f 7aa8 7f3f 754a 803f 9c78 7c3f
00000040: d755 823f 5494 803f 5d2b 823f 38f3 783f
00000050: 8369 813f 4f56 813f e111 813f d7f2 7e3f
00000060: 7906 823f afe1 813f e83b 813f e069 823f
00000070: eda4 833f b8af 833f d950 813f c4bd 823f
00000080: 5362 803f ca2a 813f 3a33 823f f80a 7b3f
00000090: 8bfc 813f ad63 813f d8af 803f 436f 813f
000000a0: df01 813f e3f5 7e3f bbcb 823f 2160 7f3f
000000b0: cffa 7f3f d29d 7b3f 1768 823f efea 7f3f
000000c0: 6e77 7e3f 97ad 803f cfd4 7f3f 43ee 833f
000000d0: 9707 803f fd0f 813f ec3c 823f 2e2d 813f
000000e0: 8c58 803f 72ca 803f 1fd6 803f 2f04 833f
000000f0: 8edc 833f 17a8 813f f688 813f 5ce9 803f

bn4.bias f4 [64]
-0.0073945695 -0.019624019 0.022495061 -0.00501533 0.023198307 0.020426897 0.018940534 -0.008806748
-0.010296207 -0.02422273 -0.03900285 0.009151561 0.002150653 -0.0018988105 -0.008241496 -0.010581066
0.0030210926 -0.0022304752 0.013635893 -0.030801224 -0.0020194787 0.009760579 -0.007349022 0.002230118
-0.003132929 -0.0055015795 0.010163903 -0.00455272 0.019600177 0.010463893 -0.008548661 0.019896023
0.014702792 0.012736432 -0.006509138 -0.007563656 0.020829529 -0.00068237516 -0.011108537 0.012924247
-0.008570278 0.0017345626 0.017797427 -0.008587236 -0.0055246046 -0.026314262 -0.0008555652 -0.017155217
-0.020127036 -0.00953708 0.00083039294 0.027243465 0.0038420695 0.006243713 -0.01113132 -0.002617772
0.0048624314 -0.010787835 -0.00090200227 0.024063114 0.021647297 -0.0025348295 0.018401863 -0.008915946
00000000: 254e f2bb 8dc2 a0bc 9047 b83c a357 a4bb
00000010: 600a be3c 4f56 a73c 2e29 9b3c 2e4a 10bc
00000020: 6cb1 28bc bf6e c6bc 74c1 1fbd 6ef0 153c
00000030: f8f1 0c3b 82e1 f8ba 5707 07bc 355c 2dbc
00000040: 86fd 453b 2a2d 12bb 1569 5f3c d952 fcbc
00000050: 3b59 04bb d6ea 1f3c 11d0 f0bb 2c27 123b
00000060: d451 4dbb 9846 b4bb 8086 263c fc2e 95bb
00000070: 8d90 a03c c070 2b3c af0f 0cbc fcfc a23c
00000080: fbe3 703c 78ac 503c 9b4a d5bb 8cd8 f7bb
00000090: b0a2 aa3c 6ce1 32ba 9500 36bc 39c0 533c
000000a0: 5a6a 0cbc 435a e33a e9cb 913c 7ab1 0cbc
000000b0: be07 b5bb 0291 d7bc 0248 60ba 1989 8cbc
000000c0: 74e1 a4bc 6a41 1cbc baae 593a b02d df3c
000000d0: 3bcb 7b3b 1098 cc3b 2460 36bc ed8e 2bbb
000000e0: 0855 9f3b 76bf 30bc 5974 6cba 0220 c53c
000000f0: ac55 b13c 621f 26bb 81bf 963c 3014 12bc

bn4.running_mean f4 [64]
0.66764385 -0.30117586 -0.016907502 -0.15470913 -0.7160266 -0.62323356 -0.4777884 0.2550741
0.11877017 -0.856961 0.53216374 -1.5150917 0.08580724 0.2867834 -0.22100039 0.5499643
0.07059837 -0.06826426 0.06460637 -0.40224323 -0.49291205 0.23598456 0.984289 -0.55176306
0.41359907 0.37101388 0.09109062 -0.16185287 0.2903478 0.2150892 1.190887 -0.64180803
-0.5615579 -0.34086668 -0.13796622 -1.1212528 0.12565416 -0.29502574 0.7002329 0.69962794
0.6561935 0.3734609 0.0792829 -0.13991913 0.0807974 -0.2919225 0.79659164 0.93509376
0.050126467 -0.32708916 0.084305 0.6487584 -0.06771208 0.16062766 0.0054420573 0.51137704
-0.92268205 0.47660846 -0.23074451 -0.77793163 -0.8403201 0.13160968 -0.50283813 -0.074997395
00000000: b5ea 2a3f b933 9abe 9a81 8abc 126c 1ebe
00000010: 854d 37bf 3c8c 1fbf aea0 f4be 1399 823e
00000020: c63d f33d cc61 5bbf e23b 083f 86ee c1bf
00000030: b5bb af3d 46d5 923e ed4d 62be 76ca 0c3f
00000040: e195 903d 22ce 8bbd 5850 843d d3f2 cdbe
00000050: f85e fcbe f0a5 713e 5dfa 7b3f 5840 0dbf
00000060: 42c3 d33e 88f5 bd3e b88d ba3d c2bc 25be
00000070: 78a8 943e 5840 5c3e fc6e 983f 884d 24bf
00000080: 42c2 0fbf 1486 aebe 0447 0dbe 3685 8fbf
00000090: 7cab 003e 9d0d 97be 7742 333f d11a 333f
000000a0: 4cfc 273f 4436 bf3e 135f a23d f646 0fbe
000000b0: 1b79 a53d de76 95be 6eed 4b3f 4e62 6f3f
000000c0: 6951 4d3d 3b78 a7be 1aa8 ac3d 0815 263f
000000d0: a2ac 8abd 947b 243e 4953 b23b 9be9 023f
000000e0: e434 6cbf 0606 f43e 4a48 6cbe 8726 47bf
000000f0: 381f 57bf b0c4 063e 00ba 00bf 3c98 99bd

bn4.running_var f4 [64]
0.6226028 0.64025486 0.8560119 0.57994086 0.9904478 0.71865934 1.2259332 0.38977492
0.6730761 0.83651394 0.45817858 1.2560283 0.7988082 0.86804247 0.8615523 1.1153785
0.5423181 0.5963116 0.553316 0.62014824 0.42095742 0.92295235 1.2029898 0.7990148
1.0432608 0.7228762 0.49184948 0.664322 0.77780116 0.6463167 0.79182744 1.2889128
0.7135159 0.82582444 0.5847718 0.89295423 0.6932156 0.48423612 0.7288409 0.61513376
0.9293878 0.59136903 0.63384783 0.71922904 0.55754215 0.82125115 1.2389948 1.8037951
0.42536753 0.6266355 0.54109246 0.7585599 0.63140845 0.5434049 0.48153472 1.3131392
0.54167515 1.042526 0.45835572 1.0457428 1.5032032 0.52987695 0.97451067 0.50659746
00000000: e662 1f3f bee7 233f 9923 5b3f 0177 143f
00000010: fd8d 7d3f 0ffa 373f 61eb 9c3f 9490 c73e
00000020: b74e 2c3f c725 563f 6296 ea3e 89c5 a03f
00000030: b27e 4c3f 0838 5e3f b18e 5c3f b9c4 8e3f
00000040: 5cd5 0a3f e1a7 183f 1ea6 0d3f 09c2 1e3f
00000050: bb87 d73e 9b46 6c3f 92fb 993f 3c8c 4c3f
00000060: 9289 853f 6a0e 393f b2d3 fb3e 0211 2a3f
00000070: fa1d 473f 0375 253f 34b5 4a3f 18fb a43f
00000080: faa8 363f 3b69 533f 9bb3 153f a698 643f
00000090: 9476 313f cced f73e 5195 3a3f 6879 1d3f
000000a0: 5cec 6d3f f663 173f da43 223f 651f 383f
000000b0: 15bb 0e3f 843d 523f 6297 9e3f c2e2 e63f
000000c0: c6c9 d93e 2f6b 203f 0985 0a3f fb30 423f
000000d0: fca3 213f 951c 0b3f b88b f63e f214 a83f
000000e0: 39ab 0a3f 7e71 853f 9aad ea3e e6da 853f
000000f0: f668 c03f 04a6 073f 8879 793f 5fb0 013f

lin.weight f4 [1, 64]
0.016381204 -0.012830549 0.053227715 -0.051902987 0.07596083 0.027121479 0.03847426 -0.027802901
-0.08563162 0.0068896487 -0.0008145019 0.02344628 -0.05017878 0.12117716 -0.09820902 -0.0075046257
-0.122487575 -0.12690173 -0.07064245 -0.0070225825 -0.07932794 0.03985032 0.041702695 0.047106568
0.036106165 0.11571557 -0.023289477 -0.03622923 0.1422563 -0.14552715 0.024841264 0.07466635
0.015651686 -0.05073241 -0.0761464 0.004994375 0.11952212 -0.108627185 0.06211398 0.13551216
0.051619623 -0.03362274 -0.13608843 -0.046609815 -0.033151332 -0.0061691855 0.1252279 0.07284722
-0.019754827 -0.08544842 -0.04378967 0.048390575 -0.032447796 0.027424153 -0.029072672 0.12850925
0.065494955 0.075941555 -0.08014317 0.121664666 0.08620472 -0.035716746 0.030193115 -0.045621525
00000000: e031 863c 3937 52bc 4e05 5a3d 3a98 54bd
00000010: 5a91 9b3d dd2d de3c 3097 1d3d e9c2 e3bc
00000020: a15f afbd 90c2 e13b 4c84 55ba 6a12 c03c
00000030: 4488 4dbd bb2b f83d d021 c9bd 5de9 f5bb
00000040: c4da fabd 87f2 01be fdac 90bd b11d e6bb
00000050: b076 a2bd 173a 233d 72d0 2a3d d1f2 403d
00000060: 0fe4 133d 49fc ec3d 93c9 bebc 1a65 14bd
00000070: a3ab 113e 1205 15be e87f cb3c acea 983d
00000080: f737 803c cacc 4fbd a5f2 9bbd dba7 a33b
00000090: 03c8 f43d ee77 debd 3b6b 7e3d b3c3 0a3e
000000a0: 196f 533d 00b8 09bd c45a 0bbe efe9 3ebd
000000b0: b1c9 07bd e126 cabb be3b 003e ec30 953d
000000c0: e0d4 a1bc 95ff aebd cc5c 33bd 3235 463d
000000d0: fbe7 04bd 9ea8 e03c d029 eebc ee97 033e
000000e0: 3822 863d 3f87 9b3d 1a22 a4bd 532b f93d
000000f0: 1a8c b03d b94b 12bd 8d57 f73c a3dd 3abd
