model2/final_model.pt (torch, 821583 bytes, 40 tensors)

encoder.weight f4 [128, 12]
-0.14043403 0.35256565 0.45195416 0.2519859 -0.5359126 0.55153245 0.7297054 0.29087767
-0.22687244 -0.17845263 0.23678301 0.012180569 -0.030791197 0.30626172 0.35005215 0.23590858
-0.3685873 0.09961929 -0.2567089 0.037795518 -0.13817813 -0.2694008 -0.10679121 -0.52879524
0.104348235 0.019525038 -0.058969308 -0.35157093 0.2354648 0.21613553 -0.10867002 0.14973007
0.15350296 -0.4580054 -0.43791705 0.15472662 -0.1957612 0.040379036 0.5396937 0.05881855
-0.4969183 0.20007117 -0.33224 -0.19469436 0.044136297 0.17973877 0.32698432 0.2954664
0.3021371 0.22341393 0.44695783 -0.5157987 0.11452282 0.38131613 0.584968 -0.013182574
-0.5386693 -0.4275347 -0.2685281 0.12172115 0.0051234066 -0.059241746 0.16838524 -0.008814282
-0.23370874 0.29307663 -0.38503054 -0.3892628 -0.2179309 -0.22842847 -0.2576689 -0.17178854
0.12621725 -0.49232185 -0.10973503 0.14755821 -0.15763256 -0.4941614 -0.29392943 -0.32478806
-0.106010616 0.31309217 0.28840348 0.11322217 -0.044654626 0.2977641 0.22415835 -0.23643464
-0.2654439 0.4117778 0.11189564 0.29465687 0.059062045 0.2616669 -0.039319027 0.043215007
-0.24609937 -0.63455683 -0.5214564 0.11767616 0.14715119 -0.7244879 0.2676684 -0.067698345
0.19099341 0.041198026 -0.14001977 -0.08056614 -0.31509793 -0.3559909 0.091828614 0.34918895
-0.3629258 0.22654071 0.30900297 -0.20046118 -0.20146786 -0.24404337 -0.40915692 -0.09876257
0.18485354 0.23950091 0.07961571 0.067795455 -0.02684047 -0.1339308 -0.24164571 -0.15346655
-0.09833396 0.1958562 0.5448364 0.11799367 0.12686275 -0.20562184 -0.40429795 0.08086244
-0.006033832 -0.17220572 -0.45915142 0.10062784 0.1282247 0.22637421 0.24274826 0.30996728
-0.340978 -0.4416522 -0.245002 0.40393245 -0.31857392 -0.42876604 -0.31230843 -0.06517842
-0.2042676 0.015986621 -0.34684488 -0.06821361 -0.10508045 0.1398948 0.403377 0.06595871
-0.3466996 0.3919966 0.19231348 0.25930244 0.103071205 -0.07281295 0.08592048 0.09214247
-0.24650076 -0.3971683 -0.33007354 0.428579 -0.055702977 -0.44363788 -0.14574856 0.16336313
-0.30421373 -0.20476675 -0.25466743 -0.152043 0.088538 -0.14998011 -0.032966647 -0.3188978
-0.0101958215 -0.01728998 -0.07830724 0.18820368 -0.3046769 0.27982348 -0.44678542 0.028698275
0.09986076 0.30988488 0.1957939 -0.53699756 0.28499076 0.25412497 -0.18672419 0.24795605
0.124908715 -0.0046101892 0.2722676 0.30134645 -0.041959677 0.113696 0.36108923 -0.31766224
-0.07937949 0.33854818 0.7155829 -0.058271453 0.032231055 -0.1644872 0.13646345 0.041402727
0.0355947 -0.2442505 -0.026452022 0.4109557 0.08785347 -0.415744 0.05516604 0.01963041
-0.39652056 0.05958683 -0.3399171 -0.35677674 0.42462358 0.3206181 0.099491045 -0.29149154
-0.020245826 0.017038466 0.03356764 -0.35776207 -0.16299216 0.06130003 0.061563775 0.2369496
-0.42734194 0.38574827 0.3723466 -0.16409726 -0.5201916 0.60936105 0.29383197 0.07845068
-0.12660117 -0.08017465 0.023168633 0.117252395 0.14320381 0.08162641 -0.25841978 0.32324478
00000000: f0cd 0fbe 7c83 b43e 8966 e73e 4c04 813e
00000010: 9131 09bf 3b31 0d3f f9cd 3a3f ebed 943e
00000020: 4051 68be 49bc 36be 3f77 723e 0291 473c
00000030: d23d fcbc 56ce 9c3e 093a b33e 0592 713e
00000040: 79b7 bcbe 3305 cc3d 596f 83be 79cf 1a3d
00000050: 917e 0dbe e7ee 89be 5ab5 dabd 205f 07bf
00000060: 87b4 d53d f9f2 9f3c cd89 71bd 1b01 b4be
00000070: af1d 713e a252 5d3e 638e debd d752 193e
00000080: e12f 1d3e af7f eabe aa36 e0be a870 1e3e
00000090: a075 48be 7d64 253d 5e29 0a3f b8eb 703d
000000a0: 136c febe 75df 4c3e 5c1b aabe f55d 47be
000000b0: 43c8 343d 710d 383e 7d6a a73e 5f47 973e
000000c0: b7b1 9a3e 9fc6 643e a8d7 e43e 620b 04bf
000000d0: f18a ea3d de3b c33e 76c0 153f b9fb 57bc
000000e0: 3be6 09bf d4e5 dabe 847c 89be f048 f93d
000000f0: 40e2 a73b 79a7 72bd 2e6d 2c3e c769 10bc
00000100: 5851 6fbe 240e 963e b922 c5be 744d c7be
00000110: 4729 5fbe 27e9 69be 2eed 83be 56e9 2fbe
00000120: 183f 013e 9c11 fcbe c2bc e0bd 8019 173e
00000130: 6e6a 21be b902 fdbe eb7d 96be 9f4a a6be
00000140: 181c d9bd 9e4d a03e 9fa9 933e 06e1 e73d
00000150: c5e7 36bd 8974 983e c489 653e ec1b 72be
00000160: 43e8 87be 8ad4 d23e 8b29 e53d 44dd 963e
00000170: 0beb 713d 34f9 853e fd0c 21bd 3802 313d
00000180: 7901 7cbe 5172 22bf 2b7e 05bf 3300 f13d
00000190: cdae 163e 0a78 39bf d50b 893e 6ea5 8abd
000001a0: c793 433e 43bf 283d 5861 0fbe dcff a4bd
000001b0: 8454 a1be 7044 b6be a410 bc3d e5c8 b23e
000001c0: 69d1 b9be 4afa 673e a335 9e3e b245 4dbe
000001d0: 974d 4ebe 81e6 79be 047d d1be 0844 cabd
000001e0: 3f4a 3d3e ba3f 753e 900d a33d 58d8 8a3d
000001f0: 8ce0 dbbc 2825 09be f971 77be 5626 1dbe
00000200: 5163 c9bd 878e 483e 667a 0b3f aaa6 f13d
00000210: 4fe8 013e 888e 52be 2400 cfbe 359b a53d
00000220: 74b7 c5bb b256 30be e515 ebbe f815 ce3d
00000230: 564d 033e a4ce 673e 0093 783e 08b4 9e3e
00000240: ab94 aebe 3d20 e2be cee1 7abe 3cd0 ce3e
00000250: 1f1c a3be 3987 dbbe e4e6 9fbe 437c 85bd
00000260: 872b 51be 60f6 823c a795 b1be 94b3 8bbd
00000270: 6b34 d7bd 9540 0f3e 6e87 ce3e 5c15 873d
00000280: 9c82 b1be c7b3 c83e d3ed 443e 4ac3 843e
00000290: ff16 d33d f51e 95bd 14f7 af3d 31b5 bc3d
000002a0: b26a 7cbe a559 cbbe 66ff a8be b56e db3e
000002b0: ce28 64bd 8124 e3be 1c3f 15be aa48 273e
000002c0: e7c1 9bbe 60ae 51be c563 82be 29b1 1bbe
000002d0: 6953 b53d 6394 19be 0908 07bd 9346 a3be
000002e0: 600c 27bc b7a3 8dbc 8c5f a0bd 77b8 403e
000002f0: 9cfe 9bbe 0645 8f3e 0fc1 e4be a518 eb3c
00000300: cc83 cc3d 3ba9 9e3e 327e 483e ac78 09bf
00000310: 4fea 913e ab1c 823e a034 3fbe 31e8 7d3e
00000320: 24d0 ff3d 1211 97bb a966 8b3e 154a 9a3e
00000330: e9dd 2bbd 73d9 e83d b0e0 b83e a0a4 a2be
00000340: b791 a2bd 3056 ad3e 7130 373f 0cae 6ebd
00000350: b604 043d 556f 28be 13bd 0b3e e895 293d
00000360: c0cb 113d ce1c 7abe e9b1 d8bc c968 d23e
00000370: 85ec b33d 66dc d4be c9f5 613d f4cf a03c
00000380: be04 cbbe 5211 743d 9d09 aebe 71ab b6be
00000390: 4368 d93e 0e28 a43e f6c1 cb3d 613e 95be
000003a0: 93da a5bc 4194 8b3c 397e 093d 972c b7be
000003b0: 6be7 26be be15 7b3d 4c2a 7c3d eaa2 723e
000003c0: 90cc dabe cc80 c53e 37a4 be3e 1d09 28be
000003d0: 472b 05bf 16ff 1b3f 2571 963e c0aa a03d
000003e0: bda3 01be 9b32 a4bd 25cc bd3c 0622 f03d
000003f0: 05a4 123e bf2b a73d 994f 84be 5780 a53e

encoder.bias f4 [128]
-0.03451012 0.1509471 -0.0006770492 0.14437433 -0.0090535525 0.12168312 -0.032633066 0.18530926
-0.032052223 -0.0054672426 0.00012740502 -0.04241844 0.10045412 0.10780135 0.2629477 0.09983643
0.12076897 -0.1577578 -0.021040656 0.1808247 0.11787334 -0.03049822 -0.06554474 0.08425607
0.005643479 0.085556805 0.024908343 -0.017179165 -0.076994464 -0.04345708 -0.087270826 0.009862052
0.093674965 -0.09826681 0.061829187 0.2126351 -0.009083726 -0.10342956 -0.15633069 0.10056683
-0.12766436 0.13630997 0.07048874 -0.2485397 0.03481068 -0.008015742 0.03067296 -0.025110714
0.026567977 0.05536993 -0.017108092 -0.15257847 0.30165806 0.26444307 0.08360856 0.18627647
-0.032300767 0.0027319656 0.0107686445 0.001154294 -0.007547474 -0.11469067 -0.17042038 0.08033101
0.14944158 -0.0037806286 0.14104672 -0.07765111 0.08946014 -0.095671564 0.010962133 -0.102189906
-0.067523904 -0.18076886 0.10584093 0.020913014 0.14078443 -0.09065244 -0.04124828 0.10246954
-0.0012131555 -0.13239112 0.002313569 0.1049918 0.08738683 -0.14955275 -0.012414913 0.03712736
-0.047497503 0.042463966 0.0678319 0.0014348299 0.0027022273 -0.033244487 -0.16484465 0.005678486
-0.052142825 0.19409737 0.14319655 0.050262045 0.07844231 -0.22395228 -0.09934661 -0.050096497
0.004642243 -0.1382429 0.05308455 -0.0108040925 -0.053743906 0.04258447 0.01298612 -0.0078434115
0.16456291 -0.106437795 -0.001619147 0.039677832 -0.0014196973 -0.31072018 0.08586111 -0.02491113
-0.11742585 0.3438697 0.008294915 -0.02901198 -0.10610622 -0.15232328 0.044053312 0.0045870487
00000000: 7c5a 0dbd e091 1a3e 017c 31ba ddd6 133e
00000010: 5a55 14bc 0035 f93d 40aa 05bd b6c1 3d3e
00000020: 3149 03bd 8e26 b3bb 0698 0539 f5be 2dbd
00000030: e4ba cd3d f4c6 dc3d 15a1 863e 0b77 cc3d
00000040: b955 f73d 438b 21be 745d acbc 1c2a 393e
00000050: 9467 f13d 67d7 f9bc 523c 86bd 728e ac3d
00000060: efec b83b 6838 af3d 950c cc3c 52bb 8cbc
00000070: 46af 9dbd 0d00 32bd 0cbb b2bd 7294 213c
00000080: a9d8 bf3d 1c40 c9bd 9a40 7d3d 04bd 593e
00000090: e9d3 14bc e1d2 d3bd 2715 20be fbf5 cd3d
000000a0: 72ba 02be d794 0b3e 675c 903d 3181 7ebe
000000b0: a595 0e3d 7554 03bc dc45 fb3c fcb4 cdbc
000000c0: 16a5 d93c 94cb 623d 4526 8cbc 883d 1cbe
000000d0: ed72 9a3e 1565 873e f73a ab3d 42bf 3e3e
000000e0: cf4d 04bd c70a 333b f86e 303c ae4b 973a
000000f0: cd50 f7bb f1e2 eabd ae82 2ebe 9684 a43d
00000100: 3707 193e 6cc4 77bb 8d6e 103e 8c07 9fbd
00000110: e136 b73d 74ef c3bd 859a 333c f148 d1bd
00000120: f949 8abd 791b 39be 21c3 d83d c551 ab3c
00000130: cb29 103e fda7 b9bd f5f3 28bd 8ddb d13d
00000140: be02 9fba 8a91 07be 3f9f 173b f105 d73d
00000150: def7 b23d 5b24 19be eb67 4bbc dc12 183d
00000160: be8c 42bd b2ee 2d3d 74eb 8a3d e710 bc3a
00000170: da17 313b 5f2b 08bd 09cd 28be 9812 ba3b
00000180: b793 55bd 76c1 463e 1ea2 123e 93df 4d3d
00000190: 5da6 a03d bf53 65be 3c76 cbbd fc31 4dbd
000001a0: f51d 983b 8c8f 0dbe 2f6f 593d a603 31bc
000001b0: 9222 5cbd 0e6d 2e3d bcc3 543c a781 00bc
000001c0: 2e83 283e 0ffc d9bd 8f39 d4ba 3985 223d
000001d0: 2315 baba b716 9fbe f3d7 af3d 6d12 ccbc
000001e0: f77c f0bd b00f b03e 65e7 073c 88aa edbc
000001f0: 384e d9bd a2fa 1bbe 3f71 343d f44e 963b

s4_layers.0.D f4 [128]
-1.3322365 -0.66858494 -0.4184813 0.5719267 -0.49588662 0.67540956 -1.3403963 -0.34290573
-0.74272114 0.07282894 0.4784771 0.4744495 -0.65287656 0.66937333 -0.11273561 1.6094395
-0.9015128 1.81222 -0.3792568 0.9762031 -0.71829045 0.081142 0.9352874 0.9547095
-1.4645808 0.3495018 -0.16133317 0.6725831 0.6805812 -0.40110362 0.38125446 0.43052617
0.23093289 0.74457884 -0.25208613 -0.7311439 1.4998119 1.2095858 -0.3456376 -0.119995594
0.80356544 -1.1762207 -0.83109164 0.3878977 0.0079378765 -1.3123467 -0.7475264 1.5649264
1.2379462 1.1704924 -1.4118469 1.2634509 -0.18679982 0.58117646 -0.13436723 -1.9392552
0.044150792 0.42935717 1.4235697 -0.42782137 1.5573145 -0.73413914 -0.60766083 1.4574292
-1.7680119 -0.44732317 -0.7341294 0.14823094 0.40721628 0.67164224 1.1551443 -1.1417972
-0.510354 -0.4104422 0.3737818 1.0922035 0.64296365 0.08469746 -0.88376117 0.29657915
-0.0030980387 0.15687911 1.122432 0.6514151 -0.12965085 1.735841 -1.2037671 1.4347401
2.0863137 -1.3335598 -1.0075653 1.5715245 2.1662993 -0.5564744 0.072483905 0.7203635
-0.040635817 2.1426885 -0.5227171 1.1816933 0.1295532 -1.1790574 1.2777064 0.5242288
-0.13687697 -1.0872129 -1.5698129 -0.41861582 -0.7405506 0.16668747 0.9284062 0.9134585
1.4109855 0.45034054 1.3788421 -0.067358665 -1.0447274 -0.75910175 -0.12111979 -0.8772057
1.9699357 0.1934493 2.0835667 -0.11160638 1.411143 -0.012211071 -1.0370078 -0.0039553693
00000000: ba86 aabf 6228 2bbf 2e43 d6be ca69 123f
00000010: dae4 fdbe a4e7 2c3f 1b92 abbf 5791 afbe
00000020: f922 3ebf 5727 953d f3fa f43e 0beb f23e
00000030: eb22 27bf 0d5c 2b3f ede1 e6bd 1d02 ce3f
00000040: 8bc9 66bf d3f6 e73f f32d c2be 72e8 793f
00000050: e2e1 37bf c72d a63d ff6e 6f3f d767 743f
00000060: 6277 bbbf e6f1 b23e 8634 25be 682e 2c3f
00000070: 923a 2e3f 745d cdbe c933 c33e ed6d dc3e
00000080: ac79 6c3e b89c 3e3f 6f11 81be 3f2c 3bbf
00000090: d6f9 bf3f b5d3 9a3f 69f7 b0be 40c0 f5bd
000000a0: 77b6 4d3f 668e 96bf 6cc2 54bf 879a c63e
000000b0: de0d 023c fafa a7bf e45d 3fbf 824f c83f
000000c0: 0575 9e3f b2d2 953f 66b7 b4bf c2b8 a13f
000000d0: 7448 3fbe fbc7 143f 9097 09be 8439 f8bf
000000e0: 76d7 343d b4d4 db3e 8837 b63f 670b dbbe
000000f0: 1556 c73f 8bf0 3bbf a98f 1bbf 0a8d ba3f
00000100: 374e e2bf 8b07 e5be e8ef 3bbf dac9 173e
00000110: a77e d03e bff0 2b3f c5db 933f 6926 92bf
00000120: 8fa6 02bf 7b25 d2be 5460 bf3e 53cd 8b3f
00000130: 4499 243f dd75 ad3d 2c3e 62bf 39d9 973e
00000140: 7708 4bbb eba4 203e daab 8f3f 24c3 263f
00000150: 31c3 04be 0a30 de3f 0a15 9abf 90a5 b73f
00000160: 2a86 0540 16b2 aabf e6f7 80bf b727 c93f
00000170: a6a4 0a40 1b75 0ebf 7172 943d be69 383f
00000180: be71 26bd cf21 0940 cad0 05bf ba41 973f
00000190: 98a9 043e 5aeb 96bf e28b a33f dc33 063f
000001a0: 7a29 0cbe cb29 8bbf a1ef c8bf d054 d6be
000001b0: b994 3dbf 1fb0 2a3e 07ac 6d3f 6bd8 693f
000001c0: 2c9b b43f 0993 e63e e67d b03f 57f3 89bd
000001d0: a1b9 85bf 7e54 42bf a70d f8bd 8e90 60bf
000001e0: da26 fc3f 9317 463e 2859 0540 e391 e4bd
000001f0: 55a0 b43f f210 48bc acbc 84bf 0b9c 81bb

s4_layers.0.kernel.C f4 [128, 32, 2]
1.0566242 0.19782877 0.37550375 -0.14424515 -1.1319857 -0.6201157 0.3659044 0.52211523
-0.14579958 0.41839495 1.112757 0.87602323 -0.4014404 -0.45645738 1.0534831 -0.8658268
1.8793939 0.3373512 0.43826857 -0.2233791 0.044120613 1.3525585 0.39904606 -0.18263632
-0.7673428 -0.39158237 -1.0179479 1.0106407 -0.16358918 -0.10789537 -0.80151045 0.9895684
-0.6558943 0.79688716 -0.56563944 1.2014225 -0.37007377 -1.7674439 0.5586059 0.5334169
0.9726057 0.17760675 0.22483106 -0.6345434 -1.5149579 0.12407744 -1.1574981 -0.5583152
-1.1259097 -0.04264153 -0.2277703 0.67224544 1.1505995 1.3507601 0.25468522 0.76532775
0.42932102 -0.18675461 1.47112 0.18875866 0.49702168 -0.057623733 -0.056417182 -0.76220983
-0.9896945 -1.0717825 -1.1713115 0.1514965 -0.2144847 0.4272505 0.8953809 0.9227247
1.1728503 -0.17204358 1.2065132 0.0716578 0.03904936 0.80250925 0.77426445 1.0202957
0.86662316 -0.30608952 -0.079471506 -1.2447426 -0.29185435 0.5911839 -0.7714354 0.99759674
-0.11207692 0.9828127 -1.4445378 1.1700679 -0.4876747 1.7285109 -0.38421258 0.7322238
0.15051933 0.8066504 -0.48502102 0.8856297 -0.31486014 -0.24511048 -0.68196416 0.7955546
-0.38207254 -0.36640418 0.5690978 0.09678975 -0.30203226 0.76199865 0.22458187 0.15729849
-0.30755454 0.24019213 -0.42235306 0.49666372 -0.35183612 0.20139994 -0.042951543 0.63907206
0.24138692 0.041782465 -0.58064 -0.9581372 0.5800672 0.12385399 0.11366436 -0.03895326
1.2968972 -0.71161884 -0.60304815 -1.1740984 -0.9988767 -1.0256844 0.7676271 -0.074953
2.8891442 0.44291168 -0.9192849 0.47965592 -0.08404274 -0.13423374 0.50249344 -0.16860819
0.12368607 -0.29419106 -0.77346903 -1.2392062 -0.11746777 0.78588635 -0.39201787 0.5130895
-0.5220933 -0.8733158 -1.1456144 1.0019323 -0.75458133 -0.1256746 -0.15114012 0.7947888
0.47946227 1.4689883 -1.8478179 0.23848711 0.61724156 -0.6145587 -0.6115548 -0.4677928
0.055905566 0.14622355 0.37527606 -0.2889686 0.77168274 -0.20861042 -0.3381906 1.2806965
1.5357956 -0.4736537 1.3313525 0.21309803 0.1261511 0.2107924 -0.43400568 1.3629664
0.13271055 0.49158093 -0.531644 -0.22828932 0.93988305 -0.34486747 0.6618119 -1.2219377
0.48078638 -0.4677238 -0.54331416 0.5903822 -0.21202998 1.8326234 -0.39050865 -0.050839473
0.2880407 0.48585626 -0.6656339 -0.38686627 0.4575849 0.48994884 0.8554589 -0.5773238
0.6873023 -0.35309383 0.8759029 -0.019878844 0.013548069 -0.27513182 -0.36812997 0.46993136
-0.20819274 -0.13066901 -0.060045768 -0.91130155 -0.10777507 0.0021255077 -0.6393696 0.42106172
-0.28328583 0.28053275 -0.8497267 1.0567946 0.40622365 1.1321902 -0.2642983 -0.0017001083
-0.90481335 -0.5197007 -0.56556064 -0.01310998 0.008193476 0.009292882 0.7440335 -0.39844006
0.92406297 -0.60869366 -0.95387936 0.26532903 0.44957107 0.4348227 -0.5322454 0.35875297
-0.5234277 1.4249064 0.20988393 0.018381804 -0.34556994 -0.16205508 0.29514682 0.30875853
00000000: 763f 873f a093 4a3e 0742 c03e 00b5 13be
00000010: e8e4 90bf e7bf 1ebf d257 bb3e 58a9 053f
00000020: 7c4c 15be dd37 d63e d26e 8e3f 0f43 603f
00000030: 9989 cdbe c8b4 e9be 89d8 863f d3a6 5dbf
00000040: fb8f f03f 4cb9 ac3e bd64 e03e 7ebd 64be
00000050: d1b7 343d a320 ad3f c44f cc3e 0405 3bbe
00000060: 9470 44bf 7c7d c8be 1e4c 82bf ad5c 813f
00000070: ec83 27be 3ff8 dcbd ca2f 4dbf 5b54 7d3f
00000080: b0e8 27bf cc00 4c3f bfcd 10bf 36c8 993f
00000090: 4f7a bdbe 9a3b e2bf cc00 0f3f 038e 083f
000000a0: b0fc 783f 8bde 353e 1d3a 663e 7071 22bf
000000b0: 24ea c1bf 501c fe3d e628 94bf bfed 0ebf
000000c0: cf1d 90bf e3a8 2ebd 9e3c 69be 4718 2c3f
000000d0: d846 933f b5e5 ac3f 1a66 823e 85ec 433f
000000e0: f7cf db3e 9a3c 3fbe a94d bc3f f349 413e
000000f0: a079 fe3e dd06 6cbd b415 67bd 2f20 43bf
00000100: 9e5c 7dbf 2b30 89bf 89ed 95bf e621 1b3e
00000110: e1a1 5bbe 94c0 da3e af37 653f b037 6c3f
00000120: f51f 963f 312c 30be 066f 9a3f 53c1 923d
00000130: 39f2 1f3d 3f71 4d3f 3236 463f 0d99 823f
00000140: 04db 5d3f c4b7 9cbe f5c1 a2bd ba53 9fbf
00000150: ef6d 95be d457 173f ca7c 45bf 8062 7f3f
00000160: 9688 e5bd 9d99 7b3f 9de6 b8bf c9c4 953f
00000170: 80b0 f9be d83f dd3f 83b7 c4be 0573 3b3f
00000180: bd21 1a3e a480 4e3f ad54 f8be a1b8 623f
00000190: 5935 a1be 3efe 7abe 3495 2ebf 77a9 4b3f
000001a0: 039f c3be 5499 bbbe 65b0 113f b439 c63d
000001b0: f9a3 9abe 5812 433f caf8 653e db12 213e
000001c0: ca77 9dbe edf4 753e a93e d8be b54a fe3e
000001d0: dd23 b4be c93b 4e3e f5ed 2fbd 3a9a 233f
000001e0: 222e 773e 1724 2b3d d3a4 14bf 7b48 75bf
000001f0: 497f 143f 29a7 fd3d dcc8 e83d 748d 1fbd
00000200: ba00 a63f a72c 36bf 5d61 1abf db48 96bf
00000210: 62b6 7fbf a049 83bf 3683 443f f580 99bd
00000220: bde7 3840 52c5 e23e 4156 6bbf 7695 f53e
00000230: 9a1e acbd 9274 09be 69a3 003f a0a7 2cbe
00000240: 1f4f fd3d 36a0 96be 1102 46bf 4f9e 9ebf
00000250: f192 f0bd d92f 493f 91b6 c8be d559 033f
00000260: e8a7 05bf a091 5fbf 7ea3 92bf 513f 803f
00000270: 3e2c 41bf d8b0 00be 7ac4 1abe 4777 4b3f
00000280: 147c f53e cf07 bc3f 4c85 ecbf f735 743e
00000290: 8b03 1e3f b853 1dbf db8e 1cbf 8a82 efbe
000002a0: 3cfd 643d a0bb 153e 2f24 c03e b1f3 93be
000002b0: 008d 453f f89d 55be 5127 adbe dded a33f
000002c0: f394 c43f bd82 f2be c269 aa3f 5f36 5a3e
000002d0: c12d 013e f7d9 573e fe35 debe af75 ae3f
000002e0: 46e5 073e 7fb0 fb3e d219 08bf adc4 69be
000002f0: 2d9c 703f 7892 b0be 816c 293f 7468 9cbf
00000300: a229 f63e 7e79 efbe a316 0bbf 4a23 173f
00000310: 631e 59be 6793 ea3f c0f0 c7be 0d3d 50bd
00000320: 127a 933e 27c2 f83e fc66 2abf 5613 c6be
00000330: 9148 ea3e 93da fa3e 5bff 5a3f 7ecb 13bf
00000340: 0bf3 2f3f b7c8 b4be 2c3b 603f f5d8 a2bc
00000350: b8f8 5d3c 14de 8cbe 887b bcbe d89a f03e
00000360: 7a30 55be 19ce 05be 8df2 75bd 0f4b 69bf
00000370: 2db9 dcbd 1a4c 0b3b baad 23bf 6795 d73e
00000380: d70a 91be fda1 8f3e b087 59bf 0c45 873f
00000390: 8cfc cf3e 9ceb 903f 1b52 87be 2bd6 deba
000003a0: d9a1 67bf 1b0b 05bf 95c8 10bf 3ecb 56bc
000003b0: ee3d 063c 2c41 183c fb78 3e3f 5600 ccbe
000003c0: 648f 6c3f 59d3 1bbf 7031 74bf 35d9 873e
000003d0: 2e2e e63e 15a1 de3e 3c41 08bf 78ae b73e
000003e0: 5cff 05bf 5563 b63f d0eb 563e 7095 963c
000003f0: 8bee b0be c4f1 25be 7c1d 973e 9915 9e3e

s4_layers.0.kernel.log_dt f4 [128]
-2.3727932 -3.572664 -3.9520972 -5.3073335 -6.8294597 -4.79075 -4.5587983 -4.424721
-2.799923 -3.008282 -3.1245797 -4.7296014 -4.98245 -2.6311686 -3.705955 -6.8847485
-5.0105357 -3.020624 -4.004596 -5.175098 -3.9492333 -3.9177775 -6.821427 -5.519238
-3.7155604 -5.998351 -3.2884974 -3.0956025 -3.2297394 -3.439535 -6.310651 -5.5011697
-3.51773 -4.0294046 -4.0910816 -4.6297 -5.2343254 -3.0480075 -2.7071154 -6.5308137
-5.962928 -3.9682243 -3.7214746 -3.541947 -5.4518375 -6.482344 -6.4605594 -4.1834946
-6.5181828 -4.540672 -4.828713 -5.7767024 -2.8757074 -5.4200344 -3.5928893 -5.0171075
-6.0131426 -6.6485558 -5.447814 -6.0330997 -3.9544134 -4.026901 -3.4768112 -3.6255572
-2.7964342 -3.2377157 -2.5164244 -3.887036 -5.575265 -6.7156477 -6.297786 -3.2583284
-4.372717 -5.2408586 -6.7301254 -5.3881774 -6.6835623 -2.9377606 -4.1492405 -3.3919647
-2.4825575 -5.512911 -5.0290995 -4.3710904 -4.587013 -6.004771 -4.606595 -3.4386728
-5.596128 -6.392567 -4.6213713 -6.3266597 -5.9068108 -3.6848361 -6.0385604 -5.1789603
-2.4413178 -6.0717425 -5.523354 -2.502821 -6.464775 -2.6295648 -6.34947 -4.8618946
-3.5515318 -6.389823 -5.505218 -4.4777527 -4.8576775 -6.43053 -3.9412553 -5.3384123
-4.2980604 -4.1771126 -5.892532 -2.358151 -6.467042 -5.377041 -5.644696 -6.610803
-6.183574 -3.2552745 -5.5893793 -4.325904 -2.867539 -4.9198484 -6.7774253 -4.0904813
00000000: d8db 17c0 87a6 64c0 29ef 7cc0 add5 a9c0
00000010: ef8a dac0 d34d 99c0 ade1 91c0 5097 8dc0
00000020: f031 33c0 b187 40c0 1df9 47c0 e558 97c0
00000030: 3b70 9fc0 1165 28c0 5e2e 6dc0 dc4f dcc0
00000040: 4f56 a0c0 e751 41c0 a725 80c0 679a a5c0
00000050: 3dc0 7cc0 debc 7ac0 2149 dac0 999d b0c0
00000060: becb 6dc0 7ef2 bfc0 be76 52c0 5a1e 46c0
00000070: 0db4 4ec0 5721 5cc0 daf0 c9c0 9509 b0c0
00000080: 7d22 61c0 e2f0 80c0 24ea 82c0 8126 94c0
00000090: 987f a7c0 8e12 43c0 6141 2dc0 6dfc d0c0
000000a0: 4ed0 bec0 63f7 7dc0 a42c 6ec0 42af 62c0
000000b0: 7475 aec0 5d6f cfc0 e7bc cec0 30df 85c0
000000c0: f494 d0c0 2f4d 91c0 d184 9ac0 bfda b8c0
000000d0: 970b 38c0 ec70 adc0 e6f1 65c0 258c a0c0
000000e0: aa6b c0c0 f8c0 d4c0 7e54 aec0 270f c1c0
000000f0: 1c15 7dc0 5fdc 80c0 1384 5ec0 2109 68c0
00000100: c7f8 32c0 bc36 4fc0 190d 21c0 33c5 78c0
00000110: 9268 b2c0 96e6 d6c0 7787 c9c0 7488 50c0
00000120: 4ced 8bc0 1db5 a7c0 305d d7c0 f36b acc0
00000130: bedf d5c0 4504 3cc0 94c6 84c0 f315 59c0
00000140: 39e2 1ec0 c469 b0c0 62ee a0c0 f9df 8bc0
00000150: cfc8 92c0 1627 c0c0 3a69 93c0 3713 5cc0
00000160: 7b13 b3c0 e98f ccc0 46e2 93c0 ff73 cac0
00000170: 9804 bdc0 5bd4 6bc0 e33b c1c0 0bba a5c0
00000180: 8d3e 1cc0 b74b c2c0 51bf b0c0 382e 20c0
00000190: 70df cec0 ca4a 28c0 dc2e cbc0 a494 9bc0
000001a0: 4c4c 63c0 6e79 ccc0 bf2a b0c0 c049 8fc0
000001b0: 1872 9bc0 e7c6 cdc0 873d 7cc0 46d4 aac0
000001c0: b689 89c0 e8aa 85c0 9f8f bcc0 f2eb 16c0
000001d0: 02f2 cec0 b810 acc0 5aa1 b4c0 b38b d3c0
000001e0: d7df c5c0 6b56 50c0 32dc b2c0 ce6d 8ac0
000001f0: c285 37c0 666f 9dc0 abe0 d8c0 39e5 82c0

s4_layers.0.kernel.log_A_real f4 [128, 32]
-0.6763851 -0.63796514 -0.73695827 -1.2581611 -0.43462488 -0.97027314 -0.61415356 -1.0545689
-0.84852445 -1.320001 -0.38203534 -0.9606436 -0.9071432 -0.757425 -0.859102 -0.8235129
-0.82051414 -0.9595831 -0.78074086 -0.6920287 -0.2606636 -0.57984847 -0.61806387 -0.75341123
-0.79252267 -0.451105 -1.0444734 -0.45282134 -0.819931 -0.9878622 -0.8400446 -1.0582241
-1.0768497 -0.95028096 -0.4998233 -0.8317443 -1.1802359 -0.8953475 -1.1175759 -0.88997054
-1.0957025 -0.62078273 -0.5666901 -1.1406025 -0.7707104 -1.0114346 -0.95136905 -1.0012962
-1.1240213 -0.9550545 -0.76927865 -0.6547094 -0.5990269 -0.513214 -0.67550325 -0.9239896
-0.70450497 -0.7214904 -0.8370291 -0.7825882 -0.5849127 -0.5173101 -0.54227495 -0.6780014
-0.4644576 -1.0430168 -0.9743951 -0.8740077 -1.1863508 -1.0076016 -0.50150377 -0.38829058
-0.6771985 -1.270277 -0.7654729 -0.53470016 -0.6832396 -0.4005887 -0.59958845 -0.78891677
-0.62987757 -0.722707 -0.616607 -0.9677783 -0.47004825 -0.3196937 -0.6481843 -0.9986794
-0.864399 -0.60910386 -0.4782308 -0.8186722 -0.01453272 -0.9733307 -0.48443913 -0.4141805
-0.64549845 -0.6012239 -1.1008773 -0.373852 -0.8684508 -0.5839101 -1.2425629 -1.4030236
-0.8496686 -0.6950607 -0.36131573 -1.1273817 -0.5645079 -1.0477102 -0.51400566 -0.44854462
-0.6014753 -0.70076317 -0.93405056 -0.9484343 -0.50586283 -0.8944814 -0.32313648 -0.8155373
-1.1765355 -0.722321 -0.56586254 -0.8150068 -0.667996 -0.20731641 -0.44557294 -0.22437085
-0.5214482 -1.2523209 -1.210055 -0.5595614 -0.59650135 -1.3516163 -0.3427019 -0.64577085
-1.0776304 -0.17037572 -0.2472802 -0.998426 -1.1619772 -1.5869503 -1.5412438 -0.8201284
-0.6498437 -0.9179538 -1.0464802 -1.0505853 -0.27392393 -0.8250289 -0.4830933 -0.78334385
-1.0509678 -0.38936117 -0.4080269 -0.69650656 -0.60088766 -0.7409546 -0.5996801 -0.8092819
-0.6061649 -1.1441952 -0.6715412 -0.4917884 -0.9373415 -0.741341 -0.71054786 -0.5953067
-0.73386633 -0.6714165 -0.6771335 -0.7708086 -0.6836228 -0.35086054 -0.7503629 -0.6755965
-0.7689911 -0.50822246 -0.5732015 -0.63236916 -0.32826936 -0.93919307 -0.4556996 -0.50106895
-0.7227752 -0.5780886 -0.5480527 -0.6212367 -0.7625752 -0.7598482 -0.2288738 -0.5724107
-0.5963365 -0.64540666 -0.49920195 -0.58091587 -0.35280815 -0.65368915 -0.48678446 -0.7520129
-0.72757643 -0.87730706 -0.88488245 -0.3778759 -0.6151179 -0.72663844 -0.36972964 -0.45301172
-0.44398573 -0.5852089 -0.6499741 -0.48475072 -0.6480256 -0.71530557 -0.5669599 -0.88945967
-0.5387967 -0.46000627 -0.6856935 -0.48976493 -0.43528116 -0.6835271 -0.69646794 -0.9178394
-0.33073094 -0.52045906 -0.35425285 -0.7575442 -0.21813457 -0.6999486 -0.5981682 -0.66323614
-0.7909902 -0.783412 -0.6210743 -0.49616703 -1.0649172 -0.6103694 -0.39721414 -0.5426002
-0.7166466 -0.7144364 -0.973372 -0.77720094 -0.77745557 -0.7062714 -0.7090188 -0.5074137
-0.6680011 -0.66030025 -0.94672644 -0.9515011 -0.67957467 -0.55736864 -0.8882127 -0.23751828
00000000: 9327 2dbf af51 23bf 4ca9 3cbf 6c0b a1bf
00000010: 2787 debe d263 78bf 2b39 1dbf 1dfc 86bf
00000020: e638 59bf cbf5 a8bf 239a c3be bdec 75bf
00000030: 893a 68bf 9be6 41bf 1cee 5bbf bed1 52bf
00000040: 370d 52bf 3da7 75bf a2de 47bf cb28 31bf
00000050: b375 85be f370 14bf 6f39 1ebf 8fdf 40bf
00000060: c4e2 4abf 3cf7 e6be 4eb1 85bf 33d8 e7be
00000070: ffe6 51bf 8ae4 7cbf 2a0d 57bf e373 87bf
00000080: 36d6 89bf 9d45 73bf d7e8 ffbe 32ed 54bf
00000090: f811 97bf 7e35 65bf ba0c 8fbf 1cd5 63bf
000000a0: fb3f 8cbf 9eeb 1ebf 9a12 11bf 43ff 91bf
000000b0: 474d 45bf b076 81bf ec8c 73bf 792a 80bf
000000c0: eedf 8fbf 747e 74bf 72ef 44bf 099b 27bf
000000d0: d459 19bf fe61 03bf c8ed 2cbf 958a 6cbf
000000e0: 705a 34bf 98b3 38bf 8a47 56bf b357 48bf
000000f0: d7bc 15bf 6f6e 04bf 88d2 0abf 8091 2dbf
00000100: 63cd edbe 9381 85bf f571 79bf f8be 5fbf
00000110: 58da 97bf 17f9 80bf 8d62 00bf 06ce c6be
00000120: e25c 2dbf 7098 a2bf 08f6 43bf 1ce2 08bf
00000130: cae8 2ebf f619 cdbe a17e 19bf 73f6 49bf
00000140: a83f 21bf 5303 39bf f5d9 1dbf 52c0 77bf
00000150: 2aaa f0be e5ae a3be 68ef 25bf 74a9 7fbf
00000160: 4149 5dbf 3bee 1bbf abda f4be 8094 51bf
00000170: a51a 6ebc 332c 79bf 6808 f8be 770f d4be
00000180: 633f 25bf cfe9 19bf 8ce9 8cbf 8869 bfbe
00000190: cb52 5ebf 227b 15bf 4d0c 9fbf 4796 b3bf
000001a0: e283 59bf 7fef 31bf 60fe b8be 0b4e 90bf
000001b0: 9783 10bf 5e1b 86bf e095 03bf a4a7 e5be
000001c0: 49fa 19bf 3765 33bf f01d 6fbf 97cc 72bf
000001d0: 3a80 01bf bcfc 64bf 2572 a5be 0dc7 50bf
000001e0: b798 96bf 07ea 38bf 5edc 10bf 49a4 50bf
000001f0: c901 2bbf c14a 54be 2322 e4be 79c1 65be
00000200: a17d 05bf 0d4c a0bf 15e3 9abf 6a3f 0fbf
00000210: 50b4 18bf c301 adbf a076 afbe 3d51 25bf
00000220: cbef 89bf f976 2ebe 0537 7dbe d998 7fbf
00000230: abbb 94bf 3021 cbbf 7a47 c5bf eff3 51bf
00000240: 285c 26bf 05ff 6abf 10f3 85bf 9479 86bf
00000250: c23f 8cbe 1835 53bf 0158 f7be 3989 48bf
00000260: 1d86 86bf 595a c7be e7e8 d0be 414e 32bf
00000270: c6d3 19bf 33af 3dbf a384 19bf 192d 4fbf
00000280: 9f2d 1bbf fd74 92bf 20ea 2bbf b0cb fbbe
00000290: 9df5 6fbf 86c8 3dbf 77e6 35bf 0566 18bf
000002a0: aade 3bbf f4e1 2bbf 9f58 2dbf b653 45bf
000002b0: e701 2fbf fea3 b3be c817 40bf e4f3 2cbf
000002c0: 9adc 44bf de1a 02bf 55bd 12bf f2e2 21bf
000002d0: ec12 a8be f56e 70bf 7551 e9be 0e46 00bf
000002e0: cc07 39bf 9dfd 13bf 2f4d 0cbf 5e09 1fbf
000002f0: 2138 43bf 6985 42bf e55d 6abe 8289 12bf
00000300: 82a9 18bf 5f39 25bf 6697 ffbe e7b6 14bf
00000310: 45a3 b4be 2c58 27bf d03b f9be eb83 40bf
00000320: 7342 3abf 3297 60bf a887 62bf f378 c1be
00000330: 5e78 1dbf fa04 3abf 344d bdbe 27f1 e7be
00000340: 1952 e3be 40d0 15bf b464 26bf 3f31 f8be
00000350: 01e5 25bf 441e 37bf 4924 11bf a1b3 63bf
00000360: 95ee 09bf f185 ebbe 9c89 2fbf 78c2 fabe
00000370: 2cdd debe a2fb 2ebf b94b 32bf 86f7 6abf
00000380: 9155 a9be ce3c 05bf a160 b5be 6bee 41bf
00000390: ab5e 5fbe d52f 33bf 8d21 19bf d8c9 29bf
000003a0: 557e 4abf b08d 48bf bafe 1ebf 9b09 febe
000003b0: 354f 88bf 2b41 1cbf a75f cbbe d9e7 0abf
000003c0: 2776 37bf 4ee5 36bf e82e 79bf a4f6 46bf
000003d0: 5407 47bf 34ce 34bf 4282 35bf dde5 01bf
000003e0: 1f02 2bbf 7009 29bf aa5c 72bf 9395 73bf
000003f0: 9bf8 2dbf b6af 0ebf e861 63bf fe37 73be

s4_layers.0.kernel.A_imag f4 [128, 32]
0.22177556 3.1903584 6.5539207 9.3227 12.757023 15.406727 18.938904 21.926062
25.085176 28.320938 31.676113 34.758278 38.48145 41.177288 44.257004 47.02559
50.810802 52.9985 56.282368 59.32685 62.597885 65.99494 68.990974 72.6347
75.18618 78.47022 81.76071 84.72036 88.626335 91.02725 94.27437 97.16583
-0.20507492 2.2912374 6.13265 9.65089 12.441221 15.556707 18.751793 22.24954
25.541794 27.813425 31.812508 34.61788 38.001297 40.745975 43.947914 47.049236
50.33872 53.078472 56.116627 59.6322 62.536808 66.037766 68.96268 72.30807
75.195335 78.46759 81.525185 84.78841 88.04591 91.048584 94.270584 97.38349
-0.270967 3.263581 6.099496 9.498958 12.506118 15.321654 18.847855 21.96642
25.370966 28.549143 31.327362 34.408634 38.103306 40.895927 44.249134 46.73802
49.98183 53.244022 56.800846 59.454502 62.72309 66.24965 69.04684 72.33921
75.611046 78.507385 81.566055 85.03908 87.86681 91.58583 94.5115 97.41743
-0.015587175 2.7681136 6.3488526 8.972693 12.44054 16.073683 18.410875 21.877176
25.241816 28.304195 31.574076 34.13013 37.988796 40.522488 44.140068 47.306156
50.26163 53.395763 56.79709 60.115158 62.88374 66.08287 69.19176 71.91279
75.418 78.407684 81.2163 84.64601 87.94548 91.276665 94.52369 97.39828
0.15546997 3.220991 6.129688 9.668777 12.948533 15.755777 18.72367 21.932722
25.406612 27.867123 31.241112 34.360035 37.67536 40.197357 43.590828 47.27178
50.154903 53.579296 56.56681 59.86665 62.804504 65.75495 69.07251 72.46274
75.33845 78.79609 81.81778 84.6603 87.882805 91.00979 94.532875 97.8188
0.19989511 2.6138113 6.2465363 9.431784 12.674577 15.903645 18.876413 21.954046
25.155611 28.191689 31.102371 34.42743 37.633785 40.77252 44.032307 47.111145
50.602993 53.706566 56.357765 59.658146 62.647533 65.46757 69.180466 72.198105
75.36249 78.75332 81.691315 84.8349 87.773094 91.15623 94.15139 97.22825
-0.25241965 3.5345702 6.1265516 9.50918 12.424942 15.668275 18.45144 22.173975
25.15176 28.010506 31.26179 34.706608 37.61193 40.790237 44.141674 47.175777
50.390377 53.301723 56.217155 59.53755 62.899338 65.93136 68.989586 72.38538
75.41032 78.82964 81.50276 85.0066 88.01603 90.98289 94.39909 97.524925
-0.073427215 3.0247858 6.3212466 9.510295 12.512323 15.746914 18.826 21.985872
25.162222 28.448488 31.292002 34.342384 37.343765 41.040455 43.924744 47.127052
50.35392 53.2875 56.399414 59.425076 62.91383 66.1458 69.53566 72.22531
75.17925 78.89983 81.27436 84.564575 87.82832 91.50294 94.80659 97.3713
00000000: 2219 633e d52e 4c40 b8b9 d140 c729 1541
00000010: c41c 4c41 f481 7641 e082 9741 9368 af41
00000020: 71ae c841 4891 e241 ae68 fd41 7a08 0b42
00000030: 01ed 1942 8bb5 2442 2c07 3142 341a 3c42
00000040: 433e 4b42 77fe 5342 2521 6142 b24e 6d42
00000050: 3c64 7a42 69fd 8342 61fb 8942 f744 9142
00000060: 535f 9642 c1f0 9c42 7c85 a342 d370 a942
00000070: af40 b142 f40d b642 7a8c bc42 e854 c242
00000080: 29ff 51be a2a3 1240 ab3e c440 0c6a 1a41
00000090: 3e0f 4741 46e8 7841 ac03 9641 0fff b141
000000a0: 9855 cc41 e581 de41 0480 fe41 b678 0a42
000000b0: 5401 1842 e1fb 2242 aaca 2f42 6b32 3c42
000000c0: d95a 4942 5b50 5442 6d77 6042 5f87 6e42
000000d0: b125 7a42 5613 8442 e4ec 8942 bb9d 9042
000000e0: 0364 9642 68ef 9c42 e50c a342 aa93 a942
000000f0: 8217 b042 e018 b642 8a8a bc42 59c4 c242
00000100: 30bc 8abe 83de 5040 122f c340 bbfb 1741
00000110: 0f19 4841 7f25 7541 68c8 9641 3abb af41
00000120: bdf7 ca41 a564 e441 709e fa41 71a2 0942
00000130: c969 1842 6e95 2342 1dff 3042 bcf3 3a42
00000140: 65ed 4742 e1f9 5442 1134 6342 69d1 6d42
00000150: 72e4 7a42 d27f 8442 fb17 8a42 adad 9042
00000160: db38 9742 c803 9d42 d221 a342 0214 aa42
00000170: cfbb af42 f22b b742 e305 bd42 b9d5 c242
00000180: 5a61 7fbc c628 3140 cd29 cb40 2790 0f41
00000190: 740c 4741 e796 8041 7949 9341 7504 af41
000001a0: 3def c941 fe6e e241 b597 fc41 4185 0842
000001b0: 87f4 1742 0717 2242 6e8f 3042 8139 3d42
000001c0: e90b 4942 4395 5542 3830 6342 ec75 7042
000001d0: f388 7b42 6e2a 8442 2e62 8a42 59d3 8f42
000001e0: 04d6 9642 bcd0 9c42 bf6e a242 c24a a942
000001f0: 16e4 af42 a78d b642 210c bd42 ebcb c242
00000200: 8533 1f3e b724 4e40 6726 c440 50b3 1a41
00000210: 312d 4f41 aa17 7c41 13ca 9541 3776 af41
00000220: be40 cb41 deef de41 cced f941 ad70 0942
00000230: 92b3 1642 18ca 2042 025d 2e42 4d16 3d42
00000240: 9f9e 4842 3351 5642 6a44 6242 7377 6f42
00000250: d037 7b42 8982 8342 2025 8a42 ecec 9042
00000260: 49ad 9642 9997 9d42 b4a2 a342 1352 a942
00000270: ffc3 af42 0305 b642 d510 bd42 3aa3 c342
00000280: 4eb1 4c3e af48 2740 a0e3 c740 96e8 1641
00000290: 11cb 4a41 5475 7e41 e502 9741 e3a1 af41
000002a0: b13e c941 9488 e141 a8d1 f841 b0b5 0942
000002b0: ff88 1642 0f17 2342 1521 3042 d071 3c42
000002c0: 7769 4a42 86d3 5642 5a6e 6142 f1a1 6e42
000002d0: 1397 7a42 65ef 8242 665c 8a42 6e65 9042
000002e0: 98b9 9642 b381 9d42 f461 a342 78ab a942
000002f0: d38b af42 fd4f b642 834d bc42 dd74 c242
00000300: 263d 81be 6636 6240 b60c c440 9a25 1841
00000310: 90cc 4641 41b1 7a41 8d9c 9341 4d64 b141
00000320: ce36 c941 8415 e041 2518 fa41 91d3 0a42
00000330: 9e72 1642 3429 2342 1391 3042 ffb3 3c42
00000340: bf8f 4942 f734 5542 5ede 6042 7426 6e42
00000350: ec98 7b42 dbdc 8342 abfa 8942 51c5 9042
00000360: 15d2 9642 c7a8 9d42 6a01 a342 6103 aa42
00000370: 3508 b042 3df7 b542 56cc bc42 c30c c342
00000380: 0261 96bd 1796 4140 a747 ca40 2b2a 1841
00000390: 7a32 4841 5cf3 7b41 a69b 9641 11e3 af41
000003a0: 3b4c c941 8196 e341 0556 fa41 9a5e 0942
000003b0: 0460 1542 6d29 2442 f0b2 2f42 1a82 3c42
000003c0: 6a6a 4942 6626 5542 0099 6142 47b3 6d42
000003d0: c3a7 7b42 a64a 8442 4212 8b42 5c73 9042
000003e0: c75b 9642 b7cc 9d42 798c a242 1021 a942
000003f0: 1aa8 af42 8101 b742 f99c bd42 1bbe c242

s4_layers.0.output_linear.0.weight f4 [256, 128, 1]
0.039234255 0.0106141735 -0.18932663 0.008995884 0.040672354 0.08333826 0.1875133 0.07889308
0.02518664 0.06806199 -0.11058094 0.103672996 0.034635544 -0.06637197 0.1324364 -0.03353103
0.2500898 0.034018993 -0.10533995 -0.022489512 0.052738473 0.1755142 0.06658762 0.019004634
0.1318872 -0.16125837 -0.07618508 0.007890437 0.00013566182 0.07500344 0.04930211 -0.1662533
0.015143146 0.1671923 -0.10392708 0.067467585 0.042396374 -0.04427489 -0.009664357 -0.10305759
-0.07686764 -0.1261013 0.18350305 -0.103201516 0.059105847 -0.044025037 0.05868379 0.13889882
-0.3542064 -0.14221576 0.09011587 0.04294433 0.2378637 -0.1986569 0.005671903 0.2307628
0.012933809 0.15903188 -0.13449779 0.09173134 -0.011498956 -0.004616173 -0.0060308008 0.18206167
-0.1642698 0.0958496 0.015687328 0.09163107 -0.11233965 -0.16958985 -0.029338352 -0.029940892
0.059421685 -0.10009183 -0.078140914 0.24755196 0.062815934 0.05178216 0.0023253753 -0.21296705
-0.07126311 0.102531075 -0.0337979 -0.11376726 -0.1583082 0.24181475 0.17866835 -0.041048266
0.0829315 -0.053811535 0.0852878 -0.008959714 -0.15053812 0.04679888 -0.098005645 0.11283701
-0.09626461 -0.10541973 0.006097503 -0.13740315 -0.092566624 0.22429977 0.037583154 -0.014701757
-0.1110036 -0.0017221518 0.07964357 -0.05540341 -0.16861573 0.0044271676 0.0093963435 -0.018955281
0.10661689 0.096003614 -0.0635556 -0.03950002 -0.13281792 -0.3086503 0.034898043 0.21237448
-0.03811329 -0.06969629 0.19848114 -0.073729806 -0.08668862 -0.08747053 0.063885435 0.020728512
-0.06519959 0.021450307 0.12284975 0.21471134 -0.19466011 -0.16336137 0.09273639 -0.028820181
-0.06696706 0.00011206411 -0.15329635 0.009401271 0.11786485 0.0122953 0.0631812 -0.13044408
-0.008179438 0.07388344 0.019250482 -0.011249635 -0.031548522 0.051311154 -0.18710247 0.08938534
-0.035111982 -0.16396366 -0.021888748 -0.09017956 -0.061081067 0.023977516 0.241392 -0.09779597
0.116582185 -0.17067035 0.13568985 -0.03846645 -0.04127319 0.33616793 0.18033114 0.09421716
0.13545613 -0.061005894 -0.039979078 -0.06580024 0.011970681 0.11890805 0.024436884 -0.03437581
0.070621416 -0.0757081 -0.010998958 -0.12703913 -0.1454017 0.086550936 -0.14830507 0.017093018
0.1875752 -0.3164883 0.18172939 -0.21918206 0.18343914 0.036813937 -0.041474324 -0.030323135
0.025369745 -0.1018709 0.08728224 -0.17933244 0.05097496 -0.014672107 0.16231771 -0.29997766
0.070886776 0.025786163 -0.106435925 -0.11676954 0.0004698419 0.07017006 -0.06186469 -0.055759713
-0.10076481 0.18050186 0.16760848 0.04736209 0.0815779 0.041609272 0.15558471 0.004160698
-0.0025043644 -0.031985175 -0.17496653 -0.04733779 0.06742972 0.091507524 -0.17330602 -0.027845342
-0.13402224 0.008189588 0.13940482 -0.096225925 -0.011421033 0.11432909 -0.14741537 0.032943226
-0.027836664 0.21208104 -0.013796096 0.0087360265 -0.15883657 -0.21912277 0.14084749 0.09325371
-0.039743382 0.11121529 0.16691256 0.36298674 -0.065450884 -0.016322326 0.014303776 0.25101277
-0.20220853 -0.1830398 0.02284723 0.22378767 0.1476135 0.15809348 0.17541206 0.07910815
00000000: 19b4 203d 12e7 2d3c d7de 41be 7963 133c
00000010: 0e98 263d 40ad aa3d 7d03 403e b292 a13d
00000020: 3654 ce3c 1664 8b3d 4378 e2bd 8252 d43d
00000030: 00de 0d3d 07ee 87bd 689d 073e d557 09bd
00000040: c50b 803e 8057 0b3d 79bc d7bd ed3b b8bc
00000050: 4c04 583d ffb9 333e 175f 883d 9baf 9b3c
00000060: 700d 073e ea20 25be ec06 9cbd e446 013c
00000070: 7140 0e39 679b 993d 02f1 493d 4e3e 2abe
00000080: f51a 783c 7534 2b3e b9d7 d4bd 722c 8a3d
00000090: d2a7 2d3d 9659 35bd 4057 1ebc dc0f d3bd
000000a0: c86c 9dbd b320 01be 39e8 3b3e 515b d3bd
000000b0: f918 723d 9953 34bd 6a5e 703d 7e3b 0e3e
000000c0: 8b5a b5be 02a1 11be ab8e b83d 65e6 2f3d
000000d0: 8b92 733e b76c 4bbe 5fdb b93b 154d 6c3e
000000e0: 54e8 533c 41d9 223e cab9 09be a4dd bb3d
000000f0: 1e66 3cbc 4443 97bb 069e c5bb 606e 3a3e
00000100: 5836 28be cc4c c43d b682 803c 12a9 bb3d
00000110: 5512 e6bd f6a8 2dbe fc56 f0bc 9a46 f5bc
00000120: 2764 733d f2fc ccbd 5808 a0bd 437e 7d3e
00000130: a4a5 803d 8819 543d 5365 183b 0914 5abe
00000140: 65f2 91bd d0fb d13d ab6f 0abd cffe e8bd
00000150: 8b1b 22be 499e 773e d6f4 363e 3a22 28bd
00000160: fed7 a93d 7c69 5cbd 5fab ae3d c4cb 12bc
00000170: aa26 1abe 2fb0 3f3d 2fb7 c8bd 1717 e73d
00000180: 6126 c5bd 4de6 d7bd 90cd c73b 69b3 0cbe
00000190: 9293 bdbd d7ae 653e cbf0 193d a3df 70bc
000001a0: db55 e3bd d3b9 e1ba 2b1c a33d b0ee 62bd
000001b0: 9aa9 2cbe c611 913b 1ff3 193c 1b48 9bbc
000001c0: f559 da3d 8b9d c43d 7029 82bd c6ca 21bd
000001d0: 6c01 08be 6a07 9ebe 40f1 0e3d b278 593e
000001e0: ae1c 1cbd eebc 8ebd a43e 4b3e a7ff 96bd
000001f0: ce89 b1bd c023 b3bd 5ed6 823d d7ce a93c
00000200: 5d87 85bd 8eb8 af3c a698 fb3d 4add 5b3e
00000210: fb54 47be 3448 27be 94ec bd3d 4d18 ecbc
00000220: 0726 89bd f603 eb38 b8f9 1cbe ca07 1a3c
00000230: 2063 f13d 3a72 493c 2565 813d 2293 05be
00000240: 0d03 06bc 3350 973d 30b3 9d3c 6450 38bc
00000250: 0639 01bd a52b 523d ca97 3fbe a90f b73d
00000260: 95d1 0fbd 17e6 27be 0850 b3bc 10b0 b8bd
00000270: 2430 7abd 7f6c c43c 772f 773e 4149 c8bd
00000280: a4c2 ee3d 35c4 2ebe 48f2 0a3e ff8e 1dbd
00000290: 140e 29bd 341e ac3e baa8 383e edf4 c03d
000002a0: 03b5 0a3e 51e1 79bd 1ac1 23bd 47c2 86bd
000002b0: ad20 443c 1086 f33d dc2f c83c a6cd 0cbd
000002c0: f6a1 903d d90c 9bbd f934 34bc 8c16 02be
000002d0: 2fe4 14be 9e41 b13d 49dd 17be a806 8c3c
000002e0: b713 403e c10a a2be 4517 3a3e 4371 60be
000002f0: 78d7 3b3e 36ca 163d fbe0 29bd 3968 f8bc
00000300: 36d4 cf3c b1a1 d0bd 08c1 b23d eca2 37be
00000310: 1fcb 503d 4763 70bc 9d36 263e ac96 99be
00000320: 162d 913d 813d d33c 14fb d9bd de24 efbd
00000330: 1d55 f639 52b5 8f3d d465 7dbd 4c64 64bd
00000340: c85d cebd 7bd5 383e 8fa1 2b3e c0fe 413d
00000350: 5012 a73d 7c6e 2a3d 9951 1f3e 7756 883b
00000360: 4320 24bb e302 03bd 6d2a 33be 45e5 41bd
00000370: 9818 8a3d 4c68 bb3d 2277 31be ea1b e4bc
00000380: 203d 09be 9f2d 063c 23c0 0e3e 1912 c5bd
00000390: 491f 3bbc 5f25 ea3d 0ef4 16be 7aef 063d
000003a0: b709 e4bc c62b 593e 0509 62bc 8d21 0f3c
000003b0: 0ea6 22be b861 60be 533a 103e cdfb be3d
000003c0: f5c9 22bd d8c4 e33d 20eb 2a3e 66d9 b93e
000003d0: 1d0b 86bd 66b6 85bc 635a 6a3c bf84 803e
000003e0: c10f 4fbe c96e 3bbe 1d2a bb3c 9828 653e
000003f0: fe27 173e 42e3 213e 389f 333e 7403 a23d

s4_layers.0.output_linear.0.bias f4 [256]
-0.031377982 -0.02441638 0.07824874 0.0140733775 0.02787964 0.0027918527 -0.016151339 0.2076867
0.022660397 -0.044925988 -0.047488116 0.08447645 0.06296655 0.07502382 -0.07782216 0.103990115
-0.003984929 -0.0043390114 0.07413237 0.029895844 0.032447115 -0.027863894 -0.11654655 0.017467652
-0.017640416 0.032043055 0.16206594 -0.0028950651 -0.009274198 -0.078796916 -0.04765728 -0.07948343
0.0007181011 -0.0027716623 0.065591656 -0.005180481 0.09272806 0.029691497 0.061646555 0.14986603
-0.01612493 0.029082922 -0.05509611 0.11893256 0.0747657 0.045497537 -0.07944856 0.023763474
-0.046540577 0.072522 -0.15601784 -0.07189602 0.0061566746 0.00909065 0.07613725 0.011355665
0.05166981 -0.024481578 0.048051395 0.07075259 -0.08488278 -0.028717685 -0.08047991 0.06047899
-0.047739275 -0.11598988 0.004305055 -0.012279284 -0.0491911 0.04369055 0.07008503 -0.029518703
-0.06954741 -0.16049199 0.06085985 -0.027460704 0.15627928 0.04063564 0.09711246 -0.052991834
-0.012434212 0.044356354 0.006782664 -0.01317872 -0.0013913347 -0.09135807 0.05710614 -0.05335606
-0.08707051 -0.018133981 -0.088649526 0.017419565 0.077238776 -0.057300404 0.00848775 -0.009337504
0.06265117 0.22229253 0.023030989 0.020276139 0.043423157 -0.17159171 -0.016487632 0.021942554
-0.029177345 0.0039249654 0.018819105 0.029665595 0.05268623 0.03929071 -0.037280455 0.08887737
0.05404624 -0.054266516 0.0092318915 0.052019585 0.06549869 -0.08713697 0.08534333 -0.046364635
0.043359164 0.1385017 0.043635424 0.0573487 -0.032179914 -0.043496355 -0.09656834 -0.05751969
-0.34573454 -0.056289572 0.049395733 -0.1451584 -0.10554342 -0.07754703 -0.18563814 -0.19355829
-0.14052418 0.09098509 -0.14596915 0.042185053 -0.057266187 -0.10189779 0.0060708732 0.06968896
-0.25363436 -0.0909835 -0.18558374 0.040092546 -0.17047273 -0.23003595 -0.21823014 -0.06299373
-0.09134188 -0.040921636 -0.10544104 -0.10587151 -0.123831145 -0.027604487 -0.019266611 -0.2957369
-0.03713369 -0.21270628 -0.24249674 -0.07776256 -0.18359569 -0.19770953 -0.17119838 0.062965296
-0.2016136 -0.18194444 -0.17758566 0.06134493 -0.092484616 -0.06720793 -0.07429204 -0.16789444
-0.31315666 -0.06775399 0.25414822 -0.40046105 0.032770127 -0.24266003 -0.1156956 -0.13866839
-0.18677239 -0.14250535 -0.1586763 -0.12050947 -0.12901154 0.036845353 0.023533236 -0.011810578
0.14411661 -0.12919714 -0.033157144 -0.23116648 0.054420505 -0.18269703 -0.42257816 0.017115302
-0.14604941 -0.036648504 -0.3549652 -0.056190494 -0.2455104 0.0091890795 0.06034425 -0.08835719
0.02957034 0.02543165 -0.08225905 -0.13145061 -0.17063221 -0.23880175 -0.12044474 -0.29260418
-0.1696648 -0.12122384 -0.21541367 -0.090101145 0.11247518 -0.31126648 -0.1240523 -0.0234128
-0.18420868 -0.17364824 -0.19284956 -0.075369716 -0.27183565 -0.161222 -0.0727066 -0.07130166
-0.077094704 -0.2146191 0.06412828 -0.19584611 -0.05182957 -0.124491185 -0.34010175 -0.43197078
0.09906447 -0.008722892 -0.116157115 -0.23510657 -0.15777089 -0.1878789 0.017704634 -0.117018305
-0.06809955 0.06970967 -0.10221743 -0.06430468 -0.102550305 -0.018709855 -0.10501198 -0.21702278
00000000: 3386 00bd dc04 c8bc e040 a03d 0694 663c
00000010: d863 e43c 84f7 363b d04f 84bc d3ab 543e
00000020: 4ca2 b93c 5004 38bd e682 42bd fd01 ad3d
00000030: 9bf4 803d 17a6 993d 3a61 9fbd c5f8 d43d
00000040: 0294 82bb 442e 8ebb b6d2 973d 21e8 f43c
00000050: 44e7 043d d242 e4bc f5af eebd 5218 8f3c
00000060: a282 90bc 943f 033d 9df4 253e 22bb 3dbb
00000070: cef2 17bc 4760 a1bd 4834 43bd 35c8 a2bd
00000080: f33e 3c3a c7a4 35bb eb54 863d 06c1 a9bb
00000090: 36e8 bd3d 953b f33c 1981 7c3d 7b76 193e
000000a0: 6e18 84bc 4f3f ee3c 75ac 61bd ea92 f33d
000000b0: c21e 993d a05b 3a3d edb5 a2bd 9eab c23c
000000c0: 55a1 3ebd 6a86 943d 24c3 1fbe 383e 93bd
000000d0: eebd c93b f3f0 143c d9ed 9b3d 1c0d 3a3c
000000e0: b9a3 533d 978d c8bc 8ad1 443d bce6 903d
000000f0: 06d7 adbd 5a41 ebbc a7d2 a4bd d1b8 773d
00000100: 428a 43bd 1a8c edbd 6b11 8d3b 0d2f 49bc
00000110: 9b7c 49bd ddf4 323d bd88 8f3d 35d1 f1bc
00000120: df6e 8ebd 0358 24be 2e48 793d 45f5 e0bc
00000130: ad07 203e 8f71 263d e6e2 c63d f70d 59bd
00000140: ddb8 4bbc 02af 353d 1c41 de3b 8feb 57bc
00000150: 725d b6ba f119 bbbd 21e8 693d e28b 5abd
00000160: 0652 b2bd b78d 94bc e28d b5bd 7ab3 8e3c
00000170: 5d2f 9e3d d4b3 6abd 3410 0b3c 55fc 18bc
00000180: 424f 803d a7a0 633e 7cab bc3c 251a a63c
00000190: 7bdc 313d bdb5 2fbe 1211 87bc dfc0 b33c
000001a0: 5405 efbc ff9c 803b 862a 9a3c 4305 f33c
000001b0: 84cd 573d 4cef 203d 64b3 18bd 5705 b63d
000001c0: 975f 5d3d 9146 5ebd 5c41 173c 7d12 553d
000001d0: 2d24 863d de74 b2bd 7cc8 ae3d d8e8 3dbd
000001e0: 6199 313d 64d3 0d3e 0fbb 323d 78e6 6a3d
000001f0: 16cf 03bd 3c29 32bd 9fc5 c5bd c499 6bbd
00000200: 1e04 b1be e58f 66bd 2e53 4a3d 67a4 14be
00000210: 2627 d8bd fad0 9ebd ed17 3ebe 2534 46be
00000220: 92e5 0fbe 6456 ba3d f078 15be 3cca 2c3d
00000230: f38f 6abd caaf d0bd 2dee c63b 16b9 8e3d
00000240: 5ddc 81be 8f55 babd aa09 3ebe 1538 243d
00000250: 6790 2ebe 8b8e 6bbe b977 5fbe db02 81bd
00000260: 7411 bbbd 729d 27bd 79f1 d7bd 2ad3 d8bd
00000270: 2f9b fdbd ce22 e2bc 03d5 9dbc d46a 97be
00000280: 7f19 18bd adcf 59be 1151 78be fa41 9fbd
00000290: 8200 3cbe 5e74 4abe a14e 2fbe f3f3 803d
000002a0: cc73 4ebe a54f 3abe 04d9 35be d244 7b3d
000002b0: 9368 bdbd 50a4 89bd 6d26 98bd 85ec 2bbe
000002c0: 1256 a0be 9bc2 8abd b71f 823e 3b09 cdbe
000002d0: f839 063d df7b 78be d1f1 ecbd 16ff 0dbe
000002e0: 4341 3fbe ecec 11be 0a7c 22be abcd f6bd
000002f0: 9a1b 04be 27eb 163d c6c8 c03c 2881 41bc
00000300: 4e93 133e 414c 04be c9cf 07bd e8b6 6cbe
00000310: 09e8 5e3d ee14 3bbe 2a5c d8be 6435 8c3c
00000320: fa8d 15be be1c 16bd 00be b5be 0128 66bd
00000330: 1467 7bbe cb8d 163c 882b 773d 9df4 b4bd
00000340: 7f3d f23c 0956 d03c 6f77 a8bd fd9a 06be
00000350: 36ba 2ebe 7288 74be bbab f6bd 37d0 95be
00000360: 9cbc 2dbe 3444 f8bd 6795 5cbe f386 b8bd
00000370: 6359 e63d 525e 9fbe 220f febd 33cc bfbc
00000380: 33a1 3cbe d8d0 31be 5b7a 45be 705b 9abd
00000390: 0b2e 8bbe 6117 25be 33e7 94bd 9b06 92bd
000003a0: d4e3 9dbd 1cc5 5bbe b055 833d e28b 48be
000003b0: 3e4b 54bd 3cf5 febd d121 aebe 462b ddbe
000003c0: 50e2 ca3d 76ea 0ebc c8e3 edbd c7bf 70be
000003d0: b18e 21be 5463 40be 4f09 913c 4ba7 efbd
000003e0: c777 8bbd f2c3 8e3d 5f57 d1bd 2cb2 83bd
000003f0: e505 d2bd 6945 99bc 8510 d7bd 383b 5ebe

s4_layers.1.D f4 [128]
0.8642309 0.44462785 -1.2383926 1.1719946 0.09629192 0.4959578 0.81100875 -2.030888
-1.3862073 -0.4250298 -1.8994783 -0.064610794 1.5190462 0.427182 0.762841 0.7279834
0.51651156 -0.3137027 0.8486418 0.9921451 0.47046387 1.0963858 0.20384404 -1.0718281
0.7283991 -0.078579426 0.98866373 -0.33790055 0.5481709 0.4996533 -0.42075345 -1.3356365
1.0808787 -0.6290334 0.9361274 -0.9598737 0.1435875 1.3962481 -1.0858299 -0.95486444
-0.25038552 1.9064013 0.57412034 -1.0096735 -0.22357717 -0.7644241 -0.80395216 -0.56917894
0.8441998 0.2802712 0.47359627 1.8146124 0.3609969 1.6003083 1.7477176 -2.0188184
-1.057295 -0.7250172 -0.085194565 -1.2965351 1.7379673 -0.53197145 -0.877227 -2.3032944
-0.31353265 0.6920043 -0.028430693 1.3937409 -0.03316467 -0.57240033 -0.7141804 1.3522133
0.42995426 -0.17170179 -1.0102813 -0.9699777 -1.1385905 0.7631866 -1.819548 0.5326356
0.6446659 -0.13239053 -0.09076013 -0.26095143 0.97694415 -0.28288388 0.17009738 -0.26630676
1.9423065 0.58240074 0.16879392 0.3824033 -0.7100316 -1.484663 0.2271445 -0.22093081
0.74314654 -1.3323883 -1.0190487 1.8867532 -2.8008993 0.31514513 -0.22757825 -0.3164572
-0.2762129 -0.46201268 0.52819824 -0.06053426 -1.2536879 -0.66778404 -0.19502248 0.11576321
-0.16031829 0.48224545 0.3294574 -1.1502941 1.4140614 1.6842037 -0.6161958 1.5048379
0.20399067 -0.21749483 -0.08863233 -0.37582493 -0.8710545 -1.143078 0.35029504 -0.23726183
00000000: 3c3e 5d3f 43a6 e33e a683 9ebf eb03 963f
00000010: b334 c53d 2eee fd3e 459e 4f3f 12fa 01c0
00000020: 3e6f b1bf 829d d9be 1b22 f3bf aa52 84bd
00000030: 1b70 c23f 99b7 da3e 8c49 433f 1f5d 3a3f
00000040: 1a3a 043f a49d a0be 9740 593f 39fd 7d3f
00000050: a4e0 f03e 5f56 8c3f 7ebc 503e aa31 89bf
00000060: 5d78 3a3f 40ee a0bd 1119 7d3f 4d01 adbe
00000070: ee54 0c3f 8fd2 ff3e ff6c d7be 23f6 aabf
00000080: 3c5a 8a3f 5508 21bf 0ca6 6f3f 48ba 75bf
00000090: 9a08 133e 42b8 b23f 79fc 8abf ff71 74bf
000000a0: 8832 80be f504 f43f 8df9 123f fb3c 81bf
000000b0: 6af1 64be 4cb1 43bf cfcf 4dbf b6b5 11bf
000000c0: 7a1d 583f b57f 8f3e 367b f23e 3845 e83f
000000d0: 96d4 b83e e7d6 cc3f 36b5 df3f 5234 01c0
000000e0: 7155 87bf ba9a 39bf 7d7a aebd ddf4 a5bf
000000f0: b675 de3f 482f 08bf f391 60bf 2d69 13c0
00000100: 5a87 a0be 3227 313f 7ce7 e8bc 1a66 b23f
00000110: add7 07bd d488 12bf 87d4 36bf 5315 ad3f
00000120: f722 dc3e 98d2 2fbe e650 81bf 7550 78bf
00000130: 55bd 91bf 3260 433f f3e6 e8bf cf5a 083f
00000140: d308 253f 6291 07be 72e0 b9bd 6d9b 85be
00000150: 0319 7a3f 28d6 90be 022e 2e3e 5c59 88be
00000160: 809d f83f 3718 153f 50d8 2c3e 5eca c33e
00000170: a2c4 35bf 7009 bebf 9198 683e b03b 62be
00000180: da3e 3e3f b38b aabf 3070 82bf 2181 f13f
00000190: ef41 33c0 b45a a13e 460a 69be ae06 a2be
000001a0: c76b 8dbe ed8c ecbe 0038 073f c6f2 77bd
000001b0: d878 a0bf e5f3 2abf f9b3 47be 4315 ed3d
000001c0: 7a2a 24be e0e8 f63e a4ae a83e d63c 93bf
000001d0: f7ff b43f fd93 d73f 02bf 1dbf 879e c03f
000001e0: eee2 503e f7b6 5ebe de84 b5bd 206c c0be
000001f0: 6dfd 5ebf 6150 92bf df59 b33e c4f4 72be
